nets/tae_default.pt (torch, 241766 bytes, 42 tensors)

weight f4 [32, 6]
00000000: d6d9 b7bc d91f df3d 9ff7 4ebe b67a 883e
00000010: 1be7 bf3e bbab a2be 8450 7a3e e0c3 b33d
00000020: acae 873e 2e4e 9d3d 0851 723e 4765 00bd
00000030: 67c6 a03e 42b7 813d 3501 38be 82ea f83d
00000040: b48a 40be e886 49bd cb4f ec3a 7d9e a43e
00000050: 53ec babe 5029 5fbe 813f 04be a9e6 83be
00000060: 9a04 84bd 1fa1 d9be a168 d03e 2915 acbe
00000070: 17dd 993e dded 823c ed72 86bd b682 273e
00000080: e911 a73d b998 d73e e06b cc3d a549 dfbd
00000090: 2e90 cb3d 34c2 18be 47bc 4c3e 133b d53e
000000a0: fa8c 863e 7fac 43be 330b 2c3e 708a ac3d
000000b0: 002c 453e e208 81be e97d d2be a8ed 1ebe
000000c0: 5bdc 3fbe 5048 ad3e c7ae f33d 7ad3 803e
000000d0: 2b6b 323e 7e27 c1bc f4c8 673e a180 98be
000000e0: 7cd7 113d 285d 87be 250e 063e 593d 28be
000000f0: 2e60 943d 079b eebc 81f6 a53e 3026 7abe
00000100: 54c9 82be 5996 90be 37c7 993e c7ce 4a3e
00000110: 1db4 b93e 207f b6be 2649 dbbe 0064 b3be
00000120: 31bc 63be 7b12 053e 58ff 2e3e 49b6 b03e
00000130: 1866 50be ba20 86be d929 0a3e 59e5 45be
00000140: c579 8b3e e951 9dbd c1eb 783e f994 a9be
00000150: fc0b f9bd a345 ed3d 024f 723d c219 f4bd
00000160: 1b2d 873e 0d13 ae3e fe44 6abe 3c00 58be
00000170: 0fe7 b23e 597a 12be 78f3 e8bd 3142 b6be
00000180: c843 42be 9b73 073e b449 3cbd 703c 99be
00000190: 6ff3 67bc 5737 a7be e814 78be 4e1f 49be
000001a0: 2cf6 c5be 35dc 96be 0995 c93e aec1 c43d
000001b0: 342e 883d af34 c4be e16a 85be 44ef 42be
000001c0: 4730 7b3c f7d9 b8be 6cf4 d2bd b600 92be
000001d0: d52a c0bc 8b1e ffbd 418d 993d adff 4bbe
000001e0: 656b 6fbe 9bbe 84be 9e20 13be ad6b babe
000001f0: 969b a93e 52aa c2bc 69c2 a23e 15eb e93d
00000200: 1049 b2be b8b3 a53e 4afb a2bd aa67 11be
00000210: 6f12 74be cdb6 d5be 4168 e63d 4a57 91bd
00000220: 293b 423e b39d a0be dc9a 203e 8d26 a6be
00000230: 2f9d 4fbd c088 dd3d 5505 6a3e a016 9f3e
00000240: 353b 923e e805 97be bc57 bd3d 6f88 15be
00000250: f097 25bd e90f c1be 7537 8b3e 8e8b bdbe
00000260: 21de 6e3e c6b5 523e b0ee 463e 426d 18be
00000270: fef9 a43e 10fe ed3d 8c5e 413d 6424 c1be
00000280: 17c7 153e 6f4c b1bd f8a3 12be 6c38 bf3e
00000290: c89f ac3d af46 84be 798f 78be 8197 70bd
000002a0: 1972 5c3e 61b5 8dbd caab 85be 6c0d 2abe
000002b0: 9244 a5be 2fa5 1c3e 8015 933e f8aa d3be
000002c0: 7b24 cf3d f67b 693e d673 c63d 8d19 ccbd
000002d0: de5e 743e 8c49 563e a6ee 1f3e 5f1d d8bd
000002e0: 3c05 07be 6b17 743d af66 9fbd 810f 12be
000002f0: ca54 8e3e 38a1 d43e 70bc a73b 5822 bdbd
-0.02244274 0.10894746 -0.20211647 0.2665612 0.37481007 -0.31771645 0.24444777 0.087775946
0.26500452 0.07680927 0.23663723 -0.031346586 0.3140137 0.06333782 -0.1796921 0.12154104
-0.18802911 -0.049200922 0.0018029151 0.32152167 -0.36508426 -0.21793103 -0.1291485 -0.25761917
-0.0644619 -0.42505738 0.40704826 -0.33609894 0.3005149 0.015982563 -0.06564889 0.16358456
0.08157713 0.42108706 0.09981513 -0.109027185 0.099396095 -0.14917833 0.19993697 0.41646633
0.26279432 -0.19108771 0.16801147 0.08424842 0.19255066 -0.2520209 -0.41111687 -0.15520346
-0.18736403 0.33844233 0.118985705 0.25161344 0.17423694 -0.023578402 0.22635251 -0.29785636
0.035605893 -0.2643826 0.13091333 -0.16429652 0.07244907 -0.029126657 0.3241463 -0.2442863
-0.25544226 -0.28239706 0.300348 0.19805442 0.36270228 -0.35643864 -0.42829245 -0.3503723
-0.22239758 0.12995331 0.17089593 0.34514073 -0.20351446 -0.26196843 0.13492526 -0.1932577
0.2724134 -0.07681639 0.24308683 -0.3312147 -0.12160489 0.11585548 0.05915738 -0.119189754
0.264016 0.3399891 -0.22877881 -0.2109384 0.3494191 -0.14304484 -0.11374563 -0.35597375
-0.18971169 0.13227694 -0.045968726 -0.29928923 -0.01415716 -0.32659408 -0.24226725 -0.19640848
-0.38664377 -0.2946488 0.39371517 0.09607254 0.066494375 -0.38321444 -0.26058105 -0.19036585
0.015331334 -0.36103794 -0.10300526 -0.28516167 -0.023457924 -0.124569975 0.07497645 -0.19921751
-0.23380812 -0.2592667 -0.14367911 -0.36410275 0.33126515 -0.023762856 0.31788948 0.114217915
-0.34821367 0.32363677 -0.07958086 -0.14199701 -0.23835157 -0.41741028 0.112503536 -0.07096727
0.1896788 -0.31370315 0.15684074 -0.32451287 -0.05068701 0.108170986 0.22853597 0.3107195
0.28560796 -0.29496694 0.0924525 -0.14602827 -0.040428102 -0.3770745 0.27190748 -0.37020534
0.23326923 0.20577154 0.1942699 -0.14885429 0.3222198 0.11620724 0.047209308 -0.37723076
0.14626728 -0.08657157 -0.14320362 0.37347734 0.08428913 -0.25835177 -0.2427348 -0.058738235
0.215279 -0.06919361 -0.26107627 -0.16606683 -0.32278877 0.15297388 0.2872734 -0.41341376
0.1011438 0.22801194 0.09690063 -0.09965811 0.23864314 0.20926493 0.15618381 -0.10552477
-0.1318559 0.059592646 -0.07783257 -0.14263727 0.27799064 0.4152925 0.005118899 -0.09235066

bias f4 [32]
00000000: ee39 b33c 5cbb dbbd deb5 d33d 003a 373e
00000010: 7d77 c9be e767 a9be eb6d af3e 7b13 283e
00000020: c33c 54bd 087f 7cbe a82a aabe 0020 b1be
00000030: 9ae5 0fbe ae36 f63d 78b7 963e b29a 593e
00000040: 3afa dfbe 75e0 65be b7d3 a3bd 07fd 083f
00000050: 7ed7 953d f351 afbd e765 813e cf41 2cbe
00000060: a50d 9dbe 0c00 953e 5394 55be 1fa6 5bbd
00000070: c890 c3be 783a 9c3e dfb5 a83e 5aa4 f33d
0.021878209 -0.10729095 0.10337423 0.17893219 -0.39348975 -0.33087084 0.34263548 0.16413681
-0.05181576 -0.24657834 -0.3323567 -0.34594727 -0.1405243 0.12022148 0.2943685 0.21250418
-0.43745595 -0.22448905 -0.07999366 0.5351109 0.073164925 -0.085605524 0.25273058 -0.16821979
-0.30674472 0.29101598 -0.20857362 -0.053625222 -0.38196397 0.30513358 0.32951257 0.11896582

in_proj_weight f4 [96, 32]
00000000: a93f 5abe 344b 0e3d 146d 133e 7598 2abe
00000010: fef6 d33d 2ed7 4b3c 1595 ff3d de94 213e
00000020: eec8 093e 05e5 b1bc 3312 3d3e df92 5b3e
00000030: 3714 8abe b81f 6abe 0c45 943c 2506 e93d
00000040: ae73 62bd 8543 c13d e8ce 533d c865 c43c
00000050: 365b 1ebd eb98 bf3d f803 da3d c49b 10be
00000060: 9539 023d 98ba ccbd a399 143e 6b98 8c3e
00000070: 9e61 093e 3bb7 0ebe 7f7f 3d3e a1b5 64be
00000080: 4b5e a8bd 3716 2d3e 32b4 f8bd 0ee6 b53c
00000090: bea6 0dbe 466b c33c c61f 123c ab81 963d
000000a0: 42ce 51be 5a7a 3bbe ce5c 043e 4249 653e
000000b0: aee1 37be 84ad 053e 11ac 4cbe b04e ed3c
000000c0: db1c 5e3e f5cb da3d 06af 08be 1c8c e93d
000000d0: d600 ab3c 1815 8c3c 94c5 453e 0cd8 d4bd
000000e0: 093d 8dbc a91f b3bd b54b 8f3d 8b6b a53d
000000f0: dee4 293d 4030 e3bd afa9 b0bd f546 993d
00000100: 3525 6abe d0ee 1bbe 0943 b0bb c29e 69bd
00000110: c42b cb3d a2d0 15bd 0867 9d3d beae a8bc
00000120: 9b31 35be 3294 3d3e bfe0 663d e2d0 ecbc
00000130: ecde 54be 62a1 0ebd 5f06 68be a18e 993c
00000140: d570 253e 183b d9bd b1e5 e1bd 0db3 53be
00000150: 9f7c 833e 378f 383e 5141 5abd 4c8a 643e
00000160: 841c 5abd 7baf 9bbe a260 0c3e 0704 113e
00000170: 4a1b 8c3e 7495 aebd a84d 0f3e cce5 ea3b
00000180: 9543 6a3d cd90 bdbe 1c1f d73d 08a5 64be
00000190: 3e32 923e 4968 cebd ce6c a5be e53c a63d
000001a0: d153 14be 75ac c0bd 5533 f63b 0089 e93d
000001b0: aabc 6f3d 76e2 11be 84d6 473d 7354 523c
000001c0: 9e58 f53d edc1 3d3e 3cfe 29bd 1915 7dbe
000001d0: f3c3 b23d 3ec9 81be e997 13be 813a 9f3d
000001e0: f54f 5cbd 926e 67be b4db 993d 8fe1 6a3d
000001f0: 7d7c 92bb 9db7 edbd b580 f0bd 2493 cdbd
00000200: 6054 693d 05a0 343d b586 03bd ab1a 89bc
00000210: 0a7a 36be a2e2 8c3d 1f90 853d 584e 713d
00000220: 28ef c63d b5ec e73d e957 49bd ed71 52be
00000230: 2adf 143e 4b61 a5bd e0ba 483c cf73 90bd
00000240: bb77 1dbe 55af 3fbe 36ba 163e e82a 2e3e
00000250: c904 4fbd a47e 743e 3f7a 2fbe 5fbd 8f3c
00000260: 38fe ce3d f4d6 8d3e 4c83 6dbe 4a6e 123c
00000270: 6046 40be ae0f e33d 8080 933b a920 87bd
00000280: 9e88 6fbe b179 a5be c5dd 163d 550a cb3d
00000290: 3d3f 1fbe 0926 f5bd ce21 38bd ca25 43be
000002a0: d5e9 c53d e5fd 653e 138d 6f3d 2058 13be
000002b0: 8a8d 743c b9d0 a6ba 4075 233e 22e1 f8bd
000002c0: 028b 1ebe 7f6d 473e 4f8f 3b3d 4896 b6bd
000002d0: 2a7e 173d 3796 1ebe a36c 2a3e fda4 6ebc
000002e0: 6556 323e 8abe d03d 4eb1 4e3d e506 a13d
000002f0: 70bd 8b3c 56a3 913d e594 6bbe 7057 6b3c
00000300: c242 42bd 6b90 45bd 913e 73bd 6ce8 acbd
00000310: 89ca ed3a b4d2 d23d 87f9 3fbe 37d9 18be
00000320: 23d5 6cbd bd5a 6dbd 8852 ca3d b5fa 203e
00000330: cc39 33bd 4841 083e 10e4 ddbd 162b 05be
00000340: 2dac 5fbd 40bc 65bd 2a17 06be 4186 6abe
00000350: b31e c6bd 716e f73c a0bc f93d e6db 643e
00000360: c10f 4a3e af26 ddbd 4f75 623d 1386 dfbd
00000370: 3810 dc3d a2fe 94be a91c 483d a428 4cbc
00000380: 57bd 95bd cd26 2fbd 03a5 52be fbf4 ec3d
00000390: 7c4b 753e f62e ef3b ce1f 0fbe 2c2c 3c3e
000003a0: be7a 9f3b e646 743e 9d4e 8f3e 9b72 a43d
000003b0: 9361 7d3c 1bed 15bc 3052 8b3c 5a81 543e
000003c0: da24 463e 5c79 9a3d f854 013e 93c9 22bc
000003d0: 73e4 513e 4bbf 10be 4fb8 053e acb2 533e
000003e0: aaee e4b9 b005 2ebe ad6b ff3d c788 a7bd
000003f0: 9ba2 373e 52ca 54be 93b1 5fbe 5cb0 82be
-0.21313347 0.034739688 0.14397079 -0.1665972 0.103498444 0.01244144 0.12479607 0.15779445
0.13455555 -0.02171565 0.18463974 0.21442746 -0.26968548 -0.22863662 0.01809933 0.11378125
-0.055286102 0.094367065 0.051710993 0.023974314 -0.038661204 0.09355339 0.10645288 -0.1412192
0.031793196 -0.099965274 0.14511733 0.27460036 0.13416144 -0.13937084 0.18505667 -0.22334911
-0.0822111 0.16903006 -0.121437445 0.022204425 -0.13833138 0.023854863 0.008918708 0.07348951
-0.20488837 -0.18308392 0.12926027 0.22391227 -0.17957184 0.13054472 -0.19987513 0.028968185
0.21690695 0.10683433 -0.13348016 0.11403677 0.020874422 0.017099902 0.19313651 -0.1039277
-0.017241018 -0.08746273 0.06996862 0.08077153 0.04147803 -0.11093187 -0.086261146 0.07484237
-0.22865756 -0.15227818 -0.005379085 -0.05703617 0.09920457 -0.03657592 0.07685667 -0.020591136
-0.17694704 0.18513563 0.05636668 -0.028908197 -0.20788163 -0.034821875 -0.2265868 0.018744769
0.16156323 -0.10606974 -0.11030138 -0.20673771 0.25681016 0.18023382 -0.053284947 0.22318381
-0.05324985 -0.30407318 0.13708737 0.14161693 0.2736457 -0.085246 0.13994467 0.007168507
0.057193357 -0.37024537 0.105039805 -0.2232858 0.28553957 -0.100784846 -0.32309574 0.081170835
-0.14485098 -0.094078936 0.0075134435 0.11403084 0.058529533 -0.14246544 0.048788562 0.012837517
0.11979793 0.18531008 -0.041502222 -0.2471508 0.087287806 -0.25348848 -0.14413418 0.077748306
-0.05378719 -0.22600773 0.07512608 0.057344016 -0.0044704066 -0.11607287 -0.11743299 -0.100378305
0.056965232 0.04409792 -0.03211089 -0.01673635 -0.17819992 0.06879164 0.065216295 0.058912605
0.09713584 0.11324445 -0.049156103 -0.20551272 0.14538255 -0.08075198 0.012251586 -0.07053339
-0.15377705 -0.18719228 0.14719471 0.17008555 -0.050541673 0.23876435 -0.17136477 0.017546354
0.10107082 0.2770306 -0.23194617 0.008937428 -0.18776846 0.11086975 0.0045014024 -0.06598026
-0.23391959 -0.32319406 0.03683259 0.0991408 -0.15551467 -0.11970145 -0.044954114 -0.19057384
0.096637405 0.22460134 0.05848415 -0.14389086 0.014926324 -0.0012726999 0.15962696 -0.12152316
-0.15482715 0.19475363 0.045790967 -0.089153826 0.036985554 -0.1548699 0.16643004 -0.014565703
0.1741577 0.101925924 0.05046206 0.07862643 0.017058104 0.07111232 -0.23006018 0.014364108
-0.047426946 -0.04823343 -0.05938584 -0.084427685 0.0018142025 0.10294095 -0.18747531 -0.14926611
-0.05782045 -0.057947863 0.09879023 0.15720637 -0.04375629 0.13306153 -0.10834515 -0.13004717
-0.05460756 -0.056087732 -0.13094774 -0.22902776 -0.09673824 0.03020403 0.121941805 0.2234951
0.19732572 -0.10798394 0.055287655 -0.109142445 0.10745281 -0.2910052 0.048855457 -0.012460861
-0.07311504 -0.042761613 -0.2057076 0.11570164 0.23954576 0.0072992994 -0.13976976 0.18376225
0.004866927 0.2385517 0.27989665 0.08029672 0.015465158 -0.009150769 0.017006963 0.20752469
0.19349995 0.07542679 0.1263007 -0.009935754 0.20497303 -0.14135472 0.1305859 0.20673627
-0.00043665367 -0.16994357 0.124717094 -0.08180385 0.17933123 -0.20780304 -0.21845083 -0.25525177

in_proj_bias f4 [96]
00000000: 6eb1 1ebd 0023 97bc abb4 11bd 6a59 b8bd
00000010: 8626 613d 4375 d7bc 44f0 08bd 4de1 f5bd
00000020: a431 083e 753c 9b3e d374 313e dec4 4cbe
00000030: bb71 0a3e 8226 80be 2dda bcbe 1ab8 17be
00000040: d870 363e 8f23 dbbd 4b74 7bbe 6c31 953d
00000050: 9cac 2a3d a637 a93d 22e9 84be f062 05bd
00000060: 9290 32be f5e2 6cbe 897a f9bd 1be6 883e
00000070: 8b8a 4dbe 3ac4 523e fa5e 90be 02a3 063e
00000080: 88fb 19b9 87a7 413a 329f 8e3a bcf3 213a
00000090: 742d e9b9 8165 5fb9 6bed 94b9 4d15 803a
000000a0: 847d 5cb9 bfc1 bd3a b1ee cab9 ed19 63b9
000000b0: d120 073a 568b 603b 5b2b 473a 17d5 983a
000000c0: 8508 a03a 998d b6b8 3b48 9e38 d7b4 8439
000000d0: 4714 d7b7 4144 23b8 dd3e 37ba b0dd d838
000000e0: ef14 7a38 80b9 9d39 7c94 853a b554 e93a
000000f0: f537 aab9 9d93 893a 6653 cb39 790e 09ba
00000100: 08aa 083d 22fc f7bb a8b7 3ebc 43f9 813c
00000110: e3d9 87bc e370 823c a8d4 2cbc ec44 683c
00000120: e629 0cbd c703 643c b7f2 2dbc 892e 9b3c
00000130: 7089 61bc 28e1 e239 a09d 6e3c 7270 5cbb
00000140: 50a0 edbc fdda 723c 5a71 a2bc 40bf 9ebc
00000150: 200c 31bc a1c7 833c 5284 5a3b 0507 09bd
00000160: 91b6 ac3c 092f e03b 8189 113c 1070 0f3c
00000170: 335f d3bb 9d61 093d cd6b 33bc 069b 32bb
-0.03874343 -0.018449306 -0.03557269 -0.090014294 0.05496838 -0.026301032 -0.03343226 -0.12005863
0.13300186 0.30319563 0.17329721 -0.19996974 0.13519947 -0.2502938 -0.36885205 -0.14816323
0.17816484 -0.10700142 -0.24556081 0.07284817 0.04166852 0.08262567 -0.25959116 -0.032565057
-0.17437962 -0.23133452 -0.12181575 0.26738057 -0.20072381 0.20582667 -0.2819746 0.1314812
-0.0001468492 0.0007387329 0.0010881184 0.0006177982 -0.00044475088 -0.0002130475 -0.0002840565 0.0009771973
-0.00021027593 0.0014477296 -0.0003870628 -0.00021658065 0.00051547313 0.0034262738 0.0007597708 0.0011660185
0.001220957 -8.704811e-05 7.547481e-05 0.00025311738 -2.563944e-05 -3.8925795e-05 -0.00069902634 0.00010340975
5.962414e-05 0.00030083582 0.0010191347 0.0017801734 -0.00032466618 0.0010496263 0.00038781314 -0.0005228292
0.03336528 -0.0075678984 -0.011640467 0.015865928 -0.016583389 0.01592297 -0.010548748 0.0141765885
-0.034219645 0.013916916 -0.01061695 0.018943088 -0.013765678 0.00043273834 0.014563948 -0.0033636359
-0.029007107 0.014822719 -0.01982944 -0.019378304 -0.0108061135 0.016086401 0.003334303 -0.03345396
0.021083148 0.0068415445 0.008882881 0.008754745 -0.0064505576 0.033540357 -0.010950995 -0.0027253046

weight f4 [32, 32]
00000000: 2b4d 10be 939f 38be ee65 b5bd c3d3 033e
00000010: cb98 b63d 6552 cd3d 834d c23d 262d a13d
00000020: df01 b43c 6fe1 87bd 956d 0dbe 068b 53be
00000030: fd43 d53d c839 ffbd 20ca 37bd 0751 b9bd
00000040: c85e c8bc 7409 0bbe 99ca e8bd 9e76 8c3d
00000050: 9ee9 56bd b8ea f03d ffd2 3dbd 0d0f 12be
00000060: 1512 e4bc f88c 26be 1287 68bd 4345 18be
00000070: 7a0f ea3d 9698 28be f385 e03d cf4a eb3d
00000080: 27d4 d23d 4e2c f8bd 5f1e 453e 4f83 a1bd
00000090: ca87 ad3d c1a6 b03d 57c2 b9bc 258d 1e3e
000000a0: eb3c 20bd 8e66 13be d778 be3d 4b9f 09be
000000b0: f00e 893d 2ae1 183e 47c3 1e3e 963e 85bd
000000c0: 880f 2cbe 95ee 0f3a d1d1 123c 61e9 1ebe
000000d0: d400 773c f151 9dbd 68a7 8d3c b8f4 c4bd
000000e0: 2cd9 17bd 7d6f c63c 8e03 1cbe f7bb 3d3e
000000f0: 510b da3d 53c5 ad3b 0666 63bd bcd9 79bd
00000100: 3120 1fbe 7205 0fbe 43b5 463d f25e bbbd
00000110: 0d9e dfbd a3c5 13bd de89 82bd 21db 69bd
00000120: 2df0 dbbc 2e73 0ebe 23ab a3bd 8024 b3bd
00000130: 8def 46be aeb5 213e baa8 61bd 4920 543d
00000140: d545 8bbd aac1 3d3c 7bbf 1b3e 3321 ab3d
00000150: eaac 10be 15be 883d b773 203e 7707 783d
00000160: 5adf f13d 8a4a 9f3e e683 adbc 7bdc 973c
00000170: 6309 02be e4a9 083c c3e0 9b3d 12a2 d33c
00000180: 706c bdbd 5174 10be acf2 01be 9bfe 26be
00000190: 8b72 1abe 5db8 a0bc 9e56 e83d b3b4 f5bc
000001a0: 9fcc 06be 1211 e3bd 8020 9d3d 4bf3 e0bd
000001b0: a529 733d 4a1f 903d d6de 83bd 62cc 0f3d
000001c0: c276 113d 79ea 5abd d290 49bd 25f6 0ebe
000001d0: a9a7 27be 2edf aebd 7a36 293e 313f adbd
000001e0: 4b7b 00be 7c61 6cbd 9740 103d 83a5 a43d
000001f0: 16a5 1b3e 1537 343d 8db5 21be 576d b33b
00000200: 4548 b23d 19c8 57bd 7727 bfbd 16d4 3b3e
00000210: acfe a7bd 927c b3bd e71c 2bbe 9fe0 583b
00000220: fa2e d23d ff93 0e3d b15a 683d 7677 24be
00000230: 1699 f4bd f0b2 4ebd 8769 0e3e 9aad bc3d
00000240: 7ac7 b5bd 608b 82bd fd40 09be e27e c2bd
00000250: c51e 5e3c ab72 853d 4e5b 153e e9b4 1cbe
00000260: fbbb b33d cbc4 7cbe b04e e63c 331d 2a3e
00000270: 2b22 ab3a 6bbc d13d bbad f2bd f679 0cbd
00000280: e902 a43d bf29 2ebd 36f8 ccbc 5a5e 1dbd
00000290: 6eb5 d43d abfe c43c 5ffb 033d bbb5 8bbd
000002a0: 4cdd 06be 3aa3 1d3d 458b 993d 3072 7e3c
000002b0: 7e4a d4bd 36c2 193e 78ec 1fbc e4f6 0bbc
000002c0: 13f2 98bd 971f 2abe 5faf 45be 1c9e b3bd
000002d0: 8437 a8bd 075c 7d3d 9285 1abd a01c 65bd
000002e0: 1078 3a3e 3dbd 473e be11 093e d4fc 57bd
000002f0: 236b f8bd 7db6 b43d 5263 f9bd 61a0 cdbd
00000300: 1fbe e1bb 3a8d 6dbd c9fc cebd a036 c63d
00000310: c76b 1b3e b228 23bb ca9d 04bd 0349 05be
00000320: ff01 93bd 8ff1 9e3d cdd2 a93d f177 67bc
00000330: 0e1d a4bd d27a d83d 427f 08be ac28 e73d
00000340: 75f4 c0bd 567b 003c c584 79bd e75b 113d
00000350: f946 0fbd d1fa 143e 67c8 943c 37e7 e73d
00000360: 2c8f 323e fff6 a1bd 8429 d3bd c84a 053e
00000370: ebfe 173e 7fba 06be ad68 f5bb cffe 2dbe
00000380: b36f 02be bad8 ca3c e6a3 663d 9e79 0c3d
00000390: 2491 36bd 75d4 463e 7783 113d 67d4 f2bd
000003a0: 43bd 6bbc f9b5 ea3c b482 343d 2663 60be
000003b0: c475 de3d 0ef4 20be 912c 01be 7660 9cbd
000003c0: 02ef 2c3e d230 093e 81e3 143e e65d d63d
000003d0: 7ec0 083e 7900 07bd 63c5 b0bd 9498 9e3d
000003e0: 6a30 e9bd 730f 5dbe d034 6cbd 56ad d83b
000003f0: 8b95 0b3e 82af cbbd e1e3 90bd bb02 e83c
-0.14091937 -0.18029623 -0.08857332 0.1287375 0.08915862 0.10025481 0.094874404 0.078699395
0.021973548 -0.06634795 -0.13811333 -0.20658502 0.10413358 -0.12462193 -0.044870496 -0.09048658
-0.024459258 -0.13577825 -0.113667674 0.06858562 -0.05246889 0.11763519 -0.0463438 -0.14263554
-0.027840653 -0.16264713 -0.056769438 -0.14870171 0.11428733 -0.16464457 0.10963049 0.11488878
0.10294371 -0.121178254 0.19249867 -0.07886373 0.08473165 0.08625556 -0.022675676 0.1548353
-0.039120596 -0.1439459 0.09300392 -0.13439672 0.06692302 0.14929643 0.1550418 -0.06506078
-0.168028 0.00054905686 0.008961157 -0.15518714 0.015075881 -0.07681645 0.01729174 -0.09616989
-0.037072346 0.024223084 -0.15235731 0.18528734 0.1064669 0.005303064 -0.05551722 -0.060998663
-0.15539624 -0.13966921 0.04851271 -0.09148969 -0.10918818 -0.036077153 -0.06373952 -0.057093743
-0.026847923 -0.13911125 -0.07991626 -0.08747196 -0.19427319 0.15791962 -0.05509255 0.051788602
-0.06800429 0.011581818 0.15209763 0.083559416 -0.14128461 0.0667688 0.15669142 0.060553994
0.11810179 0.31111556 -0.021181058 0.01853775 -0.12698893 0.008341286 0.07611229 0.025834117
-0.092491984 -0.14106871 -0.12690228 -0.16308062 -0.15082757 -0.019619161 0.11344646 -0.02999339
-0.13163994 -0.1108724 0.076722145 -0.109839045 0.059365887 0.07037218 -0.06438987 0.035107024
0.035513647 -0.053446267 -0.049210377 -0.13961084 -0.16372551 -0.08538662 0.16524687 -0.084593184
-0.12547033 -0.057710156 0.035217848 0.08039381 0.15199694 0.043997843 -0.15791912 0.005475681
0.087051906 -0.052681062 -0.09333699 0.18342623 -0.08202872 -0.08763994 -0.16710244 0.003309287
0.10262866 0.03480911 0.056727115 -0.16061196 -0.11943261 -0.050463617 0.13907443 0.09212799
-0.08875938 -0.0637424 -0.13403697 -0.09496857 0.013557141 0.06516012 0.14585611 -0.15303387
0.08776089 -0.24684446 0.028113693 0.16612701 0.0013056447 0.10241016 -0.11849543 -0.034296
0.080083676 -0.04252028 -0.0250207 -0.03842006 0.103861675 0.024047216 0.032222148 -0.06821772
-0.13170356 0.038485743 0.07497267 0.015530154 -0.10365771 0.15015492 -0.009760968 -0.00854275
-0.07468047 -0.16613613 -0.1930518 -0.08770391 -0.08213714 0.061855342 -0.03772504 -0.055935502
0.18209863 0.19505782 0.13385674 -0.05273135 -0.1212981 0.088238694 -0.12177147 -0.100403555
-0.0068891193 -0.057996012 -0.10106809 0.09678388 0.15177833 -0.0024896082 -0.032377042 -0.13016133
-0.07178115 0.077609174 0.0829216 -0.014127717 -0.08013354 0.10570301 -0.13329795 0.112870544
-0.094216265 0.007841906 -0.060917635 0.035488036 -0.034979794 0.14548804 0.018161966 0.113233976
0.17437428 -0.07908439 -0.10310653 0.13016808 0.14843337 -0.1315708 -0.007489285 -0.16991733
-0.12737922 0.024761546 0.05630865 0.03429567 -0.04457201 0.19416983 0.035525765 -0.11856919
-0.014388385 0.028651224 0.04406996 -0.21912822 0.10862306 -0.157181 -0.12614657 -0.07635586
0.16888049 0.1339753 0.14539911 0.104671285 0.1335468 -0.032959435 -0.086313985 0.07743946
-0.113861874 -0.21587925 -0.057667553 0.00661246 0.13631265 -0.09945585 -0.070747145 0.028321614

bias f4 [32]
00000000: 069e 733b be1b 19ba 3e67 073c 77dc 073d
00000010: 4e34 613c b2db 263c ba8d 04bc 5ac0 06bc
00000020: bdd9 30bc 02b6 283c e9c2 93bb f376 303c
00000030: 5372 da39 0553 edbc af79 013d 0f2d 473c
00000040: 7cda 4d3c d5aa cc3c 1769 c9bc d7d9 163d
00000050: d1aa 963c 5d37 1d3c 812b 153d 5590 cdbb
00000060: b0f0 e0bc 649d f6bb 6432 91bb 7e1b fb3c
00000070: 31dc 9f3c 1358 8a3c ee80 cc3c c23c a4bc
0.0037173047 -0.0005840621 0.008264361 0.033169236 0.013745381 0.010184215 -0.008090431 -0.008224571
-0.0107941 0.0102973 -0.004509319 0.010770547 0.00041665378 -0.02897025 0.031610187 0.012156739
0.012564298 0.024983803 -0.024586244 0.036828842 0.018391998 0.009595719 0.03641844 -0.0062733092
-0.027458519 -0.0075260866 -0.004431056 0.030652758 0.019514175 0.0168877 0.024963822 -0.020048503

weight f4 [128, 32]
00000000: 83a1 573d e59b 9c3d ec22 b0bd f058 23be
00000010: d739 acbd 5604 95bd 7883 37bd c5c8 05bc
00000020: d716 c33b fa1e 95bc 4d5a 373e d351 553d
00000030: ddfe d2bd 87da 6ebd 02b9 45be 418d 6fbd
00000040: e42f 00be c47a df3c 7073 dcbd b375 873d
00000050: a69d b93d dee9 0cbe 2367 2cbd af61 0fbe
00000060: 8723 4d3d 1cfd e23c 7b75 a9bd 08f9 f93d
00000070: baed b23d 3a65 42be 6c76 abbd c97b 94bd
00000080: 8d1e dcbc fd5b 4d3d a4cf 273d c335 103c
00000090: c3df 9a3d fed3 48be 2b6a 02be bddc 183e
000000a0: cb11 163e fb5c 5b3e 4e37 79bd cb31 dd3d
000000b0: 5700 16be 9317 2abe 11bc 5bbd 3422 3a3d
000000c0: 7698 c0bd 4268 613d 78fc c83d cd9f c83d
000000d0: 1c29 b43c 1cbc 2b3e 26e1 4bbe 6705 8fbd
000000e0: e00d 643d d46e 8fbd fe1d dc3d 5af2 bdbc
000000f0: 760c 803e 9047 69be 52f8 b3bd 284c 32be
00000100: bc36 4fbe 196a 2bbe 325d 03be d28e 073e
00000110: 81ba 033d 669a 58bd ffc7 f9bb b532 1abe
00000120: 5959 4bbe 16ba cbbd 79e7 0fbe e5f1 f13d
00000130: fcb4 d5bd 0a51 96bd 9632 2dbe 5e43 973c
00000140: 3ec0 f13a 9800 e9bd ef1d 093e a022 143e
00000150: 7ffc bdbd 9282 ee3d 6245 03bd 0ee3 cfbb
00000160: d831 943d 8cf1 3abd a8df 1e3e 5cef eb3d
00000170: a918 c2bd a759 fbbd 7d6f 4abe 39b8 263d
00000180: 6d0a 07be 1293 b6bd 1c87 67bd aca2 1fbe
00000190: 82cc 2cbe 0298 3b3e 745b 013e a672 1e3e
000001a0: 04cc b7bc 595a c8bd a276 dcbd 4094 30bd
000001b0: 633e f4bd f425 8f3d 4ebf 40bd 6c95 4e3c
000001c0: ac9c fb3d 1472 903c ec2e 333e 7c9f 54be
000001d0: b8c8 25bd b46e 75bd a718 e7bd ae03 46bd
000001e0: 3e37 0dbe 209f 8bbe 78cb f3bc a3ca 573d
000001f0: 46a8 363d b88e 81be e893 2b3e be1a 293e
00000200: 8518 b8bd 91c5 ddbc 47ce f13d 18aa 0ebe
00000210: 8008 2dbe 3a42 0f3e e393 11bd d1d5 023e
00000220: 8f68 69bd 0e4d 123d 4cbd a03d 7d11 39bd
00000230: 0a7d 763c cdd0 85be e13f cf3b 7e12 133e
00000240: 582f 41be 8244 0bbd 8f68 133e edec 5bbd
00000250: f1f2 05bc 2d51 80bd 467b a1bd 6617 3c3c
00000260: 8ff9 31be 0a11 d1bd 788d 30bd 304d 95bc
00000270: 8eab 39bd cc30 413d 85d7 a3bd 15e7 4bbe
00000280: 3ddd f9bd 480e c5bd 4808 0bbd 989c 0f3e
00000290: 81cd babd 69da a1bd edc3 61be c35d f3bd
000002a0: 1fe6 85bc 03e2 d3bc 6c8f d63b c881 853d
000002b0: b184 4fbd 1967 21bc 5dd6 f53c 8665 0a3e
000002c0: d560 133d 7a86 533e 516d 0d3e 2dba 663b
000002d0: fb26 d43d 0a8a c9bd 3b34 5fbe 0fc5 c43d
000002e0: 68cc f13d 2f6e d63d 6fce c23c 6fb7 c9bc
000002f0: 6647 643e c36a 1bbd 3a29 133e 5bc9 69be
00000300: afa7 ccbc ce74 d6bc e007 e63d 499a 26be
00000310: 6ad6 90bc 244c c63d 98cd 4dbc c729 ce3d
00000320: fdf6 94bd c288 1f3d ad71 04be acd0 b6bd
00000330: 78ed 08be 55c8 b1bc 5c95 013d 9acc 9fbd
00000340: 51ee 243e 086e ea3d 2a26 2d3e bb2d 12be
00000350: 4216 183e 2c60 d5bd d60f c43d c01c 63bd
00000360: a2e9 be3d 947e eebd 2292 7e3e 322f 0ebe
00000370: 5995 413d fcda d5bd 36d3 16be 7119 0dbe
00000380: 27a7 bebc fe46 453c bc32 633e 47eb ee3c
00000390: c363 263e 5263 92bd c19f 3bbe 8d3c 22bd
000003a0: 8c21 0bbd 24c1 a23d 7ef1 473e 9dd2 a23d
000003b0: c412 1ebe 0f8f 63be fe66 fbbc e585 35be
000003c0: bda8 f83d f2c5 573e 49ff 213d 1543 febc
000003d0: de89 13ba 6964 b6bd dd25 d53b 2550 0f3e
000003e0: 3e94 81bd ee38 60bd c45b b6bc c31a 373c
000003f0: 7c76 323e fde1 45be ae7c a53c 785d 95be
0.052644264 0.07646922 -0.08600411 -0.15951896 -0.084094696 -0.07276218 -0.044803113 -0.008165543
0.0059536505 -0.018203247 0.17905541 0.052079987 -0.103025176 -0.058313873 -0.19308856 -0.05848432
-0.12518269 0.027280219 -0.107642055 0.06614246 0.09063272 -0.13761088 -0.042090546 -0.14002107
0.05008271 0.027708583 -0.08274361 0.12205702 0.08736749 -0.18983927 -0.083721966 -0.07250173
-0.026870036 0.050136555 0.040969506 0.00880188 0.075622104 -0.19612119 -0.12735812 0.14927955
0.14655225 0.21422188 -0.06084376 0.10800513 -0.14648567 -0.16610555 -0.05364615 0.045442775
-0.094040796 0.05503107 0.098137796 0.097961046 0.021992259 0.16770977 -0.19910106 -0.06983452
0.055677295 -0.07003561 0.10747908 -0.023186851 0.25009507 -0.22781205 -0.08787598 -0.17411864
-0.20235723 -0.16739692 -0.1282852 0.13238075 0.032160286 -0.05288162 -0.0076227183 -0.15058406
-0.19858302 -0.099476025 -0.14053144 0.11813716 -0.10434911 -0.07339676 -0.16913828 0.01846474
0.0018444133 -0.113770664 0.13390325 0.14466333 -0.092766754 0.11645998 -0.03204859 -0.0063442057
0.072360694 -0.045640513 0.15515006 0.115202636 -0.0947736 -0.12272959 -0.19769092 0.040703032
-0.13187571 -0.0891477 -0.056525335 -0.15589398 -0.16874889 0.18319705 0.12632543 0.15473422
-0.02243615 -0.097828574 -0.10764815 -0.043110132 -0.11925962 0.06989661 -0.047057442 0.012608867
0.12285742 0.017632522 0.17498368 -0.20763963 -0.040474623 -0.059920028 -0.11283999 -0.048343353
-0.13790604 -0.2726984 -0.029760107 0.052683484 0.04459407 -0.25304198 0.1675564 0.16514108
-0.08989052 -0.027071746 0.118069224 -0.13932073 -0.16897774 0.13990107 -0.035541426 0.12776877
-0.05698448 0.035718016 0.078486055 -0.045182694 0.01504446 -0.26135865 0.0063247536 0.14362523
-0.18865716 -0.03400088 0.14395355 -0.053692747 -0.0081755975 -0.06265483 -0.07884841 0.011480188
-0.17380355 -0.10208328 -0.043103665 -0.018225282 -0.045329623 0.047165677 -0.080000915 -0.1991237
-0.12200401 -0.096218646 -0.033943444 0.1402458 -0.09121228 -0.079029866 -0.22047396 -0.11883118
-0.016345082 -0.025864607 0.006547859 0.065188944 -0.050663654 -0.009851241 0.030009443 0.1351529
0.035981018 0.20656767 0.13811232 0.0035206184 0.103589974 -0.09840782 -0.21797268 0.096078984
0.118065655 0.104702346 0.023780076 -0.0246236 0.22292861 -0.037943613 0.14371195 -0.22830717
-0.024982302 -0.026178744 0.11231971 -0.16269793 -0.017680366 0.096824914 -0.012561224 0.10066562
-0.07273672 0.03894878 -0.12933989 -0.0892652 -0.13371837 -0.021701971 0.03163658 -0.078026965
0.16106535 0.11446768 0.1690909 -0.14275257 0.1485224 -0.10418734 0.09573333 -0.05544734
0.09321906 -0.116452366 0.24860433 -0.13885191 0.04726157 -0.104421586 -0.14729008 -0.13779236
-0.023273064 0.012040852 0.22187322 0.029164923 0.16248994 -0.0714785 -0.1832266 -0.039608527
-0.03396754 0.07946995 0.19525716 0.079503275 -0.15436846 -0.22222541 -0.030688759 -0.17726858
0.12141559 0.21071604 0.0395501 -0.031037847 -0.0005628149 -0.089058705 0.006504758 0.13995416
-0.06327103 -0.054741792 -0.022260554 0.011175814 0.1742801 -0.19324489 0.020201053 -0.29172873

bias f4 [128]
00000000: 0cb1 7fbd 843b f8bd 81b9 21be 3b58 babd
00000010: e03d 81bd e2d3 42be e0f4 ec3c d700 b4bd
00000020: 6838 c33b e546 c9bd 850d dbbb d765 85bd
00000030: 0f0c d53d 91ec 30be 1268 a7bd 72da 1a3d
00000040: 6fcb 51bd 9704 dcbc aaad dc3d 03e7 02bd
00000050: 4c52 9fbc 3e14 cd3c 74ee e2bd f706 d6bd
00000060: 44a0 193d 63e1 83bc 059a 0c3e 792d 80bd
00000070: e1b4 f23d 61ba 7d3d 9bd1 b6bd 785e 1ebe
00000080: 769d 973a 3346 5cbe c7cd b5bd 7c7b 9d3c
00000090: 3742 82ba 4603 253d 8127 ccbd 54bd 0c3e
000000a0: 9071 12be 1ce0 00be a5b2 f33d 8dc8 66bd
000000b0: ec35 ef3c 5b7a 8fbd d997 26be 426b 42bd
000000c0: b014 a13d 4e64 be3d 6ad2 f63d 5682 d7bd
000000d0: 78eb dd3d 9afb 9bbc faff 33bc f057 3bbd
000000e0: 8841 25bc 6e3b c03a 5850 2dbc 85a0 963d
000000f0: 9836 54bd 9131 d3bd adb4 7b3d 87df b5bd
00000100: 257f aa3d 9883 083e 36f6 953c 3857 8dbc
00000110: ae33 d5bc 794f af3d 2775 86be 268b f0bc
00000120: 990c d1bd 9ab2 28be dadb 22be f556 0ebe
00000130: af3e ca3d f7f1 973d d8db 08be 3425 30be
00000140: 4407 013e e2c3 4b3d df6c 343d ed83 533c
00000150: 9eb9 d0bd 99c7 ccbd c7e4 763d 7a23 4dbe
00000160: b8fb 1abe 495e e73c e820 84bd 2472 283d
00000170: 8871 7d3d eef8 07be b894 f9bd 83f4 0ebe
00000180: 73c8 11be ade2 053c d959 0f3e 1e19 9cbc
00000190: 42b3 913d 570d cdbd f0ac 37bd dd65 13be
000001a0: 393f 51bd e076 d03a 8421 86bd 8121 103e
000001b0: e488 0f3c cfad a93d d51f 133e 8bd2 4f3d
000001c0: a2d3 873b 203e 053d 2c90 213e a498 41be
000001d0: f1a3 013c 0543 423d 943b 3ebd bad7 30be
000001e0: 4618 e6bd 77e9 babd db5f 023d 82f2 ac3d
000001f0: be39 a0bd e396 16be aabc 7cb9 d7c8 d93c
-0.062424704 -0.12120727 -0.1579342 -0.0909886 -0.0631063 -0.1902614 0.02892536 -0.08789223
0.005957652 -0.09827975 -0.0066849613 -0.06513565 0.104026906 -0.17277743 -0.08174147 0.037805982
-0.0512194 -0.026857657 0.10775311 -0.03195859 -0.019448422 0.025034066 -0.110806376 -0.10450547
0.037506357 -0.016098684 0.13730629 -0.06258673 0.11850906 0.061945323 -0.08926698 -0.15465724
0.0011567313 -0.21511154 -0.088771395 0.019223921 -0.0009937946 0.040286325 -0.09968472 0.13744098
-0.14301133 -0.12585491 0.11899308 -0.056343604 0.029200517 -0.07005759 -0.16268863 -0.04746557
0.07865274 0.09296475 0.12051852 -0.105229065 0.10835928 -0.019040871 -0.010986323 -0.04573816
-0.010086425 0.0014666149 -0.0105782375 0.073548354 -0.051809877 -0.103121884 0.061451603 -0.08880525
0.08325032 0.13331449 0.01830588 -0.017253503 -0.02602562 0.0856008 -0.26261255 -0.029363226
-0.10207481 -0.16474381 -0.15904179 -0.13900359 0.09875237 0.07419198 -0.13365114 -0.17201692
0.12600428 0.049747355 0.04404914 0.0129098715 -0.10191654 -0.09999008 0.060276773 -0.20033064
-0.15135086 0.0282432 -0.06451589 0.041124478 0.06187585 -0.13278553 -0.12186569 -0.13960461
-0.14236622 0.0081717195 0.13999118 -0.019054946 0.07114269 -0.1001231 -0.04484266 -0.14394327
-0.051085684 0.0015904568 -0.06549361 0.1407528 0.008760665 0.082851045 0.14367612 0.0507379
0.0041451016 0.03252995 0.15777653 -0.18905884 0.007912622 0.047427196 -0.046443537 -0.17269793
-0.112350985 -0.09126561 0.031829696 0.08444692 -0.078235134 -0.14705996 -0.00024102876 0.026585026

weight f4 [32, 128]
00000000: c972 4fbd b88b a23c 2054 07bd b535 4a3d
00000010: 47f5 3a3c 1bd9 033d 11e7 a9bd fbab 893d
00000020: ee76 023c 57e9 a7bd 29ce 173d 510f 0b3e
00000030: d2b2 ad3d 5c0f 083d e55f 8d3d 5d08 253d
00000040: 4e37 413d 1ef5 8dbd 31f1 97bc 8cf4 d4bc
00000050: 2a50 303d 0069 82bd e07e e43c 1fc1 2f3d
00000060: 0195 f2bc a6c8 e8bc b2fe 73bd 7c4c 9a3c
00000070: 7c0d 95bd eba4 38ba a048 903c 0697 7c3c
00000080: 5881 c1bd 7322 0abd e11f 4ebd e3ff 4ebc
00000090: 7fac 69bd f832 86bd 219a 5b3d 70d6 55bd
000000a0: fbc4 d73c a963 873d 2ebf 7e3d b50f 3d3d
000000b0: 5efc 993d 2540 813d 5905 a9bd e7ce 013c
000000c0: a6ab 3e3c 90cc 17bc 1ca1 033d e152 963d
000000d0: 8340 883d 3fe3 93bc 22b4 bebd 23fc 60bc
000000e0: ac14 563d d975 a5bd 0cc6 89bd cf43 12bd
000000f0: 992a a33c 0067 713d d321 c53a 9c94 863d
00000100: 8cf0 94bd 4e30 ccbd bf93 38bd e70b 93bd
00000110: fe78 a6bd 3cef fdbc 2a35 36bc 1d24 34bd
00000120: 5757 973d 6ffc a7bc 5a42 39bc f4f7 2d3c
00000130: c5fc 9bbd e16d 34bd 8342 1d3d 20c9 82bd
00000140: d901 503d d388 91bd ebc5 ae3d b331 d03c
00000150: 0d27 253d fab9 c3bc 97bf 853d 3f1c 7dbd
00000160: 995b e73b ccfb 463d 39b2 b43d 916e a63d
00000170: 92d8 19bd 20ef 983a ae0e 83bd 3354 8a3c
00000180: 4947 6abd 2705 e43c 9031 06bd c9d5 633d
00000190: f2ae 3dbd 2410 e43d 8b64 78bc 037b 46bc
000001a0: 0746 3fbd f130 1f3d 6fa6 a73c 24f8 80bd
000001b0: 5185 9b3c 6eb6 ed3b 3cb3 8fbc f4ae 703d
000001c0: 6620 ed3d 18fe 0abc 566b 8b3d 8e35 833d
000001d0: 06c8 62bd 50fc af3c 47e2 1a3c e55e f7bb
000001e0: 51e2 d03c 28ae 48bd a954 28bd 44e1 7e3c
000001f0: 1cfd 4bbd f1e9 38bd 23cd 4abd 5712 413d
00000200: c79f d6bc 8d90 c3bd 5733 5e3d 1bd7 0abd
00000210: d655 25bd 28f1 3a3d 1e1e 90bd 4389 edbc
00000220: 329e 1bbd e551 33bd ab22 1bbd ab72 ba3d
00000230: 06dd 2bbd c63b abbd 4e33 9f3c 5240 d63c
00000240: e4f6 5abc a1c4 05bd 67ae bd3c 6cf9 cdbc
00000250: 067d 44bd 87a2 1fbd bdc6 383d 5e44 183d
00000260: 26b9 b13a 319d 64bd b36d c1bd 3150 debc
00000270: d82a 5f3d 6f4b 4f3d a273 ac3a 51f1 9cbd
00000280: 778e 3e3d bad0 96bd e9bc bb3d 5439 a6bd
00000290: 6115 f7bd ed5e 34bc 922c 123e e389 663d
000002a0: 6329 8d3d 81e5 3c3d 76d2 903b edd0 22bd
000002b0: 7993 373d 0605 f3bc 78c3 cc3d 64e9 813d
000002c0: fe85 d9ba f72b 1cbd 337c 8bbc 1359 023e
000002d0: 27b1 983d e9e7 713d 38c2 383b 1240 a33c
000002e0: e071 393d 527b 82bd 4c5e dd3d b58f 993b
000002f0: e73f 013d ec18 843c 8e6b f13c 4985 96bd
00000300: 603f d13d c3f8 b1bc 82fa 913b d4a9 f83c
00000310: 4b16 bebd 7ff3 a8bd 7633 4b3d 9252 9cbd
00000320: 4b4f ad3d 6c67 a7bd b9d5 833d dde0 e4bc
00000330: c9e3 71bd 9f07 733a 5d43 f33d fdaf f03b
00000340: 62ce 8bbd 9e90 233d 0bfa ad3b 692e 4ebd
00000350: 6804 313e b55b 1ebc 880f 7b3d 0220 233e
00000360: 0c3e 85bc b0e6 9c3d 3db9 3fbc 1c58 863d
00000370: 2c71 41bc 27bf fc3d 698a 123d a9aa a8bd
00000380: b1a7 a7bc d83f e6ba bb55 873c e404 49bd
00000390: eab8 8e3c 0aa9 ab3c f575 b5ba 8110 d93c
000003a0: 6743 b83d 393d 72bd ab6b 8f3d bf1c 89bb
000003b0: 1adb 133d 7fae 0cbc 59eb 70bd 70fa 4fbd
000003c0: 0cef a43c a23b aebd cde5 69bd ea08 583c
000003d0: f79c 033e a7fc 38bd 67b2 91bd 19e6 c73c
000003e0: 9f83 b03c 22c7 17bd 224d c1bc c389 c83c
000003f0: 84ae 39bd e5fe 8fbd 2330 debd 6292 0dbd
-0.050646577 0.019842014 -0.033039212 0.049367625 0.011411018 0.03218947 -0.082960255 0.06722256
0.007962925 -0.08198803 0.037061844 0.13580061 0.08481373 0.033217773 0.06903056 0.04029118
0.047171883 -0.06931518 -0.018547626 -0.025995515 0.0430452 -0.063676834 0.02789253 0.042908784
-0.029612066 -0.02841599 -0.05956907 0.018835299 -0.072779626 -0.00070436177 0.017612755 0.015416866
-0.094484985 -0.03372426 -0.05032337 -0.01263425 -0.05704927 -0.0655269 0.053613786 -0.052206457
0.026339045 0.066108055 0.062194042 0.046157558 0.07518838 0.06311063 -0.08252973 0.0079228645
0.011637604 -0.00926508 0.032136068 0.07340027 0.0665293 -0.018052695 -0.09311701 -0.013731989
0.052265808 -0.08079118 -0.067272276 -0.0357092 0.019917773 0.05893612 0.0015039988 0.06571314
-0.07272443 -0.09970151 -0.045062777 -0.071800046 -0.08128546 -0.030997865 -0.011121074 -0.043979753
0.07389706 -0.020506112 -0.011307323 0.010618199 -0.07616571 -0.0440501 0.03839351 -0.06386018
0.050783012 -0.07106175 0.085338436 0.025414323 0.040320445 -0.023892391 0.065306835 -0.061794516
0.00706048 0.048579976 0.08823056 0.081265576 -0.037560053 0.0011667944 -0.06399284 0.016885852
-0.05719689 0.027834488 -0.03276211 0.055623803 -0.04630942 0.11135891 -0.01516069 -0.012114289
-0.046697643 0.038865034 0.020465104 -0.06297329 0.018984469 0.0072544133 -0.01754152 0.0587606
0.11578445 -0.008483432 0.06807582 0.06406699 -0.05536654 0.021482617 0.009453363 -0.007549154
0.025498541 -0.048994213 -0.041096363 0.015556637 -0.04980193 -0.04514498 -0.04951204 0.04713663
-0.026199235 -0.09549055 0.05424818 -0.033896547 -0.040365063 0.04564014 -0.070369944 -0.028996116
-0.037992664 -0.043779273 -0.03787486 0.091039024 -0.04195883 -0.0836101 0.019433644 0.026153717
-0.013364527 -0.032658223 0.02315445 -0.025143348 -0.047970794 -0.038973358 0.045111407 0.037174575
0.0013559207 -0.055813972 -0.094447516 -0.027137848 0.05448422 0.05060905 0.001315702 -0.07663215
0.046522584 -0.0736403 0.09166891 -0.08116403 -0.120646246 -0.01100896 0.14274815 0.056283843
0.068926595 0.04611731 0.00441962 -0.03975003 0.044818375 -0.029665481 0.0999822 0.06343344
-0.0016595719 -0.038127866 -0.017026996 0.12729292 0.07455664 0.059059057 0.0028191935 0.019928012
0.045274615 -0.06371178 0.10809001 0.0046863207 0.031555083 0.016125165 0.029470231 -0.07349641
0.10217166 -0.021725064 0.0044549117 0.030354418 -0.09281596 -0.08249568 0.049609624 -0.076329365
0.084623896 -0.08174023 0.06437249 -0.027939254 -0.059055123 0.000927085 0.11878083 0.007345198
-0.06826474 0.03993284 0.0053093485 -0.05033723 0.17286837 -0.009665419 0.06129411 0.15930179
-0.016264938 0.07661188 -0.011701879 0.06559774 -0.011806767 0.12341147 0.03577653 -0.08235676
-0.020465704 -0.0017566634 0.016520372 -0.04907693 0.017422158 0.020954628 -0.0013844358 0.026497127
0.08997231 -0.059140418 0.07002958 -0.004184335 0.036097623 -0.008586525 -0.058818195 -0.050775945
0.020133518 -0.08507468 -0.05710392 0.013185719 0.12852846 -0.045162823 -0.07114106 0.024401711
0.021547137 -0.037055142 -0.02359635 0.024479752 -0.045332447 -0.07031039 -0.10849025 -0.03456343

bias f4 [32]
00000000: 4fd7 9c3d a3f8 2abc 9c97 04bd ab29 89bd
00000010: 91a9 cdbc ce66 863d eb24 4bbd 39c6 b0bd
00000020: 805e 023c ebaa 2a3d 2130 6dbd 1fb2 c7bc
00000030: 3e9a 943d 99db 32bd 62b9 3b3d 725c 1ebd
00000040: 0228 8cbd 9d65 6dbd 17c5 8e3d 357e ee3c
00000050: 707a 243d f833 053d 2f8d d13c 8135 493d
00000060: 6e63 803d 05b7 953d e2da 103d bfb5 cd3c
00000070: d471 063d e824 90bd 1821 263d b36e 993c
0.07658254 -0.010435256 -0.03237115 -0.06697401 -0.02510527 0.06562577 -0.049595755 -0.08631558
0.007957101 0.041666906 -0.057907227 -0.024376927 0.07255982 -0.043666456 0.04583109 -0.03866238
-0.068435684 -0.057958234 0.06971186 0.029112915 0.040155828 0.032520264 0.025580017 0.04912329
0.06268965 0.07310299 0.035364993 0.025111077 0.0328234 -0.07038289 0.040558904 0.018729543

weight f4 [32]
00000000: 3fd6 7d3f 16b5 743f 3959 723f b8f8 883f
00000010: a0f6 7d3f d6e9 813f f587 833f 1182 813f
00000020: f7e0 723f 5fcb 723f d246 803f bc62 7e3f
00000030: e900 7d3f 34ea 803f 7372 823f 6c24 773f
00000040: 249f 803f 2532 803f 4a93 783f 7ba2 833f
00000050: b9e7 823f 4f0b 723f a371 7e3f fe2a 713f
00000060: af5c 813f aba9 913f de00 793f 95aa 8b3f
00000070: 1d17 7c3f 1ce1 843f 9126 843f 261d 863f
0.9915504 0.95588815 0.9466739 1.0700903 0.99204445 1.0149486 1.0275866 1.0117818
0.9487452 0.9484157 1.0021613 0.99369407 0.98829514 1.0071473 1.0191177 0.9653995
1.0048566 1.0015303 0.97099745 1.028396 1.0226966 0.94548506 0.99392146 0.94206226
1.010641 1.1379904 0.9726695 1.0911433 0.9847277 1.0381198 1.032427 1.0477645

bias f4 [32]
00000000: 9ce7 b73b acde b3bc 6afb bebb c1a9 a23c
00000010: 1b87 223c 2656 f2bc f00b bcbc 7c20 eabb
00000020: 5a2d 0abd d93c 2c3d 4481 7bbb c1f2 913c
00000030: 5ca8 2dba dccc 17bd 4b96 8abc 9de1 66bb
00000040: 7c1b 333d fb86 323d e179 553b 4b5c 7a3c
00000050: cf7f 4c3d 434a ec3b 9785 6abb ac61 e13c
00000060: dab4 c4bb 41df fbbc f083 843b 5dd4 883c
00000070: 17ce c03c 0510 7e3c a9c9 03bc 2438 4bbd
0.005612327 -0.021956764 -0.0058283107 0.019856336 0.009919907 -0.029582094 -0.022954911 -0.0071449857
-0.033734657 0.042050216 -0.003837661 0.01781595 -0.0006624514 -0.037060603 -0.016917368 -0.003522969
0.043727383 0.04358576 0.0032573866 0.015280793 0.049926575 0.007211001 -0.0035785192 0.027512394
-0.0060030045 -0.030746104 0.0040440485 0.016702825 0.023535771 0.015506749 -0.008043685 -0.049614087

weight f4 [32]
00000000: cb8e 843f 35c9 823f 999c 7e3f 0381 913f
00000010: 6311 853f 87b9 883f d6d6 883f 5d51 823f
00000020: cb42 883f 43b1 733f 2e87 833f 8351 823f
00000030: cc3b 803f 308a 823f 0da1 823f 2870 853f
00000040: 146e 823f 9c19 853f a339 7c3f 4d5f 843f
00000050: 71f4 893f 27b0 7c3f ef22 863f 932b 803f
00000060: 8090 823f 3f25 8e3f e57e 7e3f 8c57 843f
00000070: a1af 803f 14d9 853f 53d1 823f 5f57 893f
1.0356077 1.0217654 0.994577 1.1367496 1.0395931 1.0681618 1.0690563 1.018108
1.0645384 0.95192355 1.0275629 1.0181125 1.0018249 1.0198421 1.0205399 1.0424852
1.0189843 1.039844 0.98525447 1.0341583 1.0777723 0.9870629 1.0479411 1.0013298
1.0200348 1.1105117 0.99412376 1.0339217 1.0053598 1.0456872 1.0220131 1.0729789

bias f4 [32]
00000000: 7d98 193c 3012 a7bc 0b5a abbb 89a6 b83d
00000010: 3282 76bc a81c 5dbd eb95 c1bc 16e7 1ebb
00000020: a0bf 1abd 2e3f de3c 21e7 7bbc b98f 083d
00000030: 2918 293c df6b ebbc 29b3 19bd 9c93 df3c
00000040: fae4 213d af7b 8e3c 8a49 b13c b3cf f83c
00000050: 81b0 693d d5f8 0cbc 5624 7f3d 776d 26bc
00000060: e391 80bc 6eb7 5cbd 2d2e 4ebc c462 a83c
00000070: 96bc 393c ccec 0b3d 1baf f13b c731 3dbd
0.009374735 -0.020394415 -0.00522924 0.09016139 -0.015045689 -0.053982407 -0.023631057 -0.0024246625
-0.037780404 0.027129736 -0.01537493 0.03334019 0.010320702 -0.02873796 -0.037524376 0.027292065
0.03952501 0.017392961 0.021641511 0.030372476 0.057053093 -0.008604248 0.062290512 -0.010157934
-0.015694564 -0.05388587 -0.012584251 0.020554908 0.011336466 0.034161374 0.0073756105 -0.04619005

in_proj_weight f4 [96, 32]
00000000: 6bf9 20be 226f 523e 77f0 db3d 9ddd 64be
00000010: 639c bb3d dd39 2e3e d85a 703e 7f2b b13d
00000020: d5a6 7d3e 4f3d 6abe 5f73 823e 9286 3e3e
00000030: 5806 f6bd 9846 f0bd 2569 613d 1969 923d
00000040: 9540 74bd e7a2 d3bb e146 cfbd c069 453d
00000050: 5695 86be e4b3 3e3e 77d7 9f3d 02cb 6dbe
00000060: 4a9c 7f3d ab90 ec3c 5e42 183d b848 2c3e
00000070: 6e0c fbbc aaee 96bd f0ca 4a3e 9b4e 5cbc
00000080: 9471 04be b09e bbbd b375 4fbe 9d0d 883d
00000090: 97ed 37be 6ad8 463d 037e cc3c bfc6 b43d
000000a0: ce41 5dbe 2dc6 5abe f546 133e 65b9 6b3e
000000b0: c700 8bbe 77e4 6b3d 8ab1 0dbe 232e 3cbd
000000c0: d676 5e3e 11e3 e13d 2b3c 48be 08ff 7c3e
000000d0: 516b 203e 65b6 223b 0adf 803e 111c e4bd
000000e0: 584a c8bd 4546 94bd 6328 ecbc 1bb9 163e
000000f0: 0109 093a 101e 51bd 820c 9bbd a22d 053d
00000100: 672e 9dbe 57ca b9bd 4e56 9ebd 14a0 01be
00000110: 50a4 f53d d2c8 4e3d 9aca ea3d f929 383c
00000120: 7c13 23be b1cb d93d 189e 163e 560a 613c
00000130: 06ba 71be 6a68 b23d 8f80 64be 9c9f 093c
00000140: 36ea 263e 9e1c 77be 3f15 25be 51f1 fdbd
00000150: c203 0c3e c03a 2b3e 35a9 77bc 77e1 1e3e
00000160: 0cfa 14bc 78d3 2cbe 27ec 4c3d c948 153e
00000170: ff70 543e 0bd4 e63c 6021 2c3e 4e1f f33d
00000180: 0b01 0f3d b63b 6cbe ca1c 783d 187b 88be
00000190: d421 903e 4334 a43c a8a4 80be 3989 4b3d
000001a0: 1d34 8abd a344 86be 3a6f 873d 2142 ca3d
000001b0: 2f7d d73d df18 e13b 6c8a cd3d 2779 3ebc
000001c0: 2ed2 f73d a5e1 ef3c f42e 1bbe b8ba 41be
000001d0: a5fb d8bd ebeb 62be 43c1 20be 9101 2bbd
000001e0: b7cb 41bd 0d0b a6bd 925b 67bd cb9e a538
000001f0: 34b8 02be cfdf 99bc 8bc2 91bd 6969 1f3d
00000200: 33c6 1abd 0e65 31be 0c27 88bd e1cd 82bc
00000210: 0235 efbd 0bdc 3abd c60e a5bd 3fa1 043e
00000220: 7928 3abb 29c7 c53e 1cd2 b3bd 8cfe 38be
00000230: 1a94 4fbc 44b3 33be 4c37 b9bc fee6 d6bd
00000240: 06b1 febd d7de 6bbd f5dc 923e 6160 0e3e
00000250: 156a 563e eafd 333e 4bfd 31be 804d 113e
00000260: 4e7f ec3d f3bf 393e d727 29be 88a3 683d
00000270: 5d4a 27bd 2a14 4f3d 30c5 a7bd f735 81be
00000280: 480a a1bd 63e9 b0bc 5d4c 503e aef1 df3d
00000290: b0cc 62be dc44 6cbd 7dc9 653d 1050 7bbe
000002a0: 829c 493e 6f7e 203e 0381 47bd 2d9e 55be
000002b0: d285 1f3e 4eed 603d c851 043e d75c afbd
000002c0: e758 6abe 2e08 cd3d 5e48 af3c 3fb2 1bbe
000002d0: 7d9c 44be 8f20 43bd a81d 0c3e ba0f 93bd
000002e0: 287d 263e b1ee 1e3e 7d5e a83d 4a4e 1bbc
000002f0: 2d24 11bd 059e b33d e6c6 5dbe e12c 2d3e
00000300: 42d8 723d f1ae 4a3e 04ef 473d c1e8 bebd
00000310: 1104 c1bc b933 183e 998e fabd 1d48 4dbe
00000320: a269 873c 1552 fdbd 229d 0f3d 2753 d63d
00000330: 3764 853d 0e3d 4e3e 3db6 e2bd 4f4f bebd
00000340: b4aa d9bd ba14 f4bd 00e2 17be 2a78 93be
00000350: 8f22 8abe 51d9 af3d ed3b b43d b903 403e
00000360: 08dc 583e 49f3 64bd 0a4f ae3d b505 2ebe
00000370: 8354 933d d9bf 93be 761c 943d c500 e73d
00000380: a114 e23d 1ee0 2e3e 0131 04be c0ca 163e
00000390: ed56 113e 3bd9 533e 0909 693d de13 8f3d
000003a0: 4b3b 663e dc1a bdbc cb44 523e 6091 42bd
000003b0: 4fac 7b3e 8306 c63d 62d2 173e b561 673e
000003c0: fe1d 423d 3cea 95bd cef0 acbd d089 243b
000003d0: ef12 98bd b3ac 9d3a 0b88 db3d b274 893d
000003e0: 9b22 80bd 0023 10bd b333 03bd e825 4dbe
000003f0: d5c2 31bd 18bb e1bd 6192 e9bd 4a2b ab3c
-0.15720145 0.20550206 0.107392244 -0.22350164 0.09160688 0.1701426 0.23472154 0.08650874
0.24770673 -0.2287495 0.25478646 0.18606022 -0.12012929 -0.11732215 0.055031914 0.07148952
-0.059631903 -0.0064586285 -0.10120941 0.048196554 -0.2628581 0.1862331 0.078047685 -0.23221973
0.06240491 0.028877577 0.037172668 0.16824615 -0.030645575 -0.0736974 0.19803977 -0.013446475
-0.12933952 -0.091611266 -0.20259742 0.066432215 -0.17961727 0.048546232 0.02496243 0.0882697
-0.21607134 -0.2136466 0.14382537 0.23019941 -0.2714903 0.057590928 -0.13837257 -0.045942437
0.2172502 0.110296376 -0.19554202 0.24706662 0.15665938 0.0024827954 0.25170165 -0.11138166
-0.09779805 -0.07239965 -0.028827852 0.1471905 0.0005227477 -0.05105406 -0.07570745 0.032514222
-0.30699465 -0.090717964 -0.07731305 -0.12658721 0.11994231 0.050484486 0.114644244 0.011240476
-0.15925401 0.10634554 0.14708745 0.013735374 -0.23606119 0.08711322 -0.22314666 0.00839987
0.16300282 -0.2413201 -0.16121386 -0.12399543 0.13673308 0.1672163 -0.015116026 0.15515696
-0.009092819 -0.16877544 0.0500299 0.14578547 0.2074623 0.028177282 0.16809607 0.11871205
0.034913104 -0.23069653 0.06057433 -0.26656413 0.2815081 0.020044452 -0.25125623 0.049691413
-0.06748221 -0.2622424 0.06613012 0.09875894 0.10521924 0.00686942 0.100361675 -0.011625565
0.121006355 0.0292824 -0.1515463 -0.18918884 -0.105948724 -0.22160308 -0.15698723 -0.04174954
-0.04731342 -0.081075765 -0.056483813 7.8973906e-05 -0.1276558 -0.018783478 -0.07117184 0.038918886
-0.037786674 -0.17323706 -0.066480726 -0.015967311 -0.11680032 -0.045620006 -0.080594584 0.12952136
-0.0028405471 0.3862851 -0.087803096 -0.18065852 -0.0126695875 -0.17548853 -0.022609375 -0.10493277
-0.12436108 -0.057585564 0.28684202 0.13903953 0.20938905 0.1757733 -0.1738178 0.1418972
0.11547719 0.18139629 -0.16519104 0.05679658 -0.040842403 0.05055634 -0.081919074 -0.25236484
-0.07863289 -0.021595662 0.2034163 0.109347686 -0.22148395 -0.057682857 0.056100357 -0.2454226
0.19688609 0.1567323 -0.04870702 -0.2086112 0.15578392 0.05491381 0.12921822 -0.0856263
-0.22885476 0.10011326 0.021396812 -0.15204714 -0.1920032 -0.047638472 0.13683188 -0.07180734
0.16258681 0.15520741 0.08221147 -0.009479115 -0.03543489 0.08770374 -0.21657905 0.16911651
0.05928827 0.19793297 0.048811927 -0.09321738 -0.02356151 0.1486348 -0.122342296 -0.2004704
0.016529862 -0.123691715 0.035061963 0.10465079 0.06513255 0.20140478 -0.110699154 -0.09292471
-0.10628262 -0.11918016 -0.14832306 -0.28802615 -0.2697949 0.08586372 0.088004924 0.1875142
0.21177685 -0.055896077 0.08511169 -0.16994365 0.07193854 -0.28857306 0.07231991 0.11279444
0.11039091 0.17077681 -0.12909319 0.1472578 0.14193316 0.20688336 0.056893382 0.06986211
0.22483556 -0.023084097 0.20534055 -0.04750192 0.2457745 0.09669211 0.14826348 0.22595866
0.047391884 -0.07320067 -0.08444367 0.0025106557 -0.07425486 0.0012029618 0.107193075 0.06711711
-0.062566005 -0.03518963 -0.032031726 -0.20033991 -0.043398697 -0.110220134 -0.11404873 0.020894665

in_proj_bias f4 [96]
00000000: 5b0e 8ebd 8ec9 9a3c d918 85bd fa50 e4bd
00000010: 5bee 333d 088b eb3b cdb9 c5bc c69a 8cbd
00000020: df3c 873d e362 d13d e0e8 ecbd db72 d7bc
00000030: 1d3e f3bc 8320 5abd 1ddd c33d 0fb5 9d3d
00000040: a760 e23d 1135 ccbd d1d1 e63d 1df8 c1bd
00000050: 5361 a3bd e51e 133e 73d8 f2bc 87f3 8bbd
00000060: f3fd 043d 2d75 1dbe e5f8 f93c 0161 0a3e
00000070: 85d9 06be cbe2 d03d bdf7 1cbe fd47 1abe
00000080: ce55 7839 1549 5bb8 8ff8 a438 1ec8 4aba
00000090: 28c9 a938 b1c9 05b9 60d9 9d39 2f22 a738
000000a0: 3a5d 48b8 9503 403a 3e1b 7838 9e86 9638
000000b0: c42d ebb9 8f12 173a d807 4fba 2feb 9c39
000000c0: bdaf d2b9 7028 7839 a1f1 4fb9 77e0 4f39
000000d0: a5bf 9738 7936 4fb9 316e a739 588d 17b9
000000e0: f3e9 c3b9 eacb 41ba 8a45 ec39 41da f939
000000f0: 62f7 a1b7 972f 4aba a3da b23a 41a3 983a
00000100: 810f e43c ede0 323c ebbb 5fbc e1c0 cc3b
00000110: d139 403b 6e51 863c 3d4b 063d 1b48 95bc
00000120: 86bf 01bc 0e58 1a3d f6ab 923b 5f9a f23b
00000130: 9c2e 40bc 69b4 9a3a 89ac 473d d5ab ee3a
00000140: 7190 80bc ca89 3e3c 80cf dfbc 33cf ce3b
00000150: e1ba febb 319f 9e3c 86ff 9bbb efa2 9fbc
00000160: 6d8a c83b 351d 0c3c 3327 483c 4ee2 a5bb
00000170: 3831 3cbc 795f a23c f974 7b3b 6357 0d3c
-0.06936332 0.018894937 -0.0649888 -0.111482576 0.043928485 0.0071882047 -0.024136448 -0.06865458
0.06603407 0.10223939 -0.11567855 -0.026299885 -0.029692704 -0.05325366 0.095636584 0.0770055
0.11053591 -0.09971059 0.11270488 -0.09471152 -0.079775475 0.14367254 -0.029644227 -0.068335585
0.032468747 -0.1537673 0.03051419 0.13513567 -0.13168915 0.10199507 -0.1532888 -0.15066524
0.00023683088 -5.228173e-05 7.866427e-05 -0.0007735508 8.096016e-05 -0.00012759004 0.0003010733 7.969548e-05
-4.777054e-05 0.00073247525 5.915318e-05 7.177632e-05 -0.0004485679 0.00057629583 -0.0007897592 0.00029929864
-0.00040185257 0.00023666187 -0.00019831072 0.00019824678 7.235938e-05 -0.00019761351 0.0003193482 -0.00014453137
-0.00037367604 -0.0007392751 0.00045065238 0.00047655593 -1.9307892e-05 -0.000771278 0.0013645481 0.0011645333
0.027839424 0.010917884 -0.013655643 0.006248579 0.0029331336 0.01639625 0.032786597 -0.01822286
-0.007919198 0.03768163 0.0044760657 0.0074036564 -0.011729863 0.0011803034 0.048748527 0.0018209169
-0.015693875 0.011629531 -0.027320623 0.006311321 -0.0077737425 0.019363018 -0.0047606854 -0.019486872
0.0061200173 0.008551885 0.012216377 -0.005062378 -0.011486344 0.019820916 0.0038369282 0.008626792
