nets/tae_default.pt (torch, 241958 bytes, 42 tensors)

weight f4 [32, 6]
0	0xbd66527c	-0.056231007
1	0x3db0b714	0.086286694
2	0xbe475e44	-0.19469553
3	0x3e841bb1	0.25802377
4	0x3ebc11df	0.36732385
5	0xbe941cb3	-0.28928146
6	0x3e86bf92	0.26318032
7	0x3d6de64b	0.058080953
8	0x3eb0088d	0.34381524
9	0x3dd37f91	0.10327066
10	0x3e465dba	0.19371691
11	0xbdd85b3c	-0.105642766
12	0x3e9fe17e	0.31226724
13	0x3dc50fbc	0.09622142
14	0xbe6aec17	-0.22941624
15	0x3d997a4d	0.0749403
16	0xbe34f763	-0.17672496
17	0xbc0b8130	-0.008514687
18	0xbdf968cc	-0.121781915
19	0x3e8f2993	0.27961406
20	0xbeaeb400	-0.34121704
21	0xbe6d3efb	-0.23168556
22	0xbe05e289	-0.13074698
23	0xbe5bf30d	-0.21479435
24	0x3c7f02e7	0.015564657
25	0xbecebe25	-0.40379444
26	0x3ec73ffd	0.38916007
27	0xbea5eda5	-0.3240787
28	0x3ea104de	0.31449026
29	0x3cb54202	0.022126202
30	0xbdd42aff	-0.10359763
31	0x3e6a4544	0.22877985
32	0x3d80da2b	0.06291612
33	0x3eca9949	0.39570072
34	0x3db9ec40	0.09078264
35	0xbde99cd8	-0.11406869
36	0x3de6be20	0.11266732
37	0xbe0734e6	-0.13203773
38	0x3e39f415	0.18159516
39	0x3ed28420	0.41116428
40	0x3e81f8d8	0.25385165
41	0xbe31ed6c	-0.17375726
42	0x3e6b467d	0.22976108
43	0x3dae106f	0.08499228
44	0x3e3c6300	0.1839714
45	0xbeaf5111	-0.34241536
46	0xbee0c4b0	-0.4390006
47	0xbe2317a9	-0.15926994
48	0xbe8d3fec	-0.2758783
49	0x3ea777bf	0.32708547
50	0x3de5d9ed	0.11223207
51	0x3e438f0a	0.19097534
52	0x3e163500	0.14668655
53	0x3b68a489	0.0035498461
54	0x3e855c68	0.26047063
55	0xbe92ee9c	-0.2869767
56	0x3bb7dea8	0.0056112595
57	0xbe8a840e	-0.27053875
58	0x3e15a538	0.14613807
59	0xbe018b84	-0.12650877
60	0x3dd7f32a	0.10544427
61	0xbbff7a51	-0.0077965637
62	0x3e9ebe70	0.31004667
63	0xbe84d94e	-0.2594704
64	0xbe6e271e	-0.2325711
65	0xbe7babd2	-0.24577263
66	0x3ea926ee	0.33037513
67	0x3e3300e3	0.17480807
68	0x3ec21ad5	0.37911096
69	0xbec53e06	-0.38523883
70	0xbeda7b85	-0.42672363
71	0xbea1b638	-0.31584334
72	0xbe3e6d9d	-0.18596502
73	0x3e0a4787	0.13503848
74	0x3e2b1064	0.16705471
75	0x3ebdb94c	0.37055433
76	0xbe424993	-0.18973379
77	0xbe90313d	-0.28162566
78	0x3e44525a	0.1917204
79	0xbe40bf91	-0.18823077
80	0x3e8ac6b8	0.27104735
81	0xbdcab0a0	-0.0989697
82	0x3e6988ee	0.22806141
83	0xbea6b775	-0.32561842
84	0xbe38cc47	-0.18046676
85	0x3e081eb3	0.13292961
86	0x3d82ac10	0.063804746
87	0xbdb2e9b9	-0.08735985
88	0x3e89e5e4	0.26933205
89	0x3e9ed912	0.31024987
90	0xbe570514	-0.20998031
91	0xbe50fe91	-0.2040961
92	0x3eb8bc0a	0.36080962
93	0xbdbf11a7	-0.09329539
94	0xbdd464a9	-0.10370762
95	0xbece8c5a	-0.40341455
96	0xbe6225f7	-0.22084795
97	0x3e00f7bd	0.12594505
98	0xbd095411	-0.033527438
99	0xbe73272c	-0.23745412
100	0x3bba1829	0.0056791496
101	0xbeb558b8	-0.3541925
102	0xbe942457	-0.28933975
103	0xbe582e33	-0.21111374
104	0xbeb76aa0	-0.35823536
105	0xbe858715	-0.26079622
106	0x3ecb4db1	0.3970771
107	0x3d878d28	0.0661872
108	0x3dd94288	0.10608393
109	0xbecc560d	-0.39909402
110	0xbe7c07bd	-0.24612327
111	0xbe13c2ef	-0.1442983
112	0x3d446e73	0.047956895
113	0xbecae418	-0.39627147
114	0xbe196709	-0.14980711
115	0xbe89275e	-0.26787847
116	0x3c0c0d1b	0.008548046
117	0xbe26398c	-0.1623289
118	0xbc3999ab	-0.011328141
119	0xbe8b0df1	-0.27159074
120	0xbe560645	-0.20900829
121	0xbe51e236	-0.20496449
122	0xbe3871c4	-0.18012148
123	0xbec0e298	-0.37672877
124	0x3ea2ed43	0.3182164
125	0xbd21d84d	-0.03951292
126	0x3ea54448	0.32278657
127	0x3d8b372f	0.06797635
128	0xbe98591e	-0.2975549
129	0x3eaa8271	0.33302644
130	0xbde52e93	-0.11190524
131	0xbe249d9a	-0.16075745
132	0xbe9fbad4	-0.31197226
133	0xbed1c26d	-0.40968648
134	0x3df1df5a	0.11810179
135	0xbdb92189	-0.090395994
136	0x3e24140c	0.16023272
137	0xbeac8b6e	-0.33700126
138	0x3e5ffb6b	0.21873252
139	0xbe9f1bbd	-0.3107585
140	0xbd32f4b4	-0.0436904
141	0x3dd0ff8e	0.10204993
142	0x3e4bab5c	0.19889587
143	0x3e95646b	0.29178175
144	0x3eb82837	0.35968181
145	0xbe95d30d	-0.2926258
146	0x3d9ffb72	0.07811631
147	0xbe1985f9	-0.14992513
148	0xbcc90477	-0.024538262
149	0xbe9bde4b	-0.30443034
150	0x3ea9ad64	0.331401
151	0xbea07663	-0.31340322
152	0x3e6ab710	0.22921395
153	0x3e1f1ac9	0.15537561
154	0x3e0eabb2	0.13932684
155	0xbe5d0578	-0.21584117
156	0x3e945231	0.28968957
157	0x3dfde7ca	0.12397726
158	0x3d5bb52d	0.05363958
159	0xbecf5ada	-0.40499002
160	0x3dee9be1	0.11650825
161	0xbdec645c	-0.115425795
162	0xbe3dd6b7	-0.18538938
163	0x3ebe411e	0.37159055
164	0x3d9e59e8	0.07731992
165	0xbe769caa	-0.240832
166	0xbe58d5c8	-0.21175301
167	0xbd20a939	-0.039223883
168	0x3e07b7e7	0.13253747
169	0xbda680f4	-0.081300646
170	0xbe871227	-0.26381037
171	0xbe376c2c	-0.17912358
172	0xbea31c41	-0.31857494
173	0x3e22d907	0.15903102
174	0x3e5f96fc	0.2183494
175	0xbed86f46	-0.42272395
176	0x3e1ec95f	0.15506504
177	0x3e84b9ed	0.259231
178	0x3d7ecbed	0.062206198
179	0xbe34ec4c	-0.17668265
180	0x3e4f2485	0.20228775
181	0x3e7f1f07	0.2491418
182	0x3e08dc86	0.13365373
183	0xbd8c28f0	-0.06843746
184	0xbdd624dc	-0.10456249
185	0x3d40d94f	0.04708224
186	0xbd2dc3b3	-0.04242296
187	0xbe13e6fb	-0.14443581
188	0x3e90901f	0.28234956
189	0x3ebc51a0	0.36781025
190	0xbd0f76ed	-0.035025526
191	0xbdb60e97	-0.088895015

bias f4 [32]
0	0x3ce4fa45	0.027951369
1	0xbd884dc0	-0.06655455
2	0x3e01669b	0.12636797
3	0x3dfcbb4d	0.12340412
4	0xbed01618	-0.40641856
5	0xbe177a7e	-0.14792821
6	0x3eb5720f	0.35438582
7	0x3e146ec8	0.14495385
8	0xbba9b5b8	-0.0051791333
9	0xbe869808	-0.26287866
10	0xbe9f9170	-0.31165648
11	0xbecb7105	-0.39734665
12	0xbe2d781e	-0.16940352
13	0x3e24c2d5	0.16089948
14	0x3e95a757	0.29229233
15	0x3e3e7240	0.1859827
16	0xbee3c9d7	-0.4448993
17	0xbe524513	-0.20534162
18	0xbdc1cdcd	-0.094630815
19	0x3ee7a303	0.45241556
20	0x3d8b1313	0.067907475
21	0xbdcc2abc	-0.099690884
22	0x3e20f8b3	0.15719871
23	0xbe39992d	-0.18124838
24	0xbe95e6dc	-0.29277694
25	0x3eab7c74	0.33493388
26	0xbe3d7bfd	-0.18504329
27	0xbd51acc0	-0.051190138
28	0xbec1bc13	-0.37838802
29	0x3e8ab4b3	0.27090988
30	0x3eb54b6d	0.35409108
31	0x3dca68d7	0.09883278

in_proj_weight f4 [96, 32]
0	0xbe21e29e	-0.15809104
1	0xbb063578	-0.0020478647
2	0x3e36c868	0.17849886
3	0xbdd0af9e	-0.10189746
4	0x3bd1e7ee	0.006405822
5	0x3d8052b4	0.06265774
6	0x3e7bb1be	0.24579522
7	0x3e30bb7c	0.1725902
8	0x3e618324	0.22022682
9	0xbe0d16c4	-0.13778216
10	0x3e00135b	0.12507384
11	0x3e18afe6	0.1491085
12	0xbe5356f8	-0.20638645
13	0xbe072489	-0.13197531
14	0x3dd22887	0.10261636
15	0x3e27fd24	0.16405159
16	0xbe211fd1	-0.15734793
17	0xbd48444e	-0.048893265
18	0xbd2446f0	-0.040106714
19	0x3e1d055b	0.15334074
20	0xbda5a370	-0.08087814
21	0x3db504c5	0.088388
22	0x3e4711c4	0.19440371
23	0xbe702282	-0.23450664
24	0xbd604381	-0.054751877
25	0x3d770d81	0.060315613
26	0x3c3946e6	0.011308407
27	0x3e7230f9	0.23651494
28	0xba9f8a7b	-0.0012172008
29	0x3c0b0613	0.008485335
30	0x3e9b8a5c	0.30378997
31	0xbd1f0c58	-0.03883013
32	0xbdefc77a	-0.11707969
33	0x3db9e9a2	0.09077765
34	0xbe38b762	-0.18038705
35	0x3cab8527	0.020937515
36	0xbdc3b3e6	-0.09555797
37	0x3c734d99	0.014850044
38	0xbdb6d085	-0.08926491
39	0x3d95ee2d	0.07320819
40	0xbe6f4f5a	-0.23370114
41	0xbe058548	-0.13039124
42	0x3e37ddd5	0.17955716
43	0x3e8e568e	0.2780041
44	0xbdf2295d	-0.11824296
45	0x3d011dc0	0.031522512
46	0xbe864588	-0.26224923
47	0x3c0d5bb0	0.008627817
48	0x3e9bfad6	0.3046481
49	0x3e3603f5	0.17774947
50	0xbdb72943	-0.08943417
51	0x3d0119c9	0.03151873
52	0x3d1f6741	0.03891683
53	0x3cb0f48e	0.021600988
54	0x3e119b8f	0.14219497
55	0xbd972cc8	-0.07381588
56	0x3cf5e2d6	0.03001539
57	0xbe753b65	-0.23948438
58	0x3e18a15b	0.14905302
59	0x3e2f82ab	0.1713969
60	0x3e01692c	0.12637776
61	0xbe8ba60b	-0.27275118
62	0xbe1bbc8f	-0.15208648
63	0xbd5e9c41	-0.054348234
64	0xbdf83945	-0.12120298
65	0xbd78d5de	-0.060750835
66	0x3da9de92	0.08294405
67	0x3db34f28	0.08755332
68	0xbdb21493	-0.086953305
69	0x3debe89e	0.115189776
70	0x3e613e68	0.21996462
71	0x3c97f5fd	0.018549914
72	0xbca73383	-0.020410305
73	0x3ccce573	0.025011754
74	0x3d088908	0.03333381
75	0xbd24d01c	-0.04023753
76	0xbdaf62ec	-0.0856379
77	0x3db657fc	0.089035004
78	0xbe67186b	-0.22567908
79	0x3d929a51	0.0715834
80	0x3e0942af	0.13404344
81	0xbe94fb4f	-0.29097983
82	0xbe49f6ed	-0.19723101
83	0xbdbc33e0	-0.09189582
84	0x3d88590b	0.066576086
85	0x3e78b28b	0.24286859
86	0x3c9084b1	0.017641397
87	0x3dd3e660	0.10346675
88	0xbe0da7c6	-0.13833532
89	0xbe201deb	-0.15636413
90	0x3cb7c572	0.022433016
91	0x3e05d3f4	0.13069135
92	0x3e038f5d	0.12847658
93	0x3d0d48fb	0.034493428
94	0x3e9e641b	0.3093575
95	0x3e3e1c2e	0.18565437
96	0x3e768446	0.24073896
97	0xbdc3de73	-0.09563913
98	0x3e85bdf0	0.26121473
99	0xbde20707	-0.110364966
100	0x3da3d432	0.079994574
101	0x3dfe4ae4	0.12416628
102	0xbe12f36e	-0.14350674
103	0x3d8dbbb0	0.06920564
104	0x3d84b6b3	0.064801596
105	0xbe829ffd	-0.25512686
106	0xbd93919e	-0.07205509
107	0x3d41f589	0.0473533
108	0x3e584b8f	0.21122573
109	0xbd88d685	-0.06681541
110	0x3d9ce4b9	0.07660813
111	0x3ce2e810	0.027698547
112	0x3d85a8ac	0.06526312
113	0x3ab957f8	0.0014140597
114	0xbe3ab5ee	-0.18233463
115	0xbe418a58	-0.1890043
116	0xbe600389	-0.21876349
117	0xbe040bf9	-0.12895192
118	0xbdfa55e5	-0.12223414
119	0xbcab0828	-0.020877913
120	0xbe2f56b9	-0.17122926
121	0xbdc17f72	-0.094481364
122	0xbcf93b95	-0.030423919
123	0x3befcc7d	0.007318078
124	0xbe1307a0	-0.14358377
125	0xbc1e5b20	-0.009665281
126	0x3c4684d0	0.012116626
127	0x3d8f3355	0.06992213
128	0x3db9fd1c	0.0908148
129	0xbd852cb8	-0.0650267
130	0xbb01cf4b	-0.0019807394
131	0x3d401af3	0.0469007
132	0xbe72d44b	-0.23713796
133	0x3dd1fdd0	0.10253489
134	0x398cf0e3	0.00026882355
135	0x3da70f4c	0.081572145
136	0x3e02a10e	0.1275675
137	0x3df49c75	0.11943904
138	0xbc818dc7	-0.015814675
139	0xbe1eaf77	-0.15496622
140	0x3dd84374	0.10559741
141	0xbe2af380	-0.1669445
142	0xbd62f6f2	-0.055411287
143	0xbda9caf4	-0.08290663
144	0xbd8104f3	-0.06299772
145	0xbda108be	-0.078629956
146	0x3e162285	0.14661606
147	0x3dd4ebe5	0.10396556
148	0xbcd53881	-0.02602792
149	0x3e86cd42	0.26328474
150	0xbe658428	-0.22413695
151	0x3d17155d	0.036885608
152	0x3dc7449b	0.09729882
153	0x3df8392a	0.12120278
154	0xbe1a49a0	-0.15067148
155	0x3dbf2fa3	0.09335258
156	0xbdfe871d	-0.124281146
157	0xbd304bf5	-0.04304119
158	0xbc18febb	-0.009338076
159	0xbe529a4a	-0.20566669
160	0xbe2d4d88	-0.16924107
161	0xbe68d41d	-0.22737165
162	0x3de53802	0.11192323
163	0x3df19697	0.11796301
164	0xbe730325	-0.23731668
165	0xbdb62804	-0.08894351
166	0x3dc0d74d	0.09416065
167	0xbe4d10b1	-0.20025899
168	0x3e261dcb	0.16222303
169	0x3e01b11d	0.1266522
170	0xbcc38eec	-0.023871861
171	0xbe6dc9c3	-0.23221497
172	0xbbc14b2e	-0.0058988547
173	0x3dfc37cc	0.1231533
174	0x3e837a2f	0.25679156
175	0xbdc392c3	-0.09549477
176	0xbe8e4dea	-0.2779382
177	0x3d8526ee	0.06501566
178	0xbd3ccea8	-0.04609552
179	0x3ca50745	0.020145068
180	0xbcc857e1	-0.024455966
181	0xbe114df0	-0.14189887
182	0x3e6fd9ed	0.23422976
183	0xbd888656	-0.066662475
184	0x3dade14d	0.08490238
185	0x3e97965b	0.296069
186	0xbd958ea0	-0.07302594
187	0xbc71cb91	-0.014758007
188	0xbddd2bce	-0.10799371
189	0x3e8781e9	0.264663
190	0xbe0a4dee	-0.1350629
191	0x3e269fe4	0.16271931
192	0xbd3da987	-0.046304252
193	0x3dc6ed29	0.097132035
194	0xbd7eca9a	-0.062204935
195	0xbe2cee25	-0.1688772
196	0x3d1b40d1	0.03790361
197	0x3da8a673	0.08234873
198	0xbe117888	-0.14206135
199	0xbe24ee08	-0.16106427
200	0xbd98206d	-0.0742806
201	0xbd3f3b80	-0.046687603
202	0x3da54146	0.080690905
203	0x3e02c73f	0.12771319
204	0xbd17f2d7	-0.037096824
205	0x3e513f19	0.20434226
206	0xbd85a245	-0.06525091
207	0xbe042b47	-0.12907134
208	0xbde9bcde	-0.11412977
209	0xbdf5efad	-0.12008605
210	0xbe12f64f	-0.14351772
211	0xbe534fc5	-0.20635898
212	0xbdf018bc	-0.11723468
213	0x3cf4be6f	0.029875962
214	0x3e0ec5f8	0.13942707
215	0x3e7382a4	0.23780304
216	0x3e417f68	0.18896258
217	0xbc81b212	-0.01583198
218	0x3cad5803	0.021160131
219	0xbe284a4c	-0.16434592
220	0x3dc028cf	0.093827836
221	0xbe4a67b1	-0.19766118
222	0x3c96ee29	0.01842411
223	0x3d3db55b	0.046315532
224	0x3cf52189	0.029923217
225	0x3e21b849	0.15792955
226	0xbe0a0c54	-0.13481265
227	0x3e0544ed	0.13014574
228	0x3e3d099d	0.18460698
229	0x3e1a11df	0.1504588
230	0xbd919cae	-0.071099624
231	0x3e150cbb	0.14555638
232	0x3ddaae86	0.10677819
233	0x3e428069	0.18994297
234	0x3e7fcc2e	0.24980232
235	0x3d623096	0.055222116
236	0x3e1ce6c7	0.1532241
237	0x3c61d3e4	0.013783429
238	0x3cb081fd	0.021546358
239	0x3e47daee	0.19517109
240	0x3e22031d	0.158215
241	0xbd23bbe7	-0.03997412
242	0x3d682723	0.05667795
243	0xbc8957b9	-0.016765462
244	0x3b856bc8	0.0040716864
245	0xbce8e537	-0.02842961
246	0x3e01207d	0.1261005
247	0x3e2df882	0.1698933
248	0xbcf4386c	-0.02981206
249	0xbdfaf07e	-0.122529015
250	0x3d97ae85	0.07406334
251	0xbdb35746	-0.087568805
252	0x3e08967a	0.13338652
253	0xbe32c777	-0.17458902
254	0xbe5e9566	-0.21736678
255	0xbe0d8041	-0.13818456

in_proj_bias f4 [96]
0	0x3dbedf76	0.093199655
1	0xbdc1e454	-0.09467378
2	0x3dc394c6	0.09549861
3	0x3ba97750	0.005171694
4	0x3c4af7ea	0.012388209
5	0x3daed527	0.08536749
6	0xbd1f3c3e	-0.03887581
7	0xbe0153e2	-0.12629655
8	0x3bd31489	0.006441657
9	0x3dec20d9	0.11529703
10	0x3de44a55	0.1114699
11	0xbe38b9a4	-0.18039566
12	0x3dee9e53	0.11651292
13	0xbe11a3b1	-0.142226
14	0xbdc81701	-0.09770013
15	0xbdea04a6	-0.11426668
16	0x3d495667	0.049154665
17	0x3d013d86	0.031552814
18	0xbdfc2326	-0.123113915
19	0x3cf674ad	0.030084932
20	0x3bd575d6	0.0065142913
21	0x3aea326d	0.0017867811
22	0xbdc351e3	-0.09537103
23	0x3bb5bed6	0.005546431
24	0xbd12480c	-0.03571324
25	0xbd18517e	-0.037187092
26	0x3cc4f0fc	0.024040692
27	0x3cda567b	0.026652565
28	0x3d17084e	0.036873154
29	0xbd839bfa	-0.064262345
30	0x37f76568	2.9491915e-05
31	0xbcdac949	-0.026707308
32	0xb95bf990	-0.00020978437
33	0x3a6ed9b5	0.00091114204
34	0xb925b4f4	-0.00015803037
35	0xba5ed945	-0.00085010036
36	0xba640b92	-0.0008699234
37	0xba272d02	-0.0006377251
38	0x3a5092a4	0.00079564215
39	0x3918b576	0.00014563449
40	0x3adcb071	0.0016837252
41	0xba90eb54	-0.0011056461
42	0x3aeb1a05	0.0017936832
43	0x3b10c5cb	0.002209055
44	0xb91e2ae1	-0.00015084028
45	0x3a7eda02	0.0009721817
46	0xba85f9b8	-0.0010221517
47	0xbacebd63	-0.0015772994
48	0xba3b4a5b	-0.0007144564
49	0x351b5c90	5.7876696e-07
50	0x3a310098	0.00067521026
51	0x38e379aa	0.00010846865
52	0xb897c319	-7.236581e-05
53	0x39108de9	0.00013785776
54	0x3ac62356	0.0015116732
55	0x3935713e	0.00017303691
56	0x39de811a	0.00042439328
57	0xba504069	-0.0007944168
58	0xba42d497	-0.0007432191
59	0xb993a7ec	-0.00028163136
60	0xb9b86412	-0.00035169773
61	0x395a67fc	0.00020828837
62	0x39296aa1	0.00016156818
63	0x38ddf868	0.000105843705
64	0x3bb47d83	0.005508126
65	0xbc6a3028	-0.014293708
66	0x3ca19e87	0.019728912
67	0x3a8e8cff	0.001087576
68	0xbc6da57d	-0.0145047875
69	0x3c5e1075	0.013553728
70	0xbc8043d8	-0.01565735
71	0x3ca2a072	0.019851897
72	0xbcc3a091	-0.023880275
73	0xbc7c65e7	-0.015405155
74	0xbc7910cf	-0.015201761
75	0x3adccdd8	0.0016846014
76	0xbce50ec9	-0.027961152
77	0x3c85e6a9	0.016345339
78	0x3c214a08	0.009844311
79	0xbb8266da	-0.003979546
80	0xbc8a5765	-0.016887376
81	0x3b921624	0.004458206
82	0xbc523320	-0.012829572
83	0xbc91dcd1	-0.017805489
84	0xbc008181	-0.007843376
85	0xbb104420	-0.0022013262
86	0xbad017db	-0.001587625
87	0xbc589442	-0.013218941
88	0x3bb33868	0.0054693706
89	0x3c8f7f40	0.017516732
90	0x3c301124	0.010746274
91	0x3c970998	0.018437192
92	0xbcb90645	-0.022585997
93	0xbba7fdaa	-0.0051266747
94	0x3be143db	0.006874544
95	0x3d15eae4	0.036600962

weight f4 [32, 32]
0	0xbddc3a24	-0.10753277
1	0xbe2bd6b4	-0.16781121
2	0xbdfc54fd	-0.12320898
3	0x3df99c5f	0.121880285
4	0x3db805f4	0.089855105
5	0x3e08c2b8	0.1335553
6	0x3dbfe117	0.09369104
7	0x3d5d4dd6	0.05402931
8	0x3acafdc8	0.001548701
9	0xbe0f76ce	-0.14010164
10	0xbe1a5d0f	-0.15074562
11	0xbe2af120	-0.16693544
12	0x3d856aba	0.06514497
13	0xbdd2fd89	-0.10302264
14	0xbd0b4ec7	-0.034010675
15	0xbdbfba6e	-0.093617305
16	0xbc600499	-0.013672971
17	0xbdff3b21	-0.1246245
18	0xbe146c90	-0.14494538
19	0x3d9845b9	0.074351735
20	0xbd428edc	-0.047499523
21	0x3e134edb	0.1438555
22	0xbd38b942	-0.04509855
23	0xbe2465b0	-0.16054416
24	0x3c361d8b	0.011115442
25	0xbe035c6b	-0.12828223
26	0xbcfcff68	-0.030883506
27	0xbe31d089	-0.17364706
28	0x3df61a36	0.12016718
29	0xbdb89051	-0.09011901
30	0x3dbb9fa8	0.091613114
31	0x3d629f37	0.05532762
32	0x3e0668ce	0.13125917
33	0xbe080a63	-0.13285212
34	0x3e19334c	0.14960974
35	0xbdb35dab	-0.087581
36	0x3dae7cc9	0.08519895
37	0x3e253a2a	0.16135469
38	0x3c348695	0.011018415
39	0x3cb17b20	0.021665156
40	0xbd7711d0	-0.06031972
41	0xbe16bb57	-0.14719902
42	0x3d9e2130	0.07721174
43	0xbdb459bd	-0.08806179
44	0x3df0a0b9	0.117494054
45	0x3e44f333	0.19233398
46	0x3e370496	0.17872843
47	0xbd04426d	-0.03228991
48	0xbe21bf79	-0.15795697
49	0x3d477a45	0.04870059
50	0x3d942208	0.072330534
51	0xbe26ddc2	-0.16295531
52	0xbc0f4778	-0.008745067
53	0xbd8945dc	-0.06702778
54	0xbc8fd43e	-0.01755726
55	0xbde46102	-0.11151315
56	0xbd200058	-0.039062828
57	0xbd93d757	-0.07218807
58	0xbe2e7807	-0.17037974
59	0x3dde6442	0.108589664
60	0x3e373a3e	0.17893311
61	0x3c831cb3	0.016004896
62	0xbdbd1372	-0.092322245
63	0xbde65d3a	-0.1124825
64	0xbe0a0f96	-0.13482508
65	0xbe073dc5	-0.13207157
66	0x3e015e46	0.12633619
67	0xbdf7c3ef	-0.12097918
68	0xbd9c652d	-0.07636485
69	0xbd3bf492	-0.045887537
70	0xbd10fed0	-0.035399258
71	0xbc3b993a	-0.011450106
72	0xbd22ec50	-0.039776146
73	0xbd8ad0a9	-0.0677808
74	0xbde39fc1	-0.11114455
75	0xbd0e8b1c	-0.034800634
76	0xbde2b927	-0.11070471
77	0x3e425821	0.18978931
78	0xbcb348da	-0.021885324
79	0x3dd090e9	0.101838894
80	0xbd03287a	-0.032021023
81	0xbc45cd8d	-0.012072933
82	0x3df5e104	0.12005809
83	0x3dfc7eee	0.123288974
84	0xbddc0b2f	-0.107443206
85	0x3ddf78fb	0.10911747
86	0x3e51fad0	0.20505834
87	0xbade2c4d	-0.0016950459
88	0x3dff967e	0.12479876
89	0x3e1c156e	0.1524255
90	0xbbe24207	-0.0069048437
91	0x3c8cf7c7	0.017207993
92	0xbda4c4b6	-0.08045332
93	0xbb20f04e	-0.0024557295
94	0x3d8ceaa2	0.0688069
95	0x3d6a4d12	0.057202406
96	0xbde66d6f	-0.112513416
97	0xbe10417c	-0.1408748
98	0xbddc9afd	-0.10771749
99	0xbe3dca34	-0.18534166
100	0xbe0e6beb	-0.13908355
101	0xbd504933	-0.05085106
102	0x3de81ea8	0.11333972
103	0x3cd9a559	0.026568102
104	0xbe0911e8	-0.13385737
105	0xbe0001f1	-0.1250074
106	0x3dca7490	0.09885514
107	0xbd8eded7	-0.06976097
108	0xbc5128e7	-0.0127661
109	0x3e104965	0.14090498
110	0xbdb029c9	-0.0860172
111	0xbcf30a13	-0.02966789
112	0xbc10a8d5	-0.008829315
113	0xbd4d7325	-0.05015864
114	0xbda436f5	-0.08018295
115	0xbe1e4ecb	-0.15459745
116	0xbe1224e9	-0.14271893
117	0xbdf339a2	-0.11876227
118	0x3e3ad97e	0.18247029
119	0xbd84a9f3	-0.06477728
120	0xbe00511b	-0.1253094
121	0x3d39bd0a	0.045346297
122	0x3d4549ee	0.048166208
123	0x3d9c66f3	0.076368235
124	0x3e121702	0.1426659
125	0x3dd3badd	0.10338376
126	0xbe2a05ed	-0.16603823
127	0x3b1a7953	0.002357085
128	0x3ddea451	0.108711846
129	0xbcc82830	-0.024433225
130	0xbe06eb64	-0.13175732
131	0x3e2ded89	0.16985144
132	0xbd999387	-0.07498842
133	0xbd99bc0a	-0.07506569
134	0xbe2cbb70	-0.16868377
135	0xbc4a92f2	-0.012364136
136	0x3dbb6933	0.091509245
137	0x3d983d5d	0.07433579
138	0x3d323b7b	0.043513756
139	0xbe4e3fe7	-0.20141564
140	0xbe22b630	-0.15889812
141	0xbd2d68d1	-0.04233629
142	0x3e15a741	0.14614584
143	0x3dbdf1e1	0.0927465
144	0xbde5d79c	-0.11222765
145	0xbca623cb	-0.02028074
146	0xbdec6ebf	-0.11544561
147	0xbdc9afba	-0.0984797
148	0x3c80b831	0.01571283
149	0x3db7f8be	0.08982991
150	0x3e05db4a	0.13071933
151	0xbe1d5855	-0.15365727
152	0x3dcfbc81	0.10143376
153	0xbdccb51a	-0.0999548
154	0x3d63a65d	0.05557858
155	0x3e290cb2	0.16508749
156	0xbc6d78f3	-0.014494169
157	0x3e119b09	0.14219297
158	0xbe0417af	-0.1289966
159	0xbd58dac7	-0.052943017
160	0x3dfadf9d	0.12249682
161	0xbd20742b	-0.039173286
162	0xbbefee99	-0.007322144
163	0xbdb8ec4c	-0.09029445
164	0x3df290de	0.118440375
165	0x3dd64714	0.10462776
166	0x3d353d51	0.04424793
167	0xbdebb1e3	-0.115085386
168	0xbe087abc	-0.1332807
169	0x3ce94ab1	0.028477998
170	0x3d82d633	0.063885115
171	0xbda6577b	-0.08122154
172	0xbd07386b	-0.03301279
173	0x3dbe7b96	0.09300916
174	0x3ba653df	0.005075916
175	0x3c86fec8	0.016478911
176	0xbd13f146	-0.03611877
177	0xbe2d70e6	-0.16937599
178	0xbe3194d2	-0.17341927
179	0xbd95ba0e	-0.07310878
180	0xbda5f54a	-0.08103426
181	0x3d898e49	0.06716592
182	0xbd04aead	-0.032393146
183	0xbdb8dff9	-0.090270944
184	0x3e290715	0.16506608
185	0x3cd68713	0.026187455
186	0x3df378ef	0.118883006
187	0xbd47184d	-0.04860716
188	0xbd8732f4	-0.066015154
189	0x3d67ecd7	0.056622352
190	0xbddb6291	-0.107121594
191	0xbddedf55	-0.10882441
192	0xbbc541d6	-0.006019811
193	0xbd668bd2	-0.056285687
194	0xbe05e0e6	-0.13074073
195	0x3de6c5a1	0.112681635
196	0x3e180e5d	0.14849229
197	0x3c9e2597	0.019305034
198	0xbcf7fc94	-0.030271806
199	0xbe1874cf	-0.14888309
200	0xbd80fd09	-0.062982626
201	0x3bcd28e9	0.0062609804
202	0x3d93ea4a	0.072224215
203	0xbd4bd1e7	-0.049760725
204	0xbd9fc473	-0.078011416
205	0x3d9f7be2	0.07787301
206	0xbe076b1b	-0.13224451
207	0x3dfadeef	0.122495525
208	0xbd79945d	-0.060932506
209	0x3c6308fc	0.0138571225
210	0xbd83e41d	-0.064399935
211	0x3d092691	0.033484045
212	0xbd483e8a	-0.048887767
213	0x3e202cf3	0.15642147
214	0xbb933595	-0.0044924715
215	0x3de00e82	0.10940267
216	0x3e51ce82	0.20488933
217	0xbddf0b07	-0.10890775
218	0xbdc22316	-0.09479348
219	0x3e186430	0.14881968
220	0x3e171cb3	0.14757042
221	0xbde1f1f7	-0.11032479
222	0xbc9d5480	-0.019205332
223	0xbe3adbbd	-0.18247886
224	0xbe0174b6	-0.12642178
225	0x3d2b0d69	0.041760836
226	0x3ceee016	0.029159587
227	0x3cac1fe2	0.021011297
228	0xbd1435f9	-0.036184285
229	0x3e23001f	0.15918015
230	0x3d2c212f	0.042023834
231	0xbdb1f457	-0.08689182
232	0xbcfc09dd	-0.030766422
233	0x3d2baa32	0.041910358
234	0x3cd7c80e	0.02634051
235	0xbe1eb489	-0.15498556
236	0x3d760cc2	0.06007076
237	0xbdaadec2	-0.08343269
238	0xbe0027ae	-0.12515137
239	0xbdc7eeb6	-0.097623274
240	0x3e23fce7	0.16014443
241	0x3e20ca9d	0.15702291
242	0x3e1cc118	0.15308034
243	0x3dc914ae	0.098183975
244	0x3e0023c5	0.12513645
245	0xbcc71ffa	-0.02430724
246	0xbdb52745	-0.08845381
247	0x3dc74f6b	0.09731945
248	0xbdc24d35	-0.09487382
249	0xbdaf73c4	-0.085670024
250	0xbd3e9033	-0.046524238
251	0x3c416b42	0.011805357
252	0x3da25cba	0.079278424
253	0xbd85ed7b	-0.065394364
254	0xbda3c373	-0.07996263
255	0x3cc19210	0.023629218

bias f4 [32]
0	0x3c160648	0.009156771
1	0xbccc7566	-0.024958324
2	0x3cc7c938	0.02438794
3	0x3c390278	0.0112920925
4	0xbc1a4d51	-0.009417848
5	0x3c52c134	0.012863446
6	0xbc245c6b	-0.0100318
7	0xbc176f33	-0.009242821
8	0xbb234066	-0.002491021
9	0x3c3ecaa6	0.011644995
10	0xbc3261f8	-0.010887615
11	0x3b9305cb	0.0044867746
12	0xbc07f2da	-0.008297646
13	0x3bf5a2ec	0.0074962284
14	0x3c47bcb6	0.012190988
15	0x39d3afb5	0.00040375968
16	0xbd300cd9	-0.042981002
17	0x3ca8033d	0.020509357
18	0xbc81cb9d	-0.01584416
19	0x3cfdf6fd	0.031001562
20	0x3b5ec2f0	0.0033990704
21	0x3ccd096f	0.025028912
22	0x3c0b75ad	0.008511943
23	0xbcb9855b	-0.022646597
24	0xbc94ad94	-0.018149175
25	0x3c9425d0	0.018084437
26	0x3cb6ec0a	0.02232935
27	0x3d0608d6	0.03272327
28	0x3d1c6c7c	0.038189396
29	0xbc18f0ba	-0.009334737
30	0xba1be62b	-0.00059470785
31	0xbcc7d733	-0.024394607

weight f4 [128, 32]
0	0x3da9a76a	0.08283885
1	0x3cdff5c4	0.02733887
2	0xbccaaee1	-0.024741592
3	0xbd60e096	-0.05490168
4	0xbe231ac1	-0.15928175
5	0xbdbcbb74	-0.09215441
6	0xbd4d657c	-0.05014561
7	0x3cc5d699	0.02415018
8	0xbc96a89f	-0.018390952
9	0xbd65d25b	-0.056108814
10	0x3daf9c93	0.08574786
11	0xbbbcf366	-0.00576632
12	0xbdcd90e3	-0.100374006
13	0xbd9192f3	-0.071081065
14	0xbda6e583	-0.08149245
15	0xbd414aa0	-0.04719031
16	0xbe2d298c	-0.1691038
17	0x3d178f7d	0.037002075
18	0xbdd2893f	-0.10280084
19	0x3da43199	0.080172725
20	0x3e22cfc6	0.15899572
21	0xbd888924	-0.066667825
22	0xbe01727f	-0.12641333
23	0xbe13caf6	-0.14432892
24	0x3d0070ef	0.031357702
25	0x3c5063d5	0.012719114
26	0xbd47ff60	-0.04882753
27	0x3e1f3269	0.15546574
28	0x3d8be9ae	0.0683168
29	0xbe520eaf	-0.20513414
30	0x3d15e36b	0.036593836
31	0xbddce8e4	-0.10786608
32	0xbcaf6978	-0.021412596
33	0x3e3e7fe7	0.18603478
34	0xbce098fd	-0.0274167
35	0xbe244dec	-0.1604535
36	0x3e06323a	0.13105097
37	0xbe1a0f84	-0.15044981
38	0xbc44abdf	-0.012003868
39	0x3d4e7b43	0.05041052
40	0x3e1ccc42	0.15312293
41	0x3e1df5cf	0.154258
42	0xbd4351cc	-0.04768543
43	0x3cf5f81f	0.03002554
44	0xbe1f20ae	-0.1553981
45	0xbc3ec277	-0.011643044
46	0xbce5a95a	-0.028034855
47	0x3d2f6ff0	0.04283136
48	0xbe116475	-0.14198478
49	0x3c977da7	0.018492533
50	0x3e016043	0.12634377
51	0x3debf1d3	0.11520734
52	0xbd601f8c	-0.054717585
53	0x3e320072	0.17382982
54	0xbe4987c0	-0.19680691
55	0xbc80173b	-0.015636077
56	0x3d8dd359	0.06925077
57	0x3d8a62f4	0.06757155
58	0x3d628d2a	0.055310406
59	0xbe270690	-0.16311097
60	0x3d8d3e02	0.06896593
61	0xbe082190	-0.13294053
62	0xbde2b28d	-0.11069212
63	0x3d5594f5	0.05214401
64	0xbe43ade3	-0.19109301
65	0xbe4359bc	-0.190772
66	0xbe215218	-0.15753973
67	0x3e02e055	0.12780888
68	0x3d721c80	0.05910921
69	0xbd7d804a	-0.061889924
70	0xbda9a182	-0.08282758
71	0xbe206c27	-0.15666257
72	0xbe3233c3	-0.17402558
73	0xbdcd0b65	-0.10011939
74	0xbe25c3b2	-0.16187933
75	0x3df53666	0.11973266
76	0xbd9b8130	-0.07593
77	0xbd897969	-0.0671261
78	0xbdf0ac60	-0.11751628
79	0x3cf488b3	0.02985034
80	0x3cb35947	0.021893157
81	0xbdda1bbd	-0.10649822
82	0x3e177451	0.14790465
83	0x3e00c07e	0.1257343
84	0xbdd223c3	-0.10260727
85	0x3dd662df	0.10468077
86	0xbd8f780e	-0.070053205
87	0x3c9868bd	0.01860463
88	0x3de8b490	0.113625646
89	0xbd762eb6	-0.06010314
90	0x3e3ab9d4	0.1823495
91	0x3e0de155	0.13855489
92	0xbdac1ec2	-0.08404304
93	0xbe0572e9	-0.13032116
94	0xbe2fe1cf	-0.17175983
95	0x3c44ccd8	0.012011729
96	0xbdac5f48	-0.08416611
97	0xbda8d817	-0.08244341
98	0xbd911c54	-0.07085481
99	0xbe2f08e0	-0.1709323
100	0xbe18e506	-0.14931116
101	0x3e6166de	0.22011897
102	0x3e0ce6b3	0.1375988
103	0x3dda2180	0.10650921
104	0xbd45646f	-0.048191484
105	0xbd86770b	-0.065656744
106	0xbdd85bc5	-0.10564379
107	0xbd3a7176	-0.04551836
108	0xbde1bbe8	-0.110221684
109	0xbb94c213	-0.004539737
110	0xbda7e697	-0.081982784
111	0xbc812c76	-0.015768271
112	0x3e59c7e9	0.21267666
113	0x3d894755	0.06703059
114	0x3e07ce94	0.13262397
115	0xbe2a8c81	-0.1665516
116	0xbcf70ee9	-0.030158477
117	0xbda05e3d	-0.078304745
118	0xbd49241f	-0.049106713
119	0xbd1fc39e	-0.039004914
120	0xbdd7335c	-0.10507843
121	0xbe56c88b	-0.20974939
122	0xbd20ea1d	-0.039285768
123	0xbbcd20a5	-0.006259995
124	0xbc5eb6ff	-0.013593434
125	0xbe4c7052	-0.19964722
126	0x3dbfeee2	0.09371735
127	0x3dd1f456	0.102516815
128	0xbe063def	-0.13109563
129	0xbd88c407	-0.06678014
130	0x3da853da	0.082191184
131	0xbe2f64f4	-0.17128354
132	0xbdf6908d	-0.120392896
133	0x3dbe237b	0.09284111
134	0xbdacbb20	-0.08434129
135	0x3d5ab889	0.053398643
136	0xbda6e50b	-0.08149155
137	0x3d7289f4	0.059213594
138	0x3e2ff3db	0.17182867
139	0x3c131615	0.008977433
140	0xbd875c48	-0.06609398
141	0xbe435d41	-0.19078542
142	0xbd97578a	-0.073897436
143	0x3e09bad0	0.1345017
144	0xbd15454d	-0.036443044
145	0xbb9ee3dd	-0.0048489408
146	0x3e2b4c36	0.16728291
147	0xbd3b9030	-0.045791805
148	0xbd0dda87	-0.034632232
149	0xbd9e2d0a	-0.07723434
150	0xbd5bea84	-0.05369045
151	0xbbc7af2c	-0.00609388
152	0xbdf401c8	-0.11914402
153	0x3cabd198	0.020973966
154	0xbd44d638	-0.048055857
155	0x3d65e4be	0.05612635
156	0x3c6c66b3	0.014428782
157	0x3d3519ed	0.044214178
158	0xbe2577ee	-0.16159031
159	0xbe3eb6e0	-0.18624449
160	0xbe00716d	-0.12543269
161	0xbdd4b515	-0.10386101
162	0xbdcc0b5a	-0.09963103
163	0x3dd2d439	0.102943845
164	0xbde4d538	-0.11173481
165	0xbd8edab8	-0.06975311
166	0xbe20b232	-0.15692976
167	0xbe06a903	-0.1315041
168	0x3c921924	0.017834254
169	0xbe217f0d	-0.15771122
170	0xbbc313d4	-0.0059532914
171	0x3d3f8c78	0.04676482
172	0xbc86b15d	-0.016441995
173	0x3d649c04	0.05581285
174	0x3d5154ab	0.051106136
175	0x3e1831bb	0.1486272
176	0x3d079b34	0.033106998
177	0x3e363c87	0.17796527
178	0x3e0adaa2	0.13559964
179	0x3d492060	0.04910314
180	0x3d8055fa	0.06266399
181	0xbd885b88	-0.06658083
182	0xbe3e65d3	-0.1859353
183	0x3e08dfe1	0.13366653
184	0x3d3954bb	0.04524682
185	0x3e0fc2d8	0.1403917
186	0xbc360de9	-0.011111715
187	0xbd259db4	-0.0404336
188	0x3e0c25c4	0.13686281
189	0x3c03b2cb	0.008038233
190	0x3e196a22	0.14981893
191	0xbd885f1f	-0.06658768
192	0xbda559ff	-0.08073806
193	0x3b679948	0.0035339165
194	0x3dd799b5	0.10527364
195	0xbe1559d1	-0.14585043
196	0xbd5c29b9	-0.053750727
197	0x3de54764	0.11195257
198	0x3cb0805b	0.02154558
199	0x3de3c024	0.11120632
200	0xbd762621	-0.060094956
201	0xbd7a69be	-0.061136
202	0xbdcc0c91	-0.09963334
203	0xbd97e260	-0.074162245
204	0xbe18b072	-0.14911059
205	0x3d5981af	0.05310219
206	0x3ce42077	0.027847512
207	0xbe073283	-0.13202862
208	0x3e3eddf2	0.18639353
209	0x3d143386	0.03618195
210	0x3db2405a	0.0870368
211	0xbd5578d0	-0.05211717
212	0x3dcf90d1	0.101350434
213	0xbdbdc331	-0.092657454
214	0x3d9d65aa	0.076854065
215	0xbdd11f23	-0.10211017
216	0x3da8e47a	0.082467034
217	0xbdc7c09e	-0.09753536
218	0x3e33b64f	0.17550014
219	0xbd8b11c2	-0.067904964
220	0x3d81d52b	0.06339487
221	0xbdb96134	-0.09051743
222	0xbdf61869	-0.120163746
223	0xbded5ea1	-0.11590315
224	0xbcc26904	-0.023731716
225	0xbce5a505	-0.028032789
226	0x3dff6bf0	0.12471759
227	0xbba922a9	-0.0051616025
228	0x3e2936e8	0.16524851
229	0xbd8180d8	-0.06323403
230	0xbdd719a8	-0.105029404
231	0xbd8c7afa	-0.068593934
232	0xbbba1af6	-0.0056794835
233	0xbbb2b5ff	-0.0054538245
234	0x3e0985f1	0.13430001
235	0x3d47041a	0.048587896
236	0xbddc73c4	-0.10764268
237	0xbdfdb59b	-0.12388154
238	0xbd0a6b94	-0.033794
239	0xbe0fa7fb	-0.14028923
240	0x3dac0a7b	0.084004365
241	0x3e2f2279	0.17102994
242	0x3de61be2	0.11235787
243	0xbcf8766b	-0.030329904
244	0xbcd3be20	-0.025847495
245	0xbd9f847b	-0.077889405
246	0x3c7b1389	0.015324482
247	0x3e124510	0.14284158
248	0xbdd5482e	-0.10414158
249	0xbc08633b	-0.00832444
250	0xbe25ffba	-0.16210833
251	0xba0c75a2	-0.0005358105
252	0xbd4d90f7	-0.050187077
253	0xbe2dd2b2	-0.16974905
254	0x3c380634	0.011231948
255	0xbdd26365	-0.10272864

bias f4 [128]
0	0xbd02c29b	-0.03192387
1	0xbe2764a2	-0.16346982
2	0xbe1a58d1	-0.15072943
3	0xbd8cc33c	-0.068731755
4	0xbda8dbba	-0.082450345
5	0xbe33b74f	-0.17550395
6	0x3c336346	0.010948962
7	0xbdec65b1	-0.115428336
8	0x3d09012e	0.03344839
9	0xbda44872	-0.0802163
10	0x3b391e91	0.0028246979
11	0xbd1d82b7	-0.038454738
12	0x3dded039	0.10879559
13	0xbe3296f1	-0.17440392
14	0xbd9ee09f	-0.07757687
15	0x3c777958	0.015104614
16	0xbd4510f0	-0.048111856
17	0x3b4e046b	0.0031435739
18	0x3dd88dcf	0.10573923
19	0xbadc5e39	-0.0016812749
20	0xb99f0dd4	-0.00030337146
21	0x3d09831c	0.0335723
22	0xbdf80f4e	-0.12112294
23	0xbde15bdb	-0.11003848
24	0x3d9768a1	0.07393003
25	0x3cb821c8	0.022477046
26	0x3e148c58	0.14506662
27	0xbd80c8cb	-0.06288298
28	0x3e0149fa	0.12625876
29	0x3dbbbcf9	0.09166903
30	0xbd81707d	-0.063202836
31	0xbdf09883	-0.11747839
32	0x3cb151e8	0.021645501
33	0xbe1fcd05	-0.15605552
34	0xbd86f54d	-0.06589756
35	0x3c645211	0.013935582
36	0x3c063375	0.008190979
37	0x3d5d91bd	0.054094065
38	0xbdb7b881	-0.08970738
39	0x3e185ce2	0.14879182
40	0xbde5ee7d	-0.11227129
41	0xbddcf271	-0.107884295
42	0x3dcc756d	0.09983335
43	0xbd36dfc1	-0.044646982
44	0x3cf5d3ce	0.030008223
45	0xbd4219c6	-0.04738786
46	0xbe21b1f3	-0.15790538
47	0xbcc6d923	-0.02427346
48	0x3d976079	0.073914476
49	0x3de1495c	0.1100032
50	0x3e00ae3f	0.1256647
51	0xbc88e1d1	-0.01670924
52	0x3dedf090	0.11618149
53	0x3d1f1216	0.038835607
54	0xbd2d46a6	-0.042303704
55	0xbcd28de1	-0.025702419
56	0x3c060440	0.008179724
57	0x3d1401f1	0.036134664
58	0xbd3a3990	-0.045465052
59	0x3d80f4a5	0.06296662
60	0xbd5ccb15	-0.05390461
61	0xbdf6e022	-0.12054469
62	0x3c4c8b4f	0.012484386
63	0xbdab58ce	-0.083665475
64	0x3dc18cc7	0.09450679
65	0x3e07d2dd	0.13264032
66	0x3c98a1cb	0.018631836
67	0xbceb3bf7	-0.028715117
68	0xbd0a774b	-0.033805173
69	0x3db333d6	0.08750121
70	0xbe3d4b73	-0.18485813
71	0xbd55ceeb	-0.052199285
72	0xbdb2125f	-0.0869491
73	0xbe46ffa4	-0.19433457
74	0xbe03ddc9	-0.12877573
75	0xbdee7483	-0.116433166
76	0x3de7e29d	0.1132252
77	0x3db522e3	0.08844545
78	0xbe0bb4f1	-0.13643242
79	0xbe397568	-0.18111193
80	0x3df36b26	0.11885671
81	0x3d342483	0.043980133
82	0x3cfcf0f3	0.030876612
83	0x3cf2c00e	0.029632594
84	0xbd910979	-0.07081885
85	0xbde63bc4	-0.11241868
86	0x3d40ed07	0.047101047
87	0xbe47b610	-0.19503045
88	0xbe2db52b	-0.16963641
89	0x3d0fd27e	0.03511285
90	0xbd8f6027	-0.070007615
91	0x3d213ad5	0.039362747
92	0x3dd045f7	0.10169595
93	0xbe0d89c5	-0.13822086
94	0xbdce63a3	-0.10077598
95	0xbdd5673f	-0.10420083
96	0xbe228adb	-0.15873282
97	0xbbb9f5cc	-0.005675053
98	0x3e02366a	0.1271607
99	0xbc092f98	-0.008373164
100	0x3dacd8ee	0.084398136
101	0xbda493c7	-0.08035999
102	0xbc931bc6	-0.01795758
103	0xbe1c61a7	-0.15271626
104	0xbc9994c6	-0.018747699
105	0x3ca84cb7	0.020544393
106	0xbd65b290	-0.056078494
107	0x3e018e25	0.1265188
108	0x3cbd845b	0.023134401
109	0x3d97eaf8	0.074178636
110	0x3e18b858	0.14914072
111	0x3d7f9bf6	0.062404595
112	0xbcded3e6	-0.02720065
113	0x3d8235d7	0.063579254
114	0x3e1b0a19	0.1514057
115	0xbe25ac3d	-0.16178985
116	0xbc817fa5	-0.015807936
117	0x3d2d09e8	0.042245775
118	0xbd4cf149	-0.050034795
119	0xbe1ea9f2	-0.15494516
120	0xbdf038b7	-0.117295675
121	0xbdcf9cc2	-0.10137321
122	0x3d27f619	0.04100618
123	0x3da4758d	0.080302335
124	0xbcd8e7fe	-0.02647781
125	0xbe3c3897	-0.18380962
126	0xbb61ce1a	-0.0034455121
127	0xbc522c54	-0.012827951

weight f4 [32, 128]
0	0xbd33ed06	-0.043927215
1	0x3b940600	0.004517317
2	0xbdac42f2	-0.08411206
3	0x3d1c257c	0.038121685
4	0x3d879662	0.0662048
5	0x3d0eaaea	0.034830965
6	0x3ac645f1	0.0015127045
7	0x3d1ea301	0.03872967
8	0xbc5ec251	-0.013596133
9	0xbdb92be2	-0.09041573
10	0x3d8dae65	0.06918029
11	0x3d43862e	0.047735386
12	0xbaba84ac	-0.0014230213
13	0x3d8278f9	0.0637073
14	0x3d2845a2	0.041082032
15	0x3d387864	0.04503669
16	0x3cdeed20	0.02721268
17	0xbe10a31b	-0.1412472
18	0xbd3bebce	-0.045879178
19	0xbceb5304	-0.028726108
20	0x3d326568	0.04355374
21	0xbd61a8c2	-0.05509258
22	0xbb8399ab	-0.0040161214
23	0x3c6a43e7	0.014298416
24	0xbd41d2b6	-0.04732009
25	0xbd64af21	-0.05583108
26	0x3b8c91a3	0.004289822
27	0x3cf792ac	0.030221306
28	0xbd4bd589	-0.04976419
29	0xbcfbbe13	-0.030730283
30	0xbd0d4edd	-0.034499038
31	0x3ce1cfb1	0.027564855
32	0xbd831832	-0.06401099
33	0x3cd8308c	0.026390336
34	0xbd2b3741	-0.04180074
35	0xbceed36c	-0.029153548
36	0xbd086821	-0.03330243
37	0xbd8c8dad	-0.0686296
38	0x3d1fdbc5	0.039027948
39	0x3c2f2579	0.0106900865
40	0x3d8cd959	0.06877393
41	0x3d80daaf	0.062917106
42	0x3d5e7372	0.054309316
43	0x3d80feaa	0.06298573
44	0x3d3fe9c8	0.04685381
45	0x3d2a3744	0.04155661
46	0xbd95ec9a	-0.07320519
47	0x3cf84178	0.030304655
48	0x3b6b9e56	0.003595253
49	0xbca53baf	-0.02017006
50	0xbd25a558	-0.040440887
51	0x3d92c902	0.071672454
52	0x3d55dc03	0.052211773
53	0xbc4a1400	-0.01233387
54	0xbd4fafce	-0.05070477
55	0xbd7bf291	-0.061510626
56	0x3c1d9394	0.009617705
57	0xbd3daa71	-0.046305124
58	0xbe179592	-0.1480315
59	0xbcb55e21	-0.02213961
60	0xbc1382a3	-0.009003314
61	0x3d6f3a59	0.058405254
62	0x38cfc32e	9.906884e-05
63	0x3c0d93d0	0.008641198
64	0xbda14669	-0.07874758
65	0xbd91a371	-0.07111252
66	0xbd5d7b32	-0.054072566
67	0xbc724a6b	-0.01478825
68	0xbd769f63	-0.060210597
69	0xbcdc6a8f	-0.02690628
70	0xbcbc14eb	-0.022959193
71	0xbd685aa1	-0.056727055
72	0x3d541de6	0.051786326
73	0xbd0d295d	-0.034463275
74	0xbbb04876	-0.0053797318
75	0x3c918ab7	0.01776634
76	0xbd9d07cf	-0.07667505
77	0xbd8cc892	-0.06874193
78	0x3d6a5ae1	0.057215575
79	0xbd53197d	-0.05153798
80	0x3d140b4b	0.036143582
81	0xbe20cfab	-0.15704219
82	0x3d949277	0.072544985
83	0x3d89c178	0.06726354
84	0x3c46d749	0.012136289
85	0xbd691b72	-0.05691094
86	0x3dda2d5c	0.10653183
87	0xbda16a30	-0.07881582
88	0x3c9b395a	0.018948246
89	0x3d7c37f5	0.061576802
90	0x3d9c615b	0.076357566
91	0x3ca106a6	0.01965649
92	0xbc3b8249	-0.011444637
93	0x3bf148fb	0.0073634363
94	0xbda294f7	-0.07938569
95	0x3b49a15b	0.0030766341
96	0xbdb764cf	-0.089547746
97	0x3dec6f1a	0.115446284
98	0xbc77b92e	-0.015119834
99	0x3dcf5635	0.101238646
100	0xbd0bc1fe	-0.034120552
101	0x3d9b4b0b	0.07582673
102	0xbd00cda7	-0.031446125
103	0x3aa70c54	0.0012744763
104	0xbd93fbe1	-0.072257765
105	0x3d905a91	0.07048524
106	0xbcb45a9f	-0.022015868
107	0xbd2b13e9	-0.041767035
108	0x3d2c98f3	0.04213805
109	0x3ce5442b	0.027986607
110	0xbd03238c	-0.032016322
111	0x3d85b11e	0.06527923
112	0x3d4b800b	0.04968266
113	0x3c6e6396	0.01455011
114	0x3d923dae	0.07140671
115	0x3d94148b	0.07230481
116	0x3de56d42	0.1120248
117	0xbae58a66	-0.001751256
118	0x3d2f4d0f	0.0427981
119	0xbc8003f0	-0.015626878
120	0x3d2fa104	0.042878166
121	0xbe3ced46	-0.18449888
122	0xbd394222	-0.045229085
123	0x3d2ceb67	0.042216685
124	0xbd7a9ad1	-0.0611828
125	0xbd4208e2	-0.047371753
126	0xbd827389	-0.06369693
127	0x3cf7a31f	0.03022915
128	0x3bcee2c2	0.0063136527
129	0xbd9c3a24	-0.07628277
130	0x3d4a17bd	0.049339045
131	0x3bf7e6a0	0.0075653344
132	0xbd75e14d	-0.060029317
133	0x3d2cd084	0.042191043
134	0xbd7c34e2	-0.06157387
135	0x3b851887	0.004061762
136	0xbd182d2c	-0.037152454
137	0xbb62f65f	-0.0034631712
138	0xbb71a24d	-0.003687042
139	0x3d312c7b	0.04325531
140	0xbcf47d30	-0.02984485
141	0xbc53d85c	-0.012930002
142	0x3c4f29de	0.012644259
143	0x3d2747d1	0.040839974
144	0xbca313ef	-0.019906966
145	0x3c39d70c	0.011342775
146	0x3da9d42e	0.08292423
147	0xbd0855c6	-0.033284925
148	0xbd9ed50a	-0.07755478
149	0xbd8a451e	-0.06751464
150	0x3d0bef3b	0.034163695
151	0x3d422429	0.047397766
152	0x3bcae951	0.0061923643
153	0xbd89a90c	-0.06721696
154	0xbd49408b	-0.04913382
155	0xbcbb1c7b	-0.022840729
156	0x3d599f94	0.0531307
157	0x3bfc7346	0.0077041714
158	0xbd2d428e	-0.0422998
159	0xbd9d0665	-0.07667235
160	0x3d9949ec	0.074848026
161	0xbcc37be8	-0.023862794
162	0x3e0538c7	0.1300994
163	0xbd8c7834	-0.068588644
164	0xbdb26f1d	-0.087125994
165	0x3c89af90	0.016807348
166	0x3cb03c40	0.021513104
167	0x3d33da59	0.043909404
168	0x3dd8ca7c	0.10585496
169	0x3d5d069a	0.053961374
170	0xbbafdc72	-0.0053668553
171	0xbd4f6361	-0.050631884
172	0x3e24ceec	0.1609456
173	0xbdb966d7	-0.09052818
174	0x3d815847	0.06315666
175	0x3cc7707b	0.024345627
176	0xbd5db87d	-0.05413102
177	0xbbe5a11f	-0.0070077325
178	0x3b326867	0.0027222873
179	0x3c3c0859	0.0114766
180	0x3d91b349	0.07114274
181	0x3d08de46	0.0334151
182	0xbcffb9a5	-0.031216452
183	0xbcad9cce	-0.021192934
184	0x3b5f917a	0.003411381
185	0xbd274c74	-0.040844396
186	0x3da8379a	0.0821373
187	0x3c2ecfbe	0.010669647
188	0x3d413216	0.047166906
189	0x3c822069	0.015884595
190	0x3cbf8695	0.023379603
191	0xbda309ec	-0.07960877
192	0x3d33ed45	0.04392745
193	0xbcc9635c	-0.024583511
194	0x3c39e716	0.011346599
195	0x3b15638f	0.0022794937
196	0xbd81f79e	-0.06346057
197	0xbda9d1a7	-0.08291941
198	0xbc0119c4	-0.007879678
199	0xbc98c55c	-0.018648796
200	0x3cbd5d40	0.023115754
201	0xbd918730	-0.07105863
202	0x3cd9c570	0.026583403
203	0xbcf4e06d	-0.02989217
204	0xbd19e755	-0.03757413
205	0xbc8a91f7	-0.016915305
206	0x3d068fcc	0.03285198
207	0x3c3d790e	0.011564506
208	0xbd5fb7b2	-0.054618545
209	0x3d0ae770	0.033912122
210	0x3adacbc1	0.0016692803
211	0xbc8b14d2	-0.016977701
212	0x3da4db35	0.08049623
213	0x3bf641a7	0.0075151506
214	0x3d551dac	0.05203025
215	0x3d962459	0.073311515
216	0x3ad76e90	0.0016436148
217	0x3d553da9	0.052060757
218	0xba9057b9	-0.0011012472
219	0x3dc099f4	0.09404364
220	0x3c07b2c3	0.008282366
221	0x3d817459	0.0632102
222	0x3d063afc	0.032771096
223	0xbd71d59c	-0.059041604
224	0xbaf83d50	-0.0018939171
225	0xbc2f806a	-0.010711769
226	0x3c4fa089	0.012672552
227	0xbdc4c796	-0.096083805
228	0xbd82a81c	-0.063797206
229	0xbcb55156	-0.02213351
230	0x3c3c7a5f	0.011503785
231	0x3c9ae416	0.018907588
232	0x3d6ddcf2	0.058072038
233	0xbd7e7332	-0.062121578
234	0xbc33dd1c	-0.01097801
235	0xbd1abf5c	-0.03778015
236	0x3cf53dc4	0.029936679
237	0xbc52032c	-0.012818139
238	0xbd77dc89	-0.060513053
239	0xbd09822a	-0.0335714
240	0x3cfc0b49	0.0307671
241	0xbd78a10c	-0.06070046
242	0xbd5faaad	-0.05460613
243	0xbceb7be9	-0.028745608
244	0x3dd26159	0.10272474
245	0xbd8a6d0c	-0.0675908
246	0xbd8cc53f	-0.06873559
247	0x3d6d6aeb	0.057963293
248	0xbcbf4a2e	-0.023350801
249	0xbe0b60b7	-0.13611113
250	0xbcbcb0c7	-0.023033513
251	0x3cf27200	0.029595375
252	0xbd46b95f	-0.048516627
253	0xbdc46ee4	-0.09591463
254	0xbdbd3ecf	-0.092404954
255	0xbccf814e	-0.025330212

bias f4 [32]
0	0x3dbdf355	0.092749275
1	0xbc0d1f46	-0.008613413
2	0xbce4c60e	-0.027926471
3	0xbd7357ce	-0.05940991
4	0xbcdd8186	-0.0270393
5	0x3d8cc0d7	0.06872719
6	0xbd458e99	-0.048231695
7	0xbdba5cd5	-0.090997376
8	0x3cf556d8	0.029948637
9	0x3d003533	0.031300735
10	0xbd935963	-0.071947835
11	0xbd2debe8	-0.042461306
12	0x3d88d55c	0.0668132
13	0xbd1a1576	-0.037618123
14	0x3d4c3573	0.04985566
15	0xbd14e0a7	-0.036347058
16	0xbdb4904b	-0.08816584
17	0xbd9e7ce8	-0.07738668
18	0x3d725251	0.059160534
19	0x3cbf38e8	0.023342565
20	0x3cd17e2f	0.025572864
21	0x3d23a84c	0.039955422
22	0x3d122bf3	0.035686444
23	0x3d12a7de	0.035804622
24	0x3d685e12	0.056730337
25	0x3d98d024	0.07461575
26	0x3d00229e	0.031283014
27	0x3cc5f2bc	0.024163596
28	0x3c89471c	0.01675754
29	0xbd89e805	-0.06733707
30	0x3d5f53d3	0.0545233
31	0x3c33de4d	0.010978294

weight f4 [32]
0	0x3f7fe2b8	0.9995532
1	0x3f7d315e	0.98903453
2	0x3f7f350f	0.99690336
3	0x3f82f060	1.0229607
4	0x3f7db400	0.99102783
5	0x3f822912	1.0168784
6	0x3f83ffec	1.0312476
7	0x3f815707	1.0104684
8	0x3f748d55	0.95528156
9	0x3f7f3f5e	0.99706066
10	0x3f82d4b6	1.0221164
11	0x3f81fead	1.0155846
12	0x3f82bbf2	1.0213606
13	0x3f7f8eb8	0.99827147
14	0x3f82dce0	1.0223656
15	0x3f730fef	0.9494619
16	0x3f8c6ff5	1.0971667
17	0x3f74eb55	0.9567159
18	0x3f8159ac	1.0105491
19	0x3f8300de	1.023464
20	0x3f83a478	1.0284567
21	0x3f6ff7f9	0.9373775
22	0x3f797c03	0.9745485
23	0x3f677f8d	0.90429
24	0x3f8011ac	1.0005393
25	0x3f852895	1.040301
26	0x3f81fbc5	1.0154959
27	0x3f869aa0	1.0515938
28	0x3f7e6633	0.99374694
29	0x3f811618	1.0084867
30	0x3f84506d	1.0337044
31	0x3f81be4d	1.01362

bias f4 [32]
0	0x3beed369	0.0072883856
1	0xbcbbe23c	-0.022935025
2	0x3ca45299	0.020058917
3	0xbc011906	-0.007879501
4	0x3a74fcab	0.0009345512
5	0x3bfbc217	0.0076830494
6	0xbaa39385	-0.0012479877
7	0xbb812b6a	-0.003941943
8	0x3be606e4	0.0070198644
9	0x3c2b17b3	0.010442662
10	0xbc977d99	-0.018492507
11	0xbbb3e8f8	-0.0054904185
12	0xbc9c718d	-0.019097114
13	0x3b7f0272	0.003891137
14	0x3aa0804c	0.0012245267
15	0x3b8440ce	0.0040360456
16	0xbc971e94	-0.018447198
17	0x3cb157bd	0.021648282
18	0xbcc43097	-0.02394895
19	0x3ba27965	0.004958319
20	0xbc51c5de	-0.012803523
21	0x3ca25570	0.01981613
22	0xbba39b16	-0.004992853
23	0xbb9368a3	-0.0044985577
24	0xbbfbd608	-0.0076854266
25	0x3c2a2c42	0.010386528
26	0x3bdb8fa6	0.006700474
27	0x3c83cb4a	0.016088147
28	0x3c91b86c	0.017788135
29	0xbc6a9c71	-0.014319525
30	0xbb8bf0d5	-0.004270653
31	0xbd03c5f0	-0.03217119

weight f4 [32]
0	0x3f892b6d	1.0716377
1	0x3f78c55b	0.9717614
2	0x3f81307e	1.0092924
3	0x3f83f052	1.0307715
4	0x3f81ba4e	1.0134981
5	0x3f894162	1.0723078
6	0x3f839bcd	1.0281922
7	0x3f85ebdf	1.0462607
8	0x3f824415	1.0177027
9	0x3f83263a	1.0246041
10	0x3f85ad31	1.0443479
11	0x3f8554e1	1.0416528
12	0x3f8549ee	1.0413187
13	0x3f83ba40	1.0291214
14	0x3f84ec00	1.0384521
15	0x3f810490	1.0079517
16	0x3f880cbd	1.0628887
17	0x3f7f79f9	0.9979549
18	0x3f8248e7	1.0178498
19	0x3f876c4e	1.0579927
20	0x3f843b82	1.033066
21	0x3f812be0	1.0091515
22	0x3f795f97	0.97411484
23	0x3f785efa	0.9701992
24	0x3f839ef3	1.0282882
25	0x3f86441f	1.0489539
26	0x3f8831b1	1.0640165
27	0x3f81e12c	1.0146842
28	0x3f7fb2d7	0.9988226
29	0x3f8552c9	1.0415889
30	0x3f84ddc6	1.038018
31	0x3f74f0a4	0.9567969

bias f4 [32]
0	0xbc5867f0	-0.013208374
1	0xbceda328	-0.029008463
2	0x3ccfec2a	0.025381166
3	0xbc074616	-0.008256456
4	0xbc22174d	-0.009893251
5	0xbb545f66	-0.0032405495
6	0x3b8279e9	0.003981818
7	0x3d4b0a20	0.049570203
8	0x3c0d92a2	0.008640917
9	0xbaca5633	-0.0015437066
10	0xbcbe4235	-0.02322493
11	0xbb27a48f	-0.0025580262
12	0xbcaae809	-0.020862596
13	0x3cd19279	0.025582539
14	0xbbcfcdc7	-0.0063416692
15	0x3c668b5b	0.014071311
16	0xbd3e968d	-0.046530295
17	0x3b25f51a	0.0025323094
18	0x3bb9aeb1	0.005666577
19	0x3d289c5a	0.041164733
20	0xbbc9832b	-0.0061496696
21	0x3ccab677	0.02474521
22	0x3b9615a0	0.0045802146
23	0xbd76db7b	-0.060267907
24	0xbcb43c01	-0.022001268
25	0x3ca31532	0.019907568
26	0x3c12bbe7	0.008955932
27	0x3cb37f23	0.02191121
28	0x3c95b746	0.018275868
29	0x3bf5d8bd	0.007502644
30	0x3c834381	0.0160234
31	0xbd17e586	-0.037084125
