nets/tae_default.pt (torch, 241638 bytes, 42 tensors)

weight f4 [32, 5]
00000000: a468 c6bd 33c8 bd3d 92bf 96be a117 653e
00000010: 5bf9 f53e df02 85be 16c2 4e3e a5cf 733c
00000020: 84c7 943e fe3a c93d a370 083d da17 24be
00000030: 4c5a c23e 23db ad3d 495d 5ebe bdcc 933d
00000040: 6c33 9abd fe9f 86bd f844 27be 5874 aa3e
00000050: 6d79 35be 1eb2 e5bd 3963 8dbd 63bb 83be
00000060: 8ee5 a5bc 2562 46be c86b da3e bc10 eabe
00000070: 42c4 8f3e db8c 1f3d 6189 bebd 6e07 9a3e
00000080: 4c16 463a b40e b33e 6b52 3a3e a42c 21be
00000090: 7f8a 003e 205d 6fbe 00f5 253e ff50 093f
000000a0: e879 873c c52d 49be b4ee 883e c67b b93d
000000b0: 151d 723e 92ff 4bbe d2ed cfbe 0618 5fbd
000000c0: ff95 7fbe e9c5 ae3e 1a75 aa3a 6b4d 393e
000000d0: 0b97 a13d b4d2 f539 e752 e63e ed0d 18be
000000e0: 8b86 2f3e f49e a4be ebd7 093e 0820 22be
000000f0: 3d47 b7bc e6d2 07be 740b d73e ab95 82be
00000100: 7c7d c3be 4d1a 2abe 8a45 8c3e 2381 da3d
00000110: cd51 b83e f5f5 cbbe 2cdd 80be 6e7a 97be
00000120: 596e 89be 6e34 873e b5ec 783e 3b20 8d3d
00000130: 0937 84be 30f9 48be 71cc 9b3e e8a8 2dbe
00000140: cd6c 343e d679 c7bd f008 913e fe38 bebe
00000150: 0011 90be 8fc6 803c 731d 133e dbde 28be
00000160: e98a 803e 2bc2 b13e 6fc3 88be 0661 adbe
00000170: 5d4d e73e 313b 1cbe 3033 5dbe 9687 5bbe
00000180: deb8 7cbe 3cb4 4f3e 47b9 c7ba b0ba b2be
00000190: 115b c2bc a597 60bd 60a2 a4be 88a9 67be
000001a0: 17d5 e6be 5bb4 3abe cb02 a73e 693f 8f3d
000001b0: d161 b43d 203e e3be a000 0fbe e1ea 57bc
000001c0: e916 a23d 0603 c0be 771b 14be a37a 18be
000001d0: 1e7f 973d da07 0dbe 9dc5 55bd 6c7a e3be
000001e0: 10ec 88be 1b65 82be 26c3 c8bd 87d6 96be
000001f0: 9f8f cc3e db34 bcbd 7aa4 dc3e 9d81 c43d
00000200: ad89 d1be cea8 b53e 7400 62bd c94e d43d
00000210: 5aa1 97be cc5e c9be 4b48 b63d 8d60 85bd
00000220: a8ad 613e 7b18 e0be 9489 993e 7d9c 9cbe
00000230: 550e e6bd 3243 cdbd 71c5 703e c0a4 c03e
00000240: f709 ea3e 6343 01be a3b9 0d3e 6fd4 55be
00000250: 277b bbbd 9d9b c7be 9bba 883d e9cd e3be
00000260: 6074 a03e 186b 533e 0939 113e aadc 19be
00000270: 0fe6 a63e 717a 4d3d 7cdc 03bd 3d76 f4be
-0.09687927 0.092667006 -0.29443032 0.22372295 0.48041806 -0.25978753 0.20191225 0.014881049
0.29058468 0.09825705 0.033310544 -0.16024724 0.37959516 0.08489063 -0.21715273 0.07216785
-0.07529339 -0.06573485 -0.16334903 0.33291888 -0.17722102 -0.11215614 -0.06903691 -0.25728902
-0.020251062 -0.19373377 0.42660356 -0.45715892 0.2807942 0.03895269 -0.09303547 0.30083793
0.0007556423 0.34972155 0.18195502 -0.15739685 0.12552832 -0.23375368 0.16206741 0.53639215
0.016537622 -0.19646366 0.26744616 0.09056811 0.23643906 -0.19921711 -0.4061113 -0.05446627
-0.24959563 0.34135368 0.001300487 0.18095939 0.07890137 0.00046887028 0.44985124 -0.14849062
0.17141168 -0.32152522 0.13461272 -0.15832531 -0.022372836 -0.13264045 0.42000926 -0.25504813
-0.38181674 -0.16611595 0.27396804 0.10669162 0.3599991 -0.39836088 -0.2516874 -0.29585594
-0.26842 0.26407188 0.24309047 0.06890913 -0.25823238 -0.19626307 0.30429414 -0.16958964
0.17619629 -0.09740035 0.2832713 -0.37152857 -0.2813797 0.01571968 0.14366703 -0.16491263
0.2510598 0.3471845 -0.26711604 -0.33863086 0.4517621 -0.15256955 -0.21601558 -0.2143844
-0.24679896 0.20283598 -0.0015237712 -0.34908056 -0.023725064 -0.05483212 -0.32155132 -0.22623265
-0.4508445 -0.18232863 0.32619318 0.069945164 0.088077195 -0.44383335 -0.13965082 -0.013178558
0.07914526 -0.37502307 -0.14463602 -0.14890532 0.073972926 -0.13772526 -0.05219041 -0.44429338
-0.267426 -0.25467762 -0.098028466 -0.29460546 0.39953324 -0.09189769 0.43094236 0.09595034
-0.4092535 0.3548035 -0.055176213 0.103665896 -0.2961529 -0.39330137 0.089005075 -0.06512556
0.22038901 -0.43768677 0.29987776 -0.3058814 -0.11233202 -0.10022582 0.23512818 0.37625694
0.45710728 -0.12623362 0.13840346 -0.20881818 -0.09154349 -0.3898591 0.06676217 -0.44493034
0.31338787 0.20646322 0.14181913 -0.15025583 0.32597396 0.050165597 -0.032192692 -0.4774646

bias f4 [32]
00000000: b42d 883e 2d59 ddbd 9d3b 7abe b24b 023f
00000010: 5273 653e 260d ddbe 654b 97be 8c24 bfbb
00000020: 5fc2 cb3e e5bd 29be 518e b0be a44c 68be
00000030: 5fdd c5be 9253 4b3e bd8a ce3e d7f8 06bf
00000040: 56e4 3c3e 2610 8e3e 67fa 003e 82d0 40be
00000050: ff00 123e 33b3 a83e 3acc 373e 766a e7bd
00000060: 82a4 11be 321e 323d c9d1 d1bd c69a 95be
00000070: e585 bd3e 20e5 f93e 6123 3d3d 3e80 febd
0.2659737 -0.108080246 -0.24436803 0.5089675 0.22407272 -0.43174094 -0.2954971 -0.005833214
0.3979673 -0.16576345 -0.3448358 -0.22685486 -0.38645455 0.19856098 0.40340224 -0.5272345
0.18446478 0.27746695 0.12595521 -0.1882954 0.14258192 0.32949218 0.17949 -0.11299603
-0.14222911 0.043485828 -0.102450915 -0.29219645 0.37016216 0.4880762 0.046176318 -0.12426804

in_proj_weight f4 [96, 32]
00000000: 9762 8abe e72a d0bd d3c0 38bd bf8c 223e
00000010: 18c0 1bbc d9c6 393d 070d 2abd bc6b efbe
00000020: 4748 81bd 7bee a73d 013d 97be fea2 0cbe
00000030: 406e c83e 046d 763e 6e73 97be 3dd8 2e3d
00000040: a933 873e d23b b4be 5ce2 b03d bf28 f63d
00000050: 7965 4e3d 8554 5a3e aa09 edbc ba1c a83e
00000060: fcb5 ae3d 976c 513e d5b5 a03d ebde f23d
00000070: 3ae1 95be 41a0 083e 4e8c 7abe dd01 b43d
00000080: 88ba 4fbe 318f 333e 9ffc 823e 023e 8dbe
00000090: 7afa 14bc 8ead e73d ba7c 933e 3464 393e
000000a0: 0040 3e3e 2b12 39bd 5f06 8d3e 59b0 513e
000000b0: 1e3c fdbd d9ae 53be f2a7 e0bb 505a 583e
000000c0: 75c8 50be 3435 40bc 5418 a2bc 2b23 be3d
000000d0: ffb8 4cbe a255 2d3d 9ce8 a13c b07a 43be
000000e0: 4276 893c 1899 ccbd 2c25 393d 04fe 5f3e
000000f0: 6866 463d 8621 41be 3b57 a73e 41c6 f8bd
00000100: 1c28 ce3d 715b ab3d 2984 27be af13 213d
00000110: c398 24be 7ec6 5e3d 53e2 8d3d 1d33 353e
00000120: a8d5 8bbd 9b54 24be 37d6 0f3e 73c6 223e
00000130: ab96 a3be 571e 8d3d 0967 04bd 4684 cc3c
00000140: d68b 6c3d 35d8 873e f886 1abe 8b4b fb3d
00000150: 9c3c 4e3d 81b1 8bbd 2e75 193e ad62 52be
00000160: 8749 2ebb 6564 27be 15f6 d2bc 40c7 bdbc
00000170: 1644 0f3e 84ef 44be db5c 573d f71f 6cbd
00000180: 60e8 4dbe d2ed 453d 192f 023e 003d 46be
00000190: c470 b6bc 076f 863d 4b18 823e d059 0f3d
000001a0: 5117 dcbd 4bc4 f63d 9b1e 093e 0c96 a7bd
000001b0: 04c3 c0bd 85c7 843d 9233 93be 0cbe ce3d
000001c0: 5f2d 0e3d 7f2a 44be 45e7 11be dd7b 0bbe
000001d0: 8cdf a43d cf57 123e 6551 babd 8606 183e
000001e0: 2bc9 ecbd ddbb 85be 80fb 72bc 1618 993d
000001f0: 4d97 873e e30f d3bd 5435 993e 00bc f83d
00000200: 0e55 253e 2a1b 9fbe 1db5 513d b3ab ccbd
00000210: 0a88 963e b890 55bd de22 99be 200d 843c
00000220: 166f 9abd c9e4 18be e848 26be e15c 2c3d
00000230: 8b13 053e 0811 c8bd 5883 463e fd24 c53a
00000240: d86d 923d 6e99 0a3d 7e13 26be a0a6 4cbe
00000250: 67af 193d ccd5 36be 1fcc 3bbc 4a8f 703d
00000260: e095 b5bd ce15 44bd feda 743d 4152 bebc
00000270: 65a6 35be 36c8 ba3d 4144 08be ecbc 693d
00000280: a3af 5d3e 175d b1bd ba50 19be fbd7 533d
00000290: 5b35 03be 3a71 273e c70a 2d3d 698d b23e
000002a0: 5a8d 6f3d c60f 813e 8fee 383e 63e7 a8bd
000002b0: c975 a5bd a979 63be fa59 cd3d 7199 913c
000002c0: 31e5 b3be 066c a93a b2e6 8cb9 ded9 433d
000002d0: 1bdb 753c d4d5 b13d aa06 a6be 6f48 99bd
000002e0: 5622 773e 61ad ed3d 318d 06be 9803 093e
000002f0: 9b0f d0bd e3b1 56be b45f 8a3d cb13 a9be
00000300: bca1 14bd 3135 19be 45e4 8cbc fbd3 713e
00000310: 20c2 d5bd 00ac d3bd 7229 2dbd d2fe febd
00000320: 9d21 293e 22ad 633e 9056 0cbd 9ac2 1dbe
00000330: 2c2e 05be ce54 a33d b711 b13e 6263 46be
00000340: 1a9b 53be bdbe 3f3e 22f9 f23c 100b edbd
00000350: 4eb4 47bd cfe9 bdbd c235 6b3e 6a53 82bd
00000360: c4ea 433e 3441 543e 37ee 423d 4699 68bc
00000370: 51a5 043d f587 6d3e b7ef 6abe 3dfa 2c3d
00000380: ca2a 62bd 0cd3 403e 22c7 fb3d af02 2ebe
00000390: 7944 d9bd a24f 153e bbe8 7ebd 18ed efbd
000003a0: 77fe d9bc 7f86 07be e76d 183e 904b 0a3e
000003b0: 5821 ed3c 8020 763e 1d5f 1cbe 7b8c ddbd
000003c0: f184 08be ec0e 26be 0cd1 efbd d69d 17be
000003d0: a300 8dbe 7800 0d3d 9c8b 833d 957c 303e
000003e0: 6f7f f13d f772 66bd cccb 85bd b31c 05be
000003f0: 9231 023e 7f22 8cbe dc0c 533e 0f2a 213d
-0.27028343 -0.10164433 -0.045105767 0.15874003 -0.009506248 0.04535565 -0.04151633 -0.46761882
-0.06312614 0.081997834 -0.2953873 -0.13734052 0.39146614 0.24065024 -0.29580253 0.04268669
0.264066 -0.3520189 0.086369246 0.120194905 0.05038974 0.21321304 -0.028935272 0.32834417
0.085308045 0.2045158 0.07847182 0.118589245 -0.29273397 0.13342382 -0.24467584 0.08789418
-0.20286 0.17535092 0.2558336 -0.2758637 -0.009092921 0.113124 0.28806096 0.1810463
0.18579102 -0.045183342 0.27543923 0.20477428 -0.12364982 -0.20672168 -0.006855958 0.21128201
-0.20388968 -0.011731435 -0.019786991 0.092840515 -0.19992445 0.042317994 0.019764237 -0.1908977
0.016780023 -0.09990138 0.045201465 0.21874243 0.048437506 -0.18860444 0.3268374 -0.12147189
0.10066244 0.083670504 -0.16359009 0.039325412 -0.16073899 0.054388516 0.069279335 0.1769528
-0.06827861 -0.160479 0.1404656 0.15896015 -0.31950888 0.068905525 -0.032324824 0.024965417
0.057750545 0.2653214 -0.15090549 0.12270268 0.05035077 -0.068209656 0.14986107 -0.20545454
-0.0026594119 -0.16346891 -0.025752107 -0.023166299 0.13990816 -0.19231993 0.05257879 -0.05764767
-0.20108175 0.048322506 0.12713279 -0.19359207 -0.022270568 0.065641455 0.2540916 0.03499776
-0.10746635 0.12049159 0.13390581 -0.08182916 -0.09412196 0.06483368 -0.28750283 0.10094842
0.034711238 -0.19156836 -0.14248379 -0.13621469 0.08050451 0.14291309 -0.09097556 0.14846238
-0.11561807 -0.2611989 -0.01483047 0.07475297 0.2648262 -0.103057645 0.299235 0.12145233
0.16145727 -0.31075412 0.051198114 -0.099936865 0.29400665 -0.052139968 -0.29909414 0.01611954
-0.07540719 -0.14931025 -0.16238749 0.042080764 0.12995736 -0.097688735 0.19386041 0.0015040931
0.07149857 0.03383773 -0.16218373 -0.19985437 0.037520792 -0.17854995 -0.0114622405 0.0587304
-0.08866477 -0.047872357 0.05977916 -0.023232581 -0.17739256 0.091202185 -0.13307287 0.057064936
0.21649031 -0.086603336 -0.14972201 0.051719647 -0.12813322 0.16351786 0.042246606 0.34873512
0.058484413 0.25207347 0.18059753 -0.082472585 -0.08079106 -0.22214378 0.10026927 0.017773362
-0.35135797 0.001292587 -0.00026874762 0.047815196 0.015005852 0.086833626 -0.3242696 -0.07484519
0.24134192 0.11605335 -0.13139798 0.13380277 -0.101592265 -0.20966296 0.06756535 -0.33022913
-0.036287054 -0.14961697 -0.017198691 0.2361602 -0.10437417 -0.10335541 -0.042275853 -0.12450947
0.16516729 0.22234014 -0.03426224 -0.15406266 -0.13005894 0.079751596 0.34583828 -0.19373849
-0.20664635 0.18725105 0.029659811 -0.11574376 -0.048755936 -0.09273111 0.22969726 -0.06363566
0.19132525 0.20727998 0.04759046 -0.0141966995 0.03238422 0.23196395 -0.22943006 0.042230833
-0.055216588 0.18830508 0.12293841 -0.16993211 -0.10608763 0.14581159 -0.062233668 -0.11715144
-0.026610596 -0.132349 0.14885674 0.13505387 0.028946564 0.24035835 -0.15270658 -0.1081781
-0.13331963 -0.1621663 -0.117097944 -0.14806303 -0.27539548 0.034424275 0.06423113 0.17235024
0.11791884 -0.056261983 -0.06533012 -0.12999229 0.12714222 -0.27370068 0.20610374 0.03934675

in_proj_bias f4 [96]
00000000: 49c8 453d 0664 bebd 9cf0 e93b 78e9 69bd
00000010: 466f 2a3d c243 bbbd 4ee6 db3d 2b94 eebc
00000020: d18b efbd 50c0 183c 30dd 753d dbcb 4abd
00000030: 128c ecbd 0b08 93bd 45bb 1f3e c219 883c
00000040: 5af4 863b 5dc4 48bb fed8 35bb 5538 673d
00000050: ab21 f6bb 582b 8a3b 9301 4c3c 9a10 df3c
00000060: e1b0 09be 2e8b 0a3e 752d fd3d f881 cabd
00000070: 29dd ee3d 9665 dc3d 8308 0bbe e604 043e
00000080: 301b a0bb 51ac bc3a f8ef 5a3b c850 453a
00000090: c7b8 1dbb 50ae ceba 3ac6 79ba 0c0b 4e3b
000000a0: 04f4 b9ba 129d 8cb9 33bc 353b 1ace 933a
000000b0: 97a8 a63a 9782 47ba ffd9 60ba ae00 7539
000000c0: adef 9739 18d8 09b8 222c 7e39 d4db 3eba
000000d0: ce62 893a 93d9 89ba 9530 463a 3f3c b039
000000e0: 229a 03ba 9d5b e33a 69b3 823a b266 023a
000000f0: 7a34 23b9 08d3 f9b8 1bc0 4aba 7028 9bba
00000100: 443a d53c 373d 063d 3c8b d5bc 037d 3b3d
00000110: 5080 d9bb 79b4 a43c 7f70 0abd 8a7c ac3d
00000120: b6c3 c03c 575d ab3c 0a05 35bc bb33 35bd
00000130: 4629 2bbb a54d d7bc 1d84 39bc ed1a 393c
00000140: 2e38 89bc f87b 383c 9e68 913c da30 4e3c
00000150: a348 543c 5d51 01bd 3ca3 1c3c e9b8 673c
00000160: 1ba0 783d d371 80bd f7ef 513d faef 823c
00000170: a630 52bd 3849 f2bc 9a10 51bd 8e43 a13c
0.04828671 -0.09296422 0.0071392786 -0.05710742 0.041610025 -0.09143783 0.107372865 -0.029123386
-0.1169659 0.009323195 0.060025394 -0.049510818 -0.11550154 -0.071792684 0.15598781 0.016613845
0.0041184844 -0.003063462 -0.0027747746 0.056450207 -0.0075113378 0.0042165928 0.012451547 0.027229596
-0.1344638 0.13529655 0.12362186 -0.09888071 0.11663277 0.107615635 -0.13577466 0.12892494
-0.0048860535 0.0014394616 0.0033407193 0.0007526991 -0.0024066435 -0.0015768502 -0.0009528134 0.003143969
-0.0014187102 -0.00026819907 0.0027730584 0.0011276633 0.0012715039 -0.0007610707 -0.0008577406 0.00023365274
0.00028979537 -3.28646e-05 0.00024239768 -0.0007280682 0.0010481717 -0.0010517113 0.000756034 0.00033614223
-0.0005020221 0.0017346028 0.0009971681 0.0004974409 -0.0001556444 -0.00011912553 -0.00077343144 -0.0011837613
0.02602876 0.032773223 -0.026067369 0.045773517 -0.0066376105 0.020105587 -0.03379869 0.084221914
0.023530822 0.020918531 -0.011048565 -0.044238787 -0.002611713 -0.026282141 -0.011323002 0.0112979235
-0.016750421 0.011260025 0.01775008 0.012584889 0.012956771 -0.031571735 0.0095604025 0.014143207
0.060699563 -0.0627171 0.05125424 0.01598357 -0.051315926 -0.029575929 -0.051041223 0.019685533

weight f4 [32, 32]
00000000: 6a32 e2ba a459 613c 8c37 733d ad7d 2c3d
00000010: cacd 3bbe 92db b3bd a7c3 143e ca49 513d
00000020: 2c37 7f3c d451 07be 4780 15be 2e84 efbd
00000030: a949 2fbd 59bc 403d 50ad d73d cc2b 673d
00000040: 14c9 a5bd d953 12be f474 85bd 090c 143e
00000050: 0752 b43c 885e 23bc 1494 f83b c9e5 d0bd
00000060: 2c76 fdbd d225 ec3d 1ad6 96bd d9f2 c6bc
00000070: fc37 38be 7758 b63d 35b7 0f3e 63c9 263d
00000080: 73af 4dbe c599 fdbd 5ac3 82be fab0 543e
00000090: 60fe edbc 8359 733e cd61 fc3d b0d5 4c3d
000000a0: b0a5 883d 6ec1 84bd 42f5 13be b188 46be
000000b0: 069c 4e3d c5fa 23be 94ba fcbd 0008 d33b
000000c0: 6bca ffbc 1cf7 85bd c9f2 d5bd e912 cbbc
000000d0: 27ce a1bc 8326 d23d a1a1 cfbd 8853 dbbd
000000e0: 035b f5bd d763 07bd 8611 b8bd b1e0 90be
000000f0: f2db 623e 2c2b 583d 48c6 373e 69ba cf3c
00000100: ffb8 ce3d fffb 9dbd f6b1 f23d 6e56 93bd
00000110: 52a7 a13d 0e34 4d3e fadd 5ebc 4edf ed3d
00000120: 8696 6fbc 30a3 61bd 384c 183e b4b5 66be
00000130: 3b82 d63d b2df fe3d 1af7 b63d d5b6 293d
00000140: e0b1 cabd 21e1 b4bd 7b14 fe3c 24a9 48be
00000150: 3628 60bd e9f2 b7bd 63d9 94bd 0339 c6bd
00000160: 5c51 8abd eeae 5fbd f941 22be febc 0e3e
00000170: 4fee 2a3e d7a9 eebb bc86 1ebd 46c7 1dbd
00000180: 9459 d6bd 8d3f 43be 676d 413c f1c0 8dbc
00000190: 965a abbd cd56 ea3c 50fd 03be 0ff2 21bd
000001a0: dc28 07ba 18bd 60bd e8e7 e0bd e0d1 fbbc
000001b0: 291c 3dbe 3d9e 093e 0cc4 50bc f117 d73c
000001c0: 2355 99bd a16a d7bc 8734 093e cdf3 d23d
000001d0: 7edb 05be df8d 2b3d 24b1 393e 0238 173d
000001e0: 823c 2a3e 8b94 b23d ad90 4a3d 2fc2 0d3d
000001f0: a0bf 4abe 691f 8fbd bb6d b93d afdf ea3d
00000200: 199b 8cbc 9a42 69be aa4f aebc 4fa5 5dbe
00000210: e7b7 60bd 09d5 00be 0de4 91bb 7015 9a3b
00000220: 5ed9 40be 20c8 72be 8ec6 653d 2992 9fbd
00000230: e718 1abd f4e5 453e d671 273d cbde 2fbe
00000240: 2303 afbd 7233 01bd ff03 a1bd 957a 6abd
00000250: 1201 16be a98f 32be 26e7 883e 14c9 96bd
00000260: 9067 afbd 5936 2fbd b0d5 033e 4f0d f73d
00000270: ed92 f13c 5360 53bb e6d0 5abe 4a7f 193d
00000280: 0f80 563c c283 343c 2546 c8bd a01c f83d
00000290: 682e 00be b3f6 e7bd 28b6 9bbd 4964 d2bb
000002a0: d675 a53d 515d 92bc 0125 9e3b b7be dbbd
000002b0: 19f1 f2bd 643a c0bc b55c 283e 5e38 a73d
000002c0: 0825 57bc 0550 21bd e6ee 2ebe 9281 0fbe
000002d0: 7b0b 873c 6533 063e ad26 a33d d1a4 2cbe
000002e0: 01dd ec3d 215d 83bd a68b 8f3c b122 0a3e
000002f0: 4002 283d 9419 323e 2e9f 1abe d754 98bd
00000300: 7b67 963d f83d 4abd 7167 1cbd f64b a2bd
00000310: 1e1f e63d 7497 b63d 4419 8c3d d2b8 7bbd
00000320: 996c b4bd e0c2 3e3d 5f43 9b3c 6599 bcbd
00000330: cbdc 93bc 6ce5 4b3d fb02 00bd 0989 b63d
00000340: a37e 9abd df81 23be 87a0 dcbd 0e7b c9bd
00000350: 111a 8ebd c2eb 223c 7d41 37bd c64e 4fbd
00000360: 9ec0 d33d 28ee 0b3e f642 893d 138d c0bd
00000370: 8639 cd3b 6549 903d 2ee0 8bbd 5f0d 1abe
00000380: 2178 90bc 198f f7bd 902c 37bd 83bc 893d
00000390: 5489 013e 9dc5 0ebd f989 a3bd efb4 6fbe
000003a0: a71b 1cbd f931 42bd 071a 183d 10b4 373d
000003b0: 339c 2cbd 7a9b 593d 2143 bbbc 9381 b33c
000003c0: 6cb5 943c 2b12 dbbd 01d6 dbbd 43c0 c63c
000003d0: 8baf 45bd 23da a23d eb9a 13bd 0fde d33d
000003e0: 7193 233e 2b76 cfbd f9a0 debd 4ac6 183e
000003f0: 77ed f23d fdc8 18be 42b0 4fbc 3d29 42be
-0.0017257456 0.013754282 0.059379146 0.04211204 -0.18340221 -0.08782114 0.1452776 0.05109576
0.015577119 -0.13214809 -0.14599715 -0.11695133 -0.042794857 0.047054622 0.105311036 0.056438252
-0.08094993 -0.14289798 -0.06516448 0.14457716 0.02201177 -0.0099712685 0.0075860117 -0.10200078
-0.12376055 0.11530651 -0.073650554 -0.02428572 -0.17990106 0.08903592 0.14034732 0.0407194
-0.2008646 -0.12382845 -0.25539666 0.20770636 -0.02905196 0.23764615 0.123233415 0.050008476
0.066722274 -0.06482206 -0.14449027 -0.19388081 0.050441764 -0.1601363 -0.123402745 0.0064401627
-0.03122445 -0.06541273 -0.10446698 -0.02478929 -0.019751621 0.10261252 -0.1013825 -0.10709292
-0.1198025 -0.0330542 -0.08987717 -0.28296426 0.22154215 0.052775547 0.17946732 0.025357442
0.10093879 -0.0771408 0.118503496 -0.071942195 0.07893242 0.20039389 -0.013602728 0.116148576
-0.01462329 -0.05508727 0.14872825 -0.22530252 0.10474058 0.1244501 0.0893385 0.041434128
-0.09897208 -0.088320024 0.031015625 -0.19595772 -0.05472585 -0.08981878 -0.07268026 -0.09678843
-0.06753799 -0.054610185 -0.15845479 0.13939282 0.1669247 -0.00728343 -0.03870271 -0.03852012
-0.104663044 -0.19067211 0.011805869 -0.017303916 -0.08366887 0.028605843 -0.128896 -0.039537486
-0.000515593 -0.054867834 -0.109817326 -0.030739725 -0.18467773 0.1343927 -0.012742054 0.026256533
-0.07486942 -0.026295962 0.13398944 0.103004076 -0.13072011 0.041883346 0.1813398 0.036918648
0.16624644 0.087197386 0.04945438 0.034609016 -0.19799662 -0.06988413 0.090541326 0.114684455
-0.0171638 -0.22779313 -0.021278221 -0.21645091 -0.054862883 -0.12581266 -0.0044522346 0.0047022626
-0.18832919 -0.23709154 0.05609756 -0.0779155 -0.037621405 0.19326001 0.040880047 -0.17174833
-0.0854552 -0.031543203 -0.0786209 -0.05724581 -0.14648846 -0.17437615 0.26738852 -0.07362571
-0.08564675 -0.04277644 0.12874484 0.12063085 0.029489005 -0.0032253459 -0.21368751 0.037474908
0.013092055 0.011017742 -0.09779004 0.12114835 -0.12517703 -0.11326351 -0.07603103 -0.0064206463
0.08079116 -0.017866762 0.0048261886 -0.10729735 -0.11862392 -0.023465343 0.16441615 0.08165048
-0.0131313875 -0.039382953 -0.1708332 -0.14014271 0.016484967 0.13105543 0.07966361 -0.16859747
0.11565591 -0.06414247 0.017522644 0.13489796 0.04101777 0.1739257 -0.15099785 -0.07438057
0.07343956 -0.049375504 -0.038184587 -0.07924645 0.11236404 0.08915606 0.068407565 -0.061455555
-0.08809776 0.046572566 0.018953023 -0.09208945 -0.018049618 0.04977934 -0.031252842 0.08912856
-0.07543685 -0.1596751 -0.10772806 -0.09837924 -0.069385655 0.009943904 -0.04474019 -0.050612234
0.10339473 0.13665068 0.06702225 -0.09401908 0.006262961 0.07045249 -0.06829868 -0.15044163
-0.017635407 -0.120878406 -0.044720232 0.06725409 0.12650043 -0.034856427 -0.079853006 -0.23408864
-0.03811231 -0.04741094 0.037134197 0.044849455 -0.04214115 0.05312679 -0.022859158 0.021912372
0.018152915 -0.10696825 -0.107341774 0.0242616 -0.048263114 0.079517625 -0.036036413 0.10345089
0.15974213 -0.101299606 -0.10870547 0.14919391 0.11861699 -0.14920421 -0.0126763005 -0.18961044

bias f4 [32]
00000000: 5555 673c d166 c4bc f92c 4cbc aacc 0a3c
00000010: dd8a 443c 5e28 d3bc 63e9 e1bc a501 13bd
00000020: 9be6 a73c 537a 6bbc 7238 47bc dd7f 9e3c
00000030: 9f62 443b 349a e73c 7aab b5bc 5b33 d9bc
00000040: 3827 d83b 8233 d63c ae08 983a 53d9 a43b
00000050: 8a99 94bb 34d9 173d a460 723c 9670 863b
00000060: 31e5 26bd 537f 5f3b b942 8f3c 7f27 c1bc
00000070: bdc7 c83b 660a 903c 807c bc3b d658 ccbb
0.014119466 -0.023974808 -0.012461894 0.008471647 0.011995998 -0.025776085 -0.027577108 -0.03589024
0.020495703 -0.014372426 -0.012159454 0.01934808 0.002996601 0.028271772 -0.022176493 -0.026513746
0.006596472 0.026147608 0.0011599266 0.00503079 -0.004534905 0.037072375 0.014793549 0.0041027768
-0.040745918 0.003410299 0.01748787 -0.023578404 0.0061273263 0.017583083 0.0057521462 -0.006236176

weight f4 [128, 32]
00000000: d213 d8bd 7a79 7e3e ee2c cdbd 1276 4c3d
00000010: c847 d53c a543 ee3d f154 9e3c 667a 23be
00000020: 105e babc b1c0 1c3e 2c42 7dbc 6345 c4bd
00000030: 02f7 36be 4170 bdbd 5c67 ffbd 6da3 a0ba
00000040: e2a3 e83d fcd0 503e 7b8f bc3d 3724 f0ba
00000050: 4471 f33d 5843 063e f5b0 5cbe 9c51 863d
00000060: 6c11 ebbd 5564 403e 3c3a e2bd bee4 303d
00000070: fd9d b7bb b1d3 fd3d a63c a63c 1138 3bbe
00000080: 4c6e 973c b4c4 423d 577b 2dbd ac74 59be
00000090: 001d 0dbe 5d1e 9a3d 3626 8bbb 6468 aebc
000000a0: 728e 87bd 3147 b8bd f71d 013e 66ea 563c
000000b0: e897 84bc aa4d 863b 8dcb 55be e779 f0bc
000000c0: 1432 0bbe f345 d0bc 7a5f 49be 15c9 ba3d
000000d0: 5f22 fe3d 4665 06bd 59aa d1bd 3ec6 a3bd
000000e0: 4a5a c73b b843 703d 966b 8ebd 8c34 3a3e
000000f0: e095 333d 6e46 43be 0f8f b4bd 0916 233d
00000100: d6b3 d0bd 5694 f43c 9228 e13d 8615 bdbd
00000110: cf4a 013d 2833 97be 8548 4ebd 060a 2abd
00000120: fe3f 663e 5733 2b3e d513 ed3c d773 2c3e
00000130: b74d d0bd a514 39bd 17af 34be 6d7c 713d
00000140: acc9 95bd 7c76 a23d b3ef 333e b6dd 4f3e
00000150: c251 25bc 90cb 833d c344 5ebd 85ef 15bd
00000160: 5309 2f3d c55b c73c 9ed3 c83d 51c4 16be
00000170: 35c0 d33d 8590 6cbe 3a14 3bbd 878a 8cbd
00000180: 27b0 65be 974c efbd 4d70 12be d817 c33c
00000190: 227d 053d 66e3 3cbd 73f5 6cbd f299 1abe
000001a0: 757c 91be b4e2 92bd ae61 4abe 83bc 413e
000001b0: 7146 293e 1e15 cebd e084 a5be 0491 133e
000001c0: 046d f93c ecf9 3abe f7be 963d c435 db3c
000001d0: 36e5 debd 62e9 a73d 17f1 23bd 94a6 1c3d
000001e0: 84f0 013e c649 fbbd 5fdd c43d c9ba 4e3e
000001f0: 9420 60be e461 f6bd 631e 46be 2b36 e53d
00000200: 2c43 20be 0ddc 2bbe d385 1bbe 3c09 4ebe
00000210: 2a3a e6bd c55d 363e 5242 863d 993f 1d3e
00000220: 90ff 05be 57ae 0cbd 771b 4dbd 0832 373d
00000230: 8fb3 bfbd 4e71 76bc 9e83 f5bd dcc9 773d
00000240: d6a2 f73d 98cd 83bb c6b8 c63d 6984 0cbe
00000250: 9ce1 0c3c d58d 10be dafb adbb e1fd 2bbd
00000260: 53af 71bd 7f8d 43be 0a4c bbbc 1d07 853d
00000270: 08ee 92bd 5924 40be 4b1d 023e 2d94 f63d
00000280: a2c1 b0bd 7e7d 4dbc 3188 e73d 75bc dabd
00000290: 2a09 22be 5e0e 763e ff84 2e3c a672 8e3d
000002a0: 32f1 bbbd 6531 023c 30fc 2b3e b2bf 88bc
000002b0: b477 33bd b3d5 36be 19e3 bebd 579d 183e
000002c0: c9b4 14be 6f8a 78b9 87a3 b0bd d51f 18be
000002d0: 8d4f 89bd f23e 80bd fbaf d8bd 9f14 163d
000002e0: d3c5 49be 6416 b83d 07cd d8bc e77a 673d
000002f0: 0df3 45bc 4ab7 d4bb d050 debd fedc 0bbe
00000300: 1817 1fbe 7a8d eabd 2761 01be bbc9 f63d
00000310: 9c99 4ebe 2659 4dbd 1f22 f7bd 479a e8bd
00000320: 08c5 bcbc 01eb ddbd 2bc2 17bc a650 113e
00000330: 6c45 33bd 8d50 b73d 88ef 10bd fb92 e83d
00000340: 169d c2bd d263 273e 30dc 403e 49e9 003e
00000350: 9dc0 503d 1ae0 d7bd e96a d1bd 0dac 113e
00000360: 2d29 b43d dcf1 543e 97f3 b1bc a055 203b
00000370: 3a69 1f3e 81cd 3d3d d6e8 933d 945a 9bbd
00000380: b474 29be f30b 75bd e108 1b3e f1a3 d3bd
00000390: ed9d f8bc 3d8d 8a3d ed8f f33c 6835 fe3c
000003a0: ed11 f7bc 425b e5bd 75aa d5bd 78bf 8fbd
000003b0: 5920 d7bd 2c58 b03d af07 573d 06c1 eabd
000003c0: 70ba 5d3e 088c 4a3d 48d2 013e 5c7e 33bc
000003d0: 401a d33d 9c9b 16be 85eb 363e 1ed8 18bd
000003e0: e798 953d 8225 84bd faef 243e 3c0c 33be
000003f0: 97b0 9cbd 1c87 94bd ea4d 13be db1b dfbd
-0.105506554 0.24851027 -0.10018335 0.049917288 0.026035205 0.11633996 0.019327613 -0.1596466
-0.02274993 0.15307881 -0.015457671 -0.09583547 -0.17867664 -0.09249926 -0.12470886 -0.0012255736
0.11359383 0.20392221 0.09207054 -0.001832134 0.11886838 0.13111627 -0.21551879 0.065585345
-0.11477932 0.18788274 -0.110462636 0.043186896 -0.0056035505 0.123938926 0.020292591 -0.18283106
0.01848521 0.047550872 -0.042353954 -0.21235913 -0.13780594 0.075253226 -0.0042464985 -0.021290012
-0.06618966 -0.08997954 0.12609087 0.013117408 -0.016185716 0.0040986137 -0.2087843 -0.029355003
-0.13593322 -0.02542398 -0.19665328 0.091203846 0.124088995 -0.032811426 -0.10237569 -0.07996796
0.0060837613 0.05865833 -0.06954114 0.18184108 0.043844104 -0.19069836 -0.08816349 0.039815936
-0.10190551 0.029855888 0.10994066 -0.09232621 0.031565484 -0.29531217 -0.05036213 -0.041513465
0.22485349 0.16718803 0.02894012 0.16841064 -0.10171073 -0.045185704 -0.17644916 0.058956552
-0.073138565 0.07932755 0.17571907 0.2029942 -0.010090293 0.06435311 -0.054264795 -0.036605377
0.0427335 0.024335751 0.09805988 -0.14723326 0.10339395 -0.23102005 -0.045673586 -0.068623595
-0.22430478 -0.1168453 -0.14300652 0.02381508 0.03259004 -0.0461153 -0.057851266 -0.15097788
-0.28415266 -0.071721464 -0.19763824 0.18919568 0.16530778 -0.100626215 -0.32327938 0.14410788
0.03044749 -0.182594 0.073606424 0.026759036 -0.10883562 0.08198811 -0.040024843 0.0382448
0.12689406 -0.122699305 0.09612536 0.2018844 -0.21887428 -0.1203039 -0.19347529 0.11191972
-0.15650624 -0.16783161 -0.15187769 -0.2012071 -0.11241563 0.17809208 0.06555618 0.15356292
-0.1308577 -0.03434595 -0.05007502 0.044725448 -0.0936042 -0.015041662 -0.119879946 0.060495242
0.12091605 -0.0040223114 0.097032115 -0.13722385 0.008598711 -0.14116605 -0.005309564 -0.041990165
-0.059005093 -0.19096945 -0.022863407 0.064954974 -0.07174307 -0.18763866 0.12706487 0.12039981
-0.086306825 -0.012542127 0.11305273 -0.106804766 -0.15823808 0.24028918 0.010651826 0.06955461
-0.09176864 0.007946347 0.1679542 -0.01669297 -0.04381533 -0.17854957 -0.09320659 0.1490377
-0.14522089 -0.00023702694 -0.0862494 -0.14855893 -0.06704626 -0.06262006 -0.105804406 0.03664076
-0.1970437 0.08988646 -0.026464952 0.056513693 -0.012081874 -0.0064915763 -0.108552575 -0.1365852
-0.15536153 -0.11452766 -0.12634717 0.12050196 -0.20175785 -0.050133847 -0.12067055 -0.11357551
-0.02304317 -0.10835839 -0.009262602 0.14190921 -0.043767378 0.08950911 -0.035384685 0.11356159
-0.09502618 0.16346672 0.18833995 0.12588991 0.05096494 -0.10540791 -0.102254696 0.14225788
0.08796916 0.20795387 -0.021722598 0.00244651 0.15567484 0.046338562 0.07222144 -0.07585636
-0.16548425 -0.05982585 0.15140106 -0.10334004 -0.030348742 0.0676522 0.029731715 0.031031325
-0.030159915 -0.11199047 -0.10432903 -0.07018942 -0.10504217 0.086105675 0.052497562 -0.114625975
0.21653152 0.04944995 0.12677872 -0.010955419 0.10307741 -0.14707798 0.17863281 -0.03731548
0.073045544 -0.064524665 0.16107169 -0.17485136 -0.07650869 -0.072523326 -0.1438519 -0.10893985

bias f4 [128]
00000000: 7833 41be 9274 173d 937f 8a3d b6f3 e6bd
00000010: bddf babd 5229 1ebe 4346 423d 9818 aabd
00000020: 8866 edbd 3340 2d3d a275 d63d 62b6 8f3d
00000030: 2929 5c3d 0c50 5d3d 9c11 e13c 0102 153d
00000040: c86f 83bd 7859 35be 992d c2bc 20bd c2bd
00000050: a66f ee3c d212 2bbe e608 40be 8e1f 61bd
00000060: 238a 9f3d d51d 0cbe 5fd8 bbbd 63a1 e6bc
00000070: 0225 2abe fa98 f33a 634a c73d c504 ce3c
00000080: 275c b6bd 7c3f 2cbe 9e5b 38be 60de a4bd
00000090: 7cef aabd c098 10be 7279 72bc 7432 8dbd
000000a0: 4616 83bc a767 f3bd b2b0 0cbd 5292 a9bd
000000b0: 7ebf 1e3d d1ae 59be b9cb a6bd 2880 93bb
000000c0: e13b 1bbd 3903 8cbc 2bf9 953d 3cbb 30bb
000000d0: f69b c7bc e1fb 38bb a944 1bbe 4565 13be
000000e0: 43fd 933d d6b2 133d 66b9 db3d 5338 3bbd
000000f0: f010 0d3e 7c25 a83d bd81 16bd f9fa fbbd
00000100: 3e9c f4bc a47d 1abe 1723 17be f9ac 93bc
00000110: 1bb0 22bd 4cbe 8f3c bd10 debd 0654 453d
00000120: 1492 19be 4e4f cfbd 0426 af3d 2e58 29bd
00000130: 80fc 7c3d ae15 9fbd d014 41be 8d43 33bd
00000140: 72d4 2c3d f6e2 0f3c b61d dd3d 8710 63bd
00000150: df30 793d 48f5 f3bc f68c 4ebd 71e1 fabc
00000160: 8d47 0bbd 9266 5d3d 8609 60bd 60cd ba3d
00000170: e743 97bd d97c 33be 510c b7bc 5644 ffbd
00000180: 70bb ca3d debd ea3d 55ee bfbc 2dc8 aabd
00000190: 056f 5fbd 0a7c 813d ae02 18be c183 fcbd
000001a0: 1f13 c5bd 7344 2bbe 799d 20be dcd4 2ebe
000001b0: 171a f93d 6d9a 0f3c da7b 14be 636e 38be
000001c0: e682 c83d e4d2 0c3d c081 513d 99cd 59bd
000001d0: 269e f7bd a64c 51be b0ca 663d fa23 3bbe
000001e0: fbf3 4ebe 9cf2 36bc 81dd b1bd 3d6f b0bb
000001f0: f26b 483d 8b8c 29be 6362 49be e03b 73bd
-0.1886729 0.036976404 0.06762614 -0.11276953 -0.09124706 -0.1544545 0.047430288 -0.08305472
-0.11591822 0.042297553 0.104716554 0.07017209 0.05375019 0.054031417 0.027474217 0.036378864
-0.06417805 -0.17709911 -0.023703383 -0.09508729 0.029105972 -0.16706398 -0.18753394 -0.054961734
0.07790019 -0.13683255 -0.09172129 -0.028153127 -0.1661568 0.0018585019 0.09730985 0.025148759
-0.089042954 -0.16821092 -0.18003699 -0.08050227 -0.08346459 -0.1412077 -0.014799463 -0.06894389
-0.016001832 -0.118850045 -0.034348197 -0.082798615 0.03875684 -0.21258093 -0.08144326 -0.0045013614
-0.0378989 -0.01709138 0.07322916 -0.002696707 -0.02436636 -0.0028226303 -0.1516291 -0.143941
0.0722604 0.036059223 0.10728721 -0.04570801 0.13775992 0.082102746 -0.03674482 -0.123037286
-0.029859658 -0.1508699 -0.1475948 -0.018026816 -0.03971873 0.017546795 -0.10843036 0.048175834
-0.1499713 -0.10122548 0.08552173 -0.04134386 0.06176424 -0.07767807 -0.18855596 -0.043765593
0.04219479 0.008782139 0.107966825 -0.055435684 0.060837623 -0.029780045 -0.0504274 -0.030625077
-0.034003783 0.054052897 -0.054696582 0.091212034 -0.07385998 -0.17528094 -0.02234474 -0.12464206
0.09899032 0.114619955 -0.023429075 -0.08338962 -0.054549236 0.06322487 -0.14844772 -0.123298176
-0.09622788 -0.1672533 -0.15685071 -0.17073387 0.12163179 0.008764845 -0.1450037 -0.18010859
0.09790592 0.03438081 0.05114913 -0.05317459 -0.12090711 -0.20439395 0.05634564 -0.18275443
-0.20210259 -0.011166241 -0.08684827 -0.0053843544 0.04893107 -0.16557519 -0.19666438 -0.059383273

weight f4 [32, 128]
00000000: 8e02 47bb 549b 53bd a2ac 8f3d 0321 923c
00000010: dfc5 543d 89b7 9abd be71 b23c d83a e1bd
00000020: 6744 0abd 8801 94bc d563 99bc 725f d43d
00000030: d896 943c b4da 203d aaac 953d 1697 243d
00000040: d617 e6bc 7f7d ce3d 566f e03d 883a 43bd
00000050: 162a b63c a43c 52bc 5735 f7bc 730d 3cbd
00000060: c2f8 07be 8f36 d5bd fb35 a03d 72f3 903d
00000070: 5dae e53d fa67 4dbd 4d7b ab3c c50c 873c
00000080: 56f1 20bd d4a6 163b 07c9 153c ce12 05bc
00000090: 9ed9 173d bda5 203e 788b 1f3a 936f c13d
000000a0: 916a 00bc a805 87bd 66e3 843d b6fd be3d
000000b0: 930f 513d 7b2f 7f3d a1ec 473c 1c9d 0e3d
000000c0: 5ec7 d2bb 619f b8bd e4da 1fbd f429 ae3c
000000d0: f179 133d 7537 acbd d143 f0bc 9295 283d
000000e0: 9764 04bd 3c25 5cbc 5b27 3cbd 6c4d d73b
000000f0: e2a4 8abd f60f b63a e324 1abd c8ec 393c
00000100: 0069 02bd 163f 29bc 2ab4 7f3b d180 83bc
00000110: 9730 15bd 1a28 f1bd 23a6 81bc 7087 6f3c
00000120: 7d4d 7c3d 99b9 503d c09a b53d 89cf a1bc
00000130: d95d 98bc 5d2b 42bd ae68 d4bc 4239 dfbb
00000140: b191 b33c 6de9 5cbd 4ef1 5ebd 34d9 f93d
00000150: b508 643d df31 c1bb e1c8 14bd 9299 97bd
00000160: 257b a83d 87f9 0ebd 6af2 10bd 3e6e 41bd
00000170: 57bd 443c 7d92 883d 739c e83c 90f0 febc
00000180: 3a13 9abd c4ed 66bd 67c6 c2bc 3eb7 b8bc
00000190: 182f 19bd 0310 a4bd 9973 bdbd 3a2c 9abd
000001a0: 11bf 543d 1628 68bc 62f1 debc aa19 9ebc
000001b0: 4293 40bd cfd2 02bd 4d69 e13d 528d ae3a
000001c0: 934d db3d 97ce 6fbc 8ce4 993d 2185 953d
000001d0: 7842 113d 70f8 0abd aca1 7b3d 5a49 2cbd
000001e0: 4936 42bc 7b01 903d 55dd 6c3d 6fc3 8bbc
000001f0: 5fa9 cdbc 10d4 4d3d 1ef6 83bd d7d8 343c
00000200: 2843 44be d496 953d 9852 beba 9a9a e23c
00000210: 3f66 19bd acf3 193e c44f f73b fdb3 1ebb
00000220: 3901 95bd 1982 8e3d 60ad 553b 8f6e e5bd
00000230: b298 fc3c 6448 ba3c 267e 133c b364 73bd
00000240: 9bb4 6c3c fb16 30bd 6ed1 603d bd9e 3a3d
00000250: 1610 11ba fe1c 3e3b bb33 523d eb69 73bd
00000260: 75f3 223d aef5 0d3c f255 02bd d03e f7bd
00000270: a905 7c3d 5d65 62bd 35d5 87bc 375a 9c3c
00000280: 2dd8 83bd d310 b7bd 7087 6c3c f4ab bcbc
00000290: af52 cdbd 120a 72bd 841b 02bd 2bdf a4bd
000002a0: 0fda 77bd 65d6 c6bb 1bd7 623c 8e4b 6f3d
000002b0: 0c38 83bc 3d2d 1cbd b16e 51bd 508e fd3c
000002c0: 83fd 10bd bb32 9a3d cbdd c03d 3cbb 69bd
000002d0: 82e3 b3bd f335 03be 3a52 84bc 282e 023d
000002e0: 65df bf3a f0f3 b2bd db69 cabd cff8 74bd
000002f0: 10f0 993c 6842 d13d 7b91 89bd e211 a6bd
00000300: 514c 893d cb6c 3e3d b7d8 763d aff0 74bd
00000310: f4ce debd 7969 5b3d abb0 ac3d f90b cd3c
00000320: 6118 8e3d e3a0 c33d 2f87 653d 102f efbd
00000330: d708 b73d a6ef 3dbe 5821 eb3b 7e50 2ebd
00000340: 7415 4ebd ddcb 863d e680 5dbd 0aee 0b3e
00000350: 0838 2d3c fe4a b73c 450c e7bd 5d80 043e
00000360: 915f 1f3d 8d63 0dbe 40a8 4b3d dc13 a93d
00000370: 3bee 863d c707 803d 853a 943d 7e79 cfbc
00000380: f5ae acbb 4ea3 dabc f26f 9fba babc 62bd
00000390: d15b e6bd ef0e 95bd 78a2 d1bc 3dd4 cb3c
000003a0: 1084 8f3d a53e 62bd 094c dabc 3339 e93c
000003b0: 0f7f 8bbd 3479 12bc 7a0d 08be 5c77 88bd
000003c0: 62bd 8a3c 50e9 d5bd 5754 95bd 5549 26bd
000003d0: 21e9 703d a8eb d23d 5806 323d 37e5 5fbd
000003e0: bfee 583d b6dd 2e3d 8545 2dbc 705f ae3c
000003f0: a39f 853c 525b 08bc fba3 e1bb 5970 a7be
-0.0030366513 -0.051661804 0.07015349 0.017838007 0.051946517 -0.07554538 0.021782752 -0.10997552
-0.03375664 -0.018067136 -0.018724361 0.10369767 0.018138334 0.03927107 0.07308324 0.04018315
-0.028087538 0.1008253 0.10958736 -0.04766324 0.022236865 -0.012831841 -0.030176802 -0.045911264
-0.13278487 -0.10410797 0.07822796 0.070776835 0.11214898 -0.050147988 0.020932818 0.016485581
-0.039292656 0.002298762 0.009142167 -0.008122159 0.03707277 0.15688224 0.0006086151 0.09445109
-0.007837907 -0.06592876 0.06488685 0.09325735 0.051040243 0.06230114 0.012202413 0.0348178
-0.006432458 -0.09014774 -0.03902711 0.02126024 0.036004964 -0.08409015 -0.029329212 0.041158266
-0.032322492 -0.013436612 -0.04593597 0.0065705087 -0.0676973 0.0013890255 -0.037632834 0.011347957
-0.031838417 -0.010329982 0.0039017298 -0.016052635 -0.036423292 -0.11775227 -0.01582629 0.014619693
0.061597336 0.05095825 0.08867407 -0.01975228 -0.018599438 -0.047404636 -0.025928821 -0.0068122456
0.021920057 -0.05393355 -0.054429345 0.12199631 0.055672366 -0.0058958377 -0.036324386 -0.07402338
0.08226613 -0.034905937 -0.035387434 -0.047224276 0.012008033 0.066685654 0.028394913 -0.031120569
-0.075231984 -0.056379095 -0.023776246 -0.022548314 -0.037398428 -0.080108665 -0.09250564 -0.07527967
0.051940028 -0.0141697135 -0.02721471 -0.019299347 -0.047015436 -0.031939324 0.11006413 0.0013317263
0.107081555 -0.014636657 0.07514295 0.07300783 0.03546378 -0.033928335 0.06143348 -0.04206214
-0.011853763 0.070315324 0.057828266 -0.017060963 -0.025105176 0.050251067 -0.064434275 0.011038027
-0.19166243 0.07304159 -0.0014520464 0.02766161 -0.037451025 0.1503436 0.0075473506 -0.0024216168
-0.07275624 0.06958408 0.003260456 -0.11202728 0.03083453 0.022739597 0.009002244 -0.059422206
0.014447357 -0.042990666 0.054887228 0.04556154 -0.0005533708 0.002900898 0.051318865 -0.059427183
0.03978296 0.008664532 -0.031820245 -0.120725274 0.061528835 -0.05527245 -0.016581157 0.019085987
-0.06437717 -0.08938756 0.014436588 -0.023031212 -0.10025536 -0.059091635 -0.031764522 -0.080503784
-0.06051069 -0.0060680383 0.01384523 0.058421664 -0.016017936 -0.03812908 -0.051130954 0.030951649
-0.035398018 0.07529207 0.09417304 -0.057063326 -0.08783628 -0.12813549 -0.01615249 0.0317823
0.001463872 -0.08737934 -0.098834716 -0.059807595 0.018791229 0.10217744 -0.06717201 -0.081088796
0.06704009 0.04649047 0.06026527 -0.059799846 -0.10879317 0.053567383 0.08432134 0.025030123
0.06938244 0.09552171 0.056037124 -0.11678898 0.08937233 -0.1854845 0.0071756057 -0.042557232
-0.050313428 0.065818526 -0.054078005 0.13665023 0.010572441 0.022374626 -0.11281637 0.12939592
0.0389095 -0.13807507 0.049721003 0.08255741 0.065884076 0.062514834 0.07237724 -0.025326487
-0.00526988 -0.026689198 -0.00121641 -0.055355765 -0.11247981 -0.07278239 -0.025590166 0.024881477
0.07007611 -0.055235524 -0.026647585 0.028469658 -0.06811344 -0.00894003 -0.13286391 -0.06663391
0.016936008 -0.104448915 -0.07291477 -0.04059728 0.05881608 0.10298854 0.04346308 -0.054661956
0.05296206 0.04269191 -0.010575657 0.021285743 0.016311472 -0.008322554 -0.006886003 -0.32702902

bias f4 [32]
00000000: cda7 133d ded9 a23c b953 84bd 6044 51bd
00000010: 2db1 713d 1d28 68bd 47cc 3c3c baa6 79bd
00000020: 8cdc 203c 4860 bf3c dd12 1d3c 8224 2e3d
00000030: 8b4a 06bc 085b 0abd bde8 ddbb 4933 043d
00000040: 428a 78bb bb3b 9b3c 058c f93b fb8c 413d
00000050: d8c8 0f3d 9857 c7bb 4207 ccbc e019 9b3d
00000060: 71f7 d2bc 2539 34bd f21d d43c ff00 87bd
00000070: b0ba 4fbd dbb2 5bbd e60e 0b3d bca5 1abd
0.0360487 0.019879278 -0.06461281 -0.051090598 0.05900686 -0.05667888 0.011523313 -0.06095002
0.0098182075 0.02336134 0.009587017 0.042515285 -0.008196483 -0.03377822 -0.0067721293 0.03227547
-0.0037924205 0.01894938 0.0076155686 0.04725359 0.03510365 -0.00608344 -0.024905805 0.07573295
-0.025752755 -0.04399981 0.025893185 -0.06591987 -0.05071515 -0.053637367 0.033949755 -0.037755713

weight f4 [32]
00000000: 37ef 863f da40 753f 067b 853f 4579 773f
00000010: f457 733f c035 a13f aec6 773f 59d0 893f
00000020: 2505 843f bb05 603f e247 873f c5cb 883f
00000030: 6135 8a3f 0f3a 5d3f b83a 6f3f 0079 7b3f
00000040: c66c 7b3f 0976 7d3f 2a4d 933f 90b7 803f
00000050: 2bc9 6c3f aa80 6e3f df05 6d3f c150 7c3f
00000060: 11e2 613f 0214 843f 1ebe 6b3f 304d 8f3f
00000070: 2466 843f ab63 923f ab0b 833f ad07 723f
1.0541753 0.9580208 1.0428169 0.9666942 0.9505608 1.2594528 0.96787536 1.0766708
1.031407 0.87508744 1.0568812 1.0687186 1.079754 0.86416715 0.9344897 0.98231506
0.9821285 0.9900823 1.1507924 1.0056019 0.9249446 0.93165076 0.92587084 0.9856072
0.88235575 1.0318606 0.9208697 1.1195431 1.0343671 1.1436666 1.0237936 0.9454296

bias f4 [32]
00000000: bc15 9c3a 8449 55bb 0ac7 5839 87a1 d33b
00000010: 4216 543d b1ff 6bbd a0d4 703c b7d4 533c
00000020: fd1e bdbc 15c9 c53c 61c4 6dbc 0a49 0eba
00000030: b530 003c 581f b1bd 5451 fcbb d73b d93d
00000040: e952 0e3d f2ee 80bd 9904 863c 6704 0b3c
00000050: 8f20 bcbc 7227 8e3c a5a7 c1bc fd26 113c
00000060: 784c 833c 2eda ddbc 100a 0b3b a5bb c23c
00000070: 6ab0 4ebd 64a7 c337 bd1b 8d3c 62f8 fdbc
0.0011908333 -0.003254504 0.00020673513 0.0064584645 0.05177904 -0.057616893 0.014699131 0.012929133
-0.023086065 0.024143735 -0.014512152 -0.0005427754 0.007824113 -0.086485565 -0.0077001248 0.10607117
0.034747038 -0.06295575 0.016359614 0.008484936 -0.022964744 0.017352793 -0.02363951 0.008859393
0.016027674 -0.027081575 0.0021215715 0.023771117 -0.05046121 2.3323759e-05 0.01722514 -0.031002227

weight f4 [32]
00000000: 3f7a 853f 72fd 713f b939 893f 2ffb 833f
00000010: 9c73 703f e4a3 883f c719 823f 0738 883f
00000020: f7a3 7a3f aeaa 7c3f 1c50 833f 9d25 8e3f
00000030: 6de5 8e3f e888 863f 9443 873f 301f 853f
00000040: 21d5 763f dbdd 803f ef24 843f 84a4 823f
00000050: 9be9 7c3f 473d 863f 6a58 7d3f 21f4 813f
00000060: 5eef 803f f320 813f 9b3b 793f 44f3 8e3f
00000070: ec00 853f ccc4 873f dd35 883f 50b6 843f
1.0427932 0.9452735 1.072074 1.031103 0.93926406 1.0675015 1.0164117 1.0642098
0.9790644 0.98697937 1.0258822 1.1105229 1.1163765 1.051053 1.0567498 1.0400143
0.9641896 1.0067705 1.0323771 1.0206456 0.98793954 1.048745 0.98963034 1.0152627
1.0073049 1.008818 0.97356576 1.1167989 1.0390906 1.0606933 1.0641438 1.0368137

bias f4 [32]
00000000: 793f 173c 1953 dd3c aab2 413a a182 b33c
00000010: 81d9 51bb 62af a7bc efff 0a3d 4565 d93c
00000020: 8f48 833c f476 8ebc 6aa4 a73a 03c3 5fbb
00000030: 59af d23b ca8e 64bd 5af3 d8ba c0e5 c83d
00000040: 1e28 713b b9d1 81bd e3ce a73c 9377 c03c
00000050: 2cbe 4ebd 198d f03c 37c0 14bd 90c2 abbc
00000060: 04b7 1f3c 772c 0fbd fdb5 54bc d9c9 0c3d
00000070: b745 94bb 8221 8fba 32bc 323d 73a5 2fbd
0.009231442 0.027017163 0.0007388989 0.021912875 -0.0032020512 -0.020469371 0.033935484 0.026537547
0.01602581 -0.017390706 0.0012790088 -0.0034143336 0.0064295945 -0.055800237 -0.0016552017 0.09809446
0.0036797593 -0.063388295 0.020484393 0.023494517 -0.05047433 0.029364156 -0.036316123 -0.020966798
0.009748224 -0.034954514 -0.0129828425 0.034372184 -0.004524912 -0.001092002 0.04363651 -0.042882394

in_proj_weight f4 [96, 32]
00000000: ae39 78bd be4f 2dbd b040 01bd baab 2a3e
00000010: 0883 08be 56c1 a33e 51ad e13d c1b2 0ebe
00000020: 2d6a da3c 7f65 263e c8ed 9bbd 522b 10be
00000030: 2d06 663e 7b08 dc3d feb8 fbbd 445c a83e
00000040: e30a 8abd 6278 80be 53fb e3bd beae 1e3e
00000050: 888c 2cbd 9891 f5bb 848b 7ebe 2779 423e
00000060: 770c 613e aa6b 9e3d f7c9 923d d339 6c3e
00000070: 6892 22be 0c04 8ebe f60b 4cbd 7a38 babd
00000080: bd5a 34be f99d e4bb 68ab 113e f051 18be
00000090: 1b15 193e cc1f 12bd f5aa 5f3e f076 d63d
000000a0: d0e1 8c3e 2278 0cbe b278 543e 26da 9b3e
000000b0: 8fdc aebe 6198 0fbe cc37 6a3c 779a 8cbd
000000c0: 191c c93c ef4b 163e 7415 b93d bd3d de3d
000000d0: b7bf 98bd 62fd fc3d 48e3 883e 4e04 65be
000000e0: 6abe 1dbe b60c 223e 98ce ac3d e002 ba3d
000000f0: c9e6 f53c 74d5 063d a769 4d3e c0d7 56be
00000100: eed4 1cbe b5f3 7ebd 707f 1cbd c29e 6fbd
00000110: e81d 04be 8b95 413d 8199 9bbc d53f 26bd
00000120: b3fc 84be 56e0 29be 1628 1e3e 1462 863e
00000130: b731 f3bd de08 6a3d a909 6fbe 40a2 633d
00000140: 13c2 433e 88a3 e23d 03f9 44be efb2 d23d
00000150: d128 503e 2c9e aabd 6749 603e ec91 173c
00000160: b062 60bd 3032 a6bd ed65 d33d 0d66 bb3d
00000170: a1fa 5abd cfbd 48be f539 6ebd f6ac d23d
00000180: f493 87bd 4407 ec3c d513 15be cb81 523c
00000190: b7c5 b13c 16be b23d 6675 403e 6b25 f43d
000001a0: 6b37 57bd 3029 143e 762d 973c 5b0a cdbd
000001b0: 2cc4 6dbe 045b 78bd 8b81 adbd bf06 493e
000001c0: 0056 363d 9b11 21be 3a17 a5be 3c38 41be
000001d0: 1cc1 0b3e 3cde e93d f728 ddbd b90f ee3d
000001e0: 598b 1e3d e03e b0be 57fb 223d 6480 5f3e
000001f0: f6f5 9b3e bf3d 12be 2406 3e3e b56e 883d
00000200: 9e26 053e 8278 96be a451 603e fc27 42be
00000210: f6cb a93e fb0c 1ebe 8e3b 6ebe ff2d 85bb
00000220: 15df dbbc 7150 44be 3a14 efbd 5276 343b
00000230: 29ae 1f3e eb71 4b3b af98 e43d 843e 27be
00000240: c663 9d3d e6b8 513d 2b3a a03d 745e 3ebe
00000250: 9f93 2fbd b626 0fbe 8672 eeba 826b f4bc
00000260: 65f6 59be 88a3 19bc e62e 29bd 265d 65be
00000270: 3e3f 19be abed 393e 4e16 013c 0b8a 2e3d
00000280: 5b49 b0bd d87e 21be b605 a53d 776b 9ebd
00000290: 09f1 08be 2f2b 7d3d 6f5a 86bc c544 b43d
000002a0: 0209 11bd 0e95 403e e70e 833d 96db d6bd
000002b0: ce83 2c3e 5b0b 23be f2ad 0cbe e2cf 213c
000002c0: e24d e2bd d6b3 e7bd de9a 1f3e d8ab d33d
000002d0: 488f c93d b463 f53d 6400 24be 5b22 1e3e
000002e0: 05de c33d 8954 373e 29bf 21be f1b7 2e3e
000002f0: 783d 18be 1f88 e2bd abbd 18bd 4aab 1abe
00000300: 76d1 19be 955a 06be a37e 803d 0114 323e
00000310: 0e48 efbd a483 a7bd bd75 bdbd 22b1 a6bd
00000320: 2eef cc3d f091 c33e 5b73 553d 0105 fbbd
00000330: 8b96 4bbc e212 02be ee12 823e 7242 c33d
00000340: b190 86be 9454 ba3d e53b e8bd 97a5 5bbe
00000350: 6940 f5bc 4ca3 afbe 96d1 1c3e 6424 62bc
00000360: 641d a63e b6b9 b13d 6619 913d 63f7 203e
00000370: 106e c7bc 95a8 cbbc 0663 0abc badc a9bd
00000380: 0d2f 0b3d 311a 4d3e 0458 98bd 0cb5 cabc
00000390: 52ce 09be f778 773e 389e 07be 6a7e 9ebd
000003a0: 265b 59bd aefb 86bd f6f3 8d3d 0349 c23d
000003b0: 5176 1abc 707e 0d3e e6e8 5e3c eddc 9f3c
000003c0: 0d92 6cbe be1d 3abe c127 d1be 7a71 77be
000003d0: 5770 4bbe 32b5 253b 4fc9 5abd f58d 753e
000003e0: 24a2 a23e 7a18 f4bd 2c35 7e3d 6f6a 7abd
000003f0: 7cb0 013e 20ab c7be fa94 063e b5dc a53d
-0.060601883 -0.042312376 -0.03155583 0.16667071 -0.13331234 0.3198344 0.110193856 -0.13935377
0.026661957 0.16249655 -0.076137125 -0.14079025 0.22463293 0.10743805 -0.12291144 0.32882893
-0.06740358 -0.25091845 -0.11131921 0.15496346 -0.04212621 -0.007494163 -0.24857908 0.18991528
0.21977411 0.07735379 0.07167428 0.23068933 -0.15876162 -0.27737463 -0.049816094 -0.09092803
-0.17612739 -0.0069768396 0.14225543 -0.14875007 0.14949457 -0.035674855 0.21842559 0.10471904
0.2751603 -0.13717702 0.20749167 0.30439872 -0.34152648 -0.14022972 0.01429553 -0.06865399
0.02454953 0.14677404 0.09037295 0.108516194 -0.07458442 0.123530164 0.26735902 -0.22364923
-0.15404668 0.15825161 0.08437842 0.090825796 0.030017274 0.03291841 0.20059834 -0.2098074
-0.15315601 -0.062244136 -0.03820747 -0.058501013 -0.12902033 0.047261756 -0.018994095 -0.04058822
-0.25974044 -0.16589484 0.15444979 0.26246703 -0.11874717 0.057137363 -0.23343529 0.055574656
0.19117002 0.11066347 -0.19235615 0.10288035 0.2032807 -0.0833095 0.21903001 0.009251099
-0.054781616 -0.08115041 0.10322175 0.09150324 -0.053461675 -0.19603656 -0.05816074 0.10286896
-0.06620017 0.028812058 -0.14558347 0.012848328 0.021700723 0.08727662 0.18794784 0.119211994
-0.052543085 0.14468837 0.018454295 -0.10011741 -0.23219365 -0.060633674 -0.08471974 0.1963148
0.04451561 -0.15729372 -0.32244283 -0.18869108 0.13647884 0.11419341 -0.10798829 0.116240926
0.03870711 -0.3442297 0.039790478 0.21826321 0.3046109 -0.14281367 0.1855703 0.06661741
0.13003013 -0.29388815 0.21906143 -0.18960565 0.33163422 -0.15434639 -0.23264906 -0.004064321
-0.026839772 -0.19171311 -0.1167378 0.0027536345 0.1559378 0.0031043242 0.111619346 -0.16332442
0.07685046 0.051201724 0.07823595 -0.18590719 -0.04286539 -0.13979611 -0.001819209 -0.02983642
-0.21285398 -0.009377368 -0.04130449 -0.22398815 -0.14965531 0.1815707 0.007878853 0.042612117
-0.086077414 -0.15771043 0.0805773 -0.07735341 -0.13373198 0.06180876 -0.016400544 0.08802179
-0.03540898 0.1880686 0.06399327 -0.104911014 0.16847154 -0.159223 -0.1373823 0.009876223
-0.11050011 -0.11313598 0.15586421 0.10335511 0.09841782 0.119819075 -0.16015774 0.15442793
0.09563831 0.17903341 -0.15795578 0.17062356 -0.14867198 -0.11061119 -0.037290256 -0.15104404
-0.1502131 -0.13120492 0.06274154 0.17390443 -0.11683665 -0.08179405 -0.092509724 -0.08139254
0.100065574 0.3819728 0.052111965 -0.12256814 -0.012426029 -0.12702516 0.25405067 0.09534158
-0.26282266 0.09098163 -0.11339549 -0.21449886 -0.02993794 -0.34304273 0.15314326 -0.0138026215
0.32444298 0.08678 0.070849225 0.1571937 -0.024344474 -0.02486066 -0.008446461 -0.082940534
0.033980418 0.20029522 -0.07438663 -0.024744533 -0.13457611 0.24167238 -0.1324395 -0.07738955
-0.05306544 -0.06590973 0.069312975 0.09486582 -0.009427623 0.13817763 0.013605332 0.019514525
-0.23102589 -0.18175408 -0.40850642 -0.24164382 -0.19867073 0.0025285003 -0.05341464 0.23979934
0.31764328 -0.11918731 0.062062427 -0.06113666 0.1266498 -0.38997746 0.13142768 0.08098737

in_proj_bias f4 [96]
00000000: a0ee 7cbd b802 8c3d 73a5 cabd f15d 253d
00000010: 06d0 333c 1cf3 d1bd fe2a 94bd 96b0 22bc
00000020: ebc3 22bd d5ec 15be b8ee 65be 425c cbbd
00000030: 7fd1 21be 4d4c ab3d e086 b53d f43d 24be
00000040: 0268 783d 577f cf3d bf07 f4bb cae2 a63c
00000050: 23d8 843c 9274 42bd 9a7c 433d d21d 593d
00000060: e92e ebbc 949e 8fbd b924 50bc 85a2 1e3c
00000070: 1e04 8fbb f28d e3bd 940e 693d 910f 983c
00000080: 62ed ddb8 62c0 03b9 b475 9a3a b4a1 d037
00000090: cf69 fa39 44c5 5cba 11aa 3939 f272 793a
000000a0: b278 0cb8 1b29 b539 23c3 18b7 8c1d 31b9
000000b0: 81a7 96ba 90ac adb9 9824 be3a 306e c4ba
000000c0: 3b40 15b9 a10f 9fba 7620 07ba 682f 4f3a
000000d0: f075 be38 8650 45ba 5b24 d038 e966 8338
000000e0: 742c 9039 2359 68bb 9666 27bb 26c7 643a
000000f0: 20c9 d3ba cefe 08bb 2407 37ba 3038 eab9
00000100: 9c55 413b 85b0 51bd 8591 e3bc 5be2 1a3d
00000110: 154c b93b 9525 cd3c 484b a7bd 239b 023c
00000120: c40c a23d 4728 a33c cd48 733a 2252 3abc
00000130: 659f 06bc 8d51 07bd 65fa d63c 2cf4 3abb
00000140: ea4e 39bc 5c92 3ebd 80f3 a3bc 57ba 963c
00000150: 8a16 053c aea9 0ebd feb3 0d39 bfcb c43c
00000160: cc90 f63c 626c 90bc 03f1 e83b 8919 36bc
00000170: e060 6cbc d532 39ba c316 ab3c f383 09bc
-0.061751008 0.06836456 -0.09894838 0.040372793 0.01097489 -0.102514476 -0.072347626 -0.009929797
-0.039737623 -0.14641126 -0.22454345 -0.09929706 -0.15802573 0.083641626 0.08863616 -0.16039258
0.060646065 0.1013171 -0.0074472125 0.020371813 0.016216343 -0.04747445 0.04772625 0.053006954
-0.028708892 -0.07012668 -0.012704068 0.009682302 -0.0043645045 -0.11111058 0.05689867 0.01856211
-0.00010582317 -0.00012564802 0.0011784346 2.4870831e-05 0.0004776255 -0.0008421729 0.0001770633 0.00095157244
-3.3491007e-05 0.00034553636 -9.10534e-06 -0.00016891042 -0.0011494012 -0.000331257 0.0014506755 -0.0014986452
-0.00014233675 -0.0012135395 -0.00051546784 0.00079034874 9.0818736e-05 -0.00075269525 9.9249846e-05 6.265735e-05
0.0002749894 -0.003545352 -0.0025543324 0.0008727185 -0.0016157962 -0.0020903829 -0.000698196 -0.0004467382
0.002950049 -0.051193733 -0.02777935 0.037813526 0.0056548216 0.025042335 -0.08168656 0.007971558
0.07912591 0.019916667 0.00092805625 -0.011372121 -0.008216714 -0.033036757 0.026242444 -0.0028526885
-0.0113103185 -0.046526298 -0.02001357 0.0183994 0.0081230495 -0.034829788 0.0001351386 0.024022935
0.030098341 -0.017629806 0.007108809 -0.0111144865 -0.014427394 -0.00070647645 0.020884877 -0.008393276
