nets/tae_default.pt (torch, 242214 bytes, 42 tensors)

weight f4 [32, 6]
0	0xbc5d03a3	-0.013489637
1	0x3e923381	0.2855492
2	0xbe88e9ad	-0.2674078
3	0x3e5f0ac3	0.21781449
4	0x3eed6b68	0.46371007
5	0xbe8d830c	-0.27639043
6	0xbd04ab5e	-0.03238999
7	0xbe1757d5	-0.14779599
8	0x3ed009cf	0.40632483
9	0x3e2b7785	0.16744812
10	0x3ec899b4	0.39179766
11	0xbccf0012	-0.025268588
12	0x3e42afae	0.19012329
13	0x3df0b15c	0.117525786
14	0xbe30cc64	-0.17265469
15	0xbe02de3c	-0.12780088
16	0xbe76dfef	-0.24108861
17	0xbdbebb3d	-0.093130566
18	0xbcfade61	-0.030623617
19	0x3f0dcfa6	0.5539497
20	0xbf08f280	-0.53495026
21	0xbf075797	-0.52868026
22	0xbecf42f2	-0.40480763
23	0xbe5cf504	-0.21577841
24	0xbdf4f631	-0.1196102
25	0xbebaf1ec	-0.36512697
26	0x3ec08b5c	0.37606323
27	0xbd64bfdf	-0.055847045
28	0x3eb979fc	0.3622588
29	0xbcde3a28	-0.02712734
30	0x3d0db90b	0.0346003
31	0xbc859a6b	-0.016308984
32	0x3e3b4843	0.18289284
33	0x3e936d94	0.2879454
34	0x3de33ad9	0.11095209
35	0xbdbeafd9	-0.09310884
36	0x3e632b46	0.22184476
37	0xbea6dac0	-0.32588768
38	0x3ea360b1	0.31909707
39	0x3f05cbf7	0.5226435
40	0x3eb301c0	0.34962273
41	0xbe213a83	-0.15744977
42	0x3daf60cb	0.08563384
43	0x3e895c77	0.26828358
44	0xbddef78c	-0.108870596
45	0xbe867afb	-0.26265702
46	0xbeb12bb9	-0.3460367
47	0xbdb79c31	-0.08965338
48	0xbe0139a0	-0.12619638
49	0x3e23522d	0.15949316
50	0x3e20ed17	0.15715443
51	0xbdcf5765	-0.10124091
52	0x3e13eeb3	0.14446525
53	0x3d3462d4	0.044039562
54	0x3db62ee8	0.088956654
55	0xbe6ca9cd	-0.23111649
56	0x3d26ffbd	0.040771235
57	0xbce01467	-0.027353479
58	0x3e281322	0.16413549
59	0xbe8987b7	-0.26861355
60	0x3d3cee43	0.04612566
61	0x3d8b4e45	0.06802038
62	0x3e54619f	0.20740364
63	0xbe049f63	-0.12951426
64	0xbe44b301	-0.1920891
65	0xbe1a9a7e	-0.15097997
66	0x3e1dcc43	0.15409951
67	0x3edc3e1b	0.43016133
68	0x3ed35060	0.4127226
69	0xbe725a65	-0.23667295
70	0xbf0dbbc7	-0.5536465
71	0xbed8d638	-0.42350936
72	0xbe8bffd3	-0.27343616
73	0xbdc65220	-0.09683633
74	0x3e835fcb	0.25659022
75	0x3e98610e	0.29761547
76	0xbe381bda	-0.17979375
77	0xbe56e6a0	-0.20986414
78	0x3dae8d55	0.08523051
79	0xbe5367b4	-0.20645028
80	0x3e125fbe	0.14294335
81	0x3c8da139	0.017288791
82	0x3ed38bc7	0.4131758
83	0xbe3387eb	-0.17532317
84	0xbe065324	-0.13117653
85	0x3e190e9b	0.14946978
86	0x3d8a5320	0.06754136
87	0xbdf1d102	-0.11807443
88	0x3e84fa4e	0.25972217
89	0x3e9dd3ad	0.30825558
90	0xbd755f1a	-0.05990515
91	0xbe2bf31b	-0.16791956
92	0x3da2ebf9	0.079551645
93	0xbcfa441e	-0.030550059
94	0x3e20f23c	0.15717405
95	0xbe143395	-0.14472802
96	0xbd0b4dd1	-0.03400976
97	0xbde16359	-0.11005277
98	0xbc2c2d1a	-0.0105088
99	0xbe62c117	-0.2214397
100	0x3d1b8189	0.03796533
101	0xbeb62520	-0.355752
102	0xbe64b22b	-0.2233359
103	0xbec50b29	-0.38485077
104	0xbe899d42	-0.2687779
105	0xbe88eda8	-0.26743817
106	0x3f00bc8a	0.5028769
107	0xbd81b8c9	-0.06334073
108	0x3e3b6b87	0.18302737
109	0xbf0ea183	-0.557152
110	0xbe4c6cd9	-0.19963397
111	0x3e23b6b9	0.15987672
112	0x3df3ca3b	0.11903807
113	0xbef466d6	-0.47734708
114	0xbd4d78d2	-0.05016405
115	0xbeef78e8	-0.46771932
116	0x3c84f0bb	0.01622807
117	0xbe8dd35b	-0.27700314
118	0xbdcac0b2	-0.09900035
119	0xbe090e76	-0.13384423
120	0xbd8b3893	-0.067979
121	0xbdd94226	-0.1060832
122	0xbda2fa9c	-0.07957956
123	0xbe2f35b5	-0.17110331
124	0x3e80566f	0.25065944
125	0xbe9219c7	-0.28535292
126	0x3eb3159a	0.34977418
127	0xbbb1cf8c	-0.005426353
128	0xbe4c0e65	-0.19927366
129	0x3e46ead1	0.19425513
130	0xbdeca43d	-0.115547635
131	0xbe4c5149	-0.19952883
132	0xbcefcd06	-0.029272567
133	0xbeb786ca	-0.35845023
134	0xbd5ec6d6	-0.054388843
135	0x3d0edeff	0.034880634
136	0x3ea68906	0.32526416
137	0xbea4df4c	-0.32201612
138	0x3d639e3e	0.055570833
139	0xbee61b01	-0.44942477
140	0x3e930204	0.28712475
141	0x3ec5f009	0.38659695
142	0x3e837833	0.25677642
143	0xbd231465	-0.03981437
144	0x3e743d5d	0.23851533
145	0xbe601a4c	-0.21885031
146	0x3d468b4d	0.04847269
147	0xbd2c2db0	-0.04203576
148	0xbd74dc81	-0.0597806
149	0xbea63785	-0.32464233
150	0x3e35374b	0.17696874
151	0xbea68ebe	-0.3253078
152	0x3e4893c3	0.19587617
153	0x3e89b4c8	0.26895738
154	0x3e7de5bc	0.24794668
155	0xbe3a7058	-0.18206918
156	0x3e04fb9b	0.12986605
157	0x3ebe8621	0.37211707
158	0xbe826c95	-0.25473467
159	0xbf1a973e	-0.6038703
160	0xbd725af3	-0.059168767
161	0xbe7e01f8	-0.24805439
162	0xbdca9358	-0.09891385
163	0x3ef267a5	0.473447
164	0xbdbfaf88	-0.09359652
165	0xbecca1ae	-0.39967102
166	0xbeadc421	-0.33938697
167	0x3d6fa7c8	0.058509618
168	0x3dbff65b	0.093731605
169	0xbdf711fb	-0.120639764
170	0xbefebc78	-0.49753165
171	0xbe82fc52	-0.2558313
172	0xbdf5eed7	-0.12008446
173	0x3ec06d4d	0.3758339
174	0x3dcb932b	0.099401794
175	0xbf227baa	-0.63469946
176	0x3e91ea78	0.28499198
177	0x3f16b0d8	0.5886359
178	0x3eacfc63	0.33786306
179	0xbd996ad2	-0.074910775
180	0x3e938198	0.2880981
181	0x3ec06195	0.3757445
182	0x3cc909f1	0.024540873
183	0xbe1815ed	-0.14852114
184	0xbd67478f	-0.056464728
185	0x3e173639	0.14766778
186	0x3b8a5f16	0.004222761
187	0xbe8505f2	-0.25981098
188	0x3ebb8e86	0.36632174
189	0x3ef12226	0.47096366
190	0x3dbaf8f7	0.091295175
191	0x3e4fda46	0.20298108

bias f4 [32]
0	0x3f21970d	0.6312111
1	0x3c8fb49e	0.01754218
2	0x3d9908ac	0.07472357
3	0x3f14c7bc	0.5811727
4	0xbf66a5d7	-0.900968
5	0x3e2d7d0d	0.16942234
6	0x3f1db4dc	0.61604095
7	0xbe8ff11e	-0.28113645
8	0x3dad7846	0.08470206
9	0xbe91d642	-0.28483778
10	0xbf27d4d4	-0.65559125
11	0xbf85b19e	-1.044483
12	0xbf04002c	-0.5156276
13	0xbca38231	-0.019959541
14	0x3f530d45	0.8244212
15	0xbdfd6810	-0.12373364
16	0xbf63d02f	-0.8898954
17	0xbee8421e	-0.45362943
18	0xbf0d5c20	-0.55218697
19	0x3f4900bb	0.7851674
20	0xbcb5c9cd	-0.022190953
21	0x3e0cfdf2	0.13768747
22	0xbdcb1a3b	-0.099171124
23	0xbe0de47a	-0.13856688
24	0xbf2f9d50	-0.68599415
25	0x3e2a882e	0.16653511
26	0xbe086528	-0.13319838
27	0xbd744af6	-0.0596418
28	0xbf651c4f	-0.8949632
29	0x3e0ffc3a	0.1406106
30	0x3f7c866f	0.9864263
31	0x3d44601f	0.04794323

in_proj_weight f4 [96, 32]
0	0xbf13e5f3	-0.5777275
1	0xbddaef6b	-0.106901966
2	0x3e130cac	0.14360303
3	0xbe694121	-0.22778751
4	0x3e94576d	0.2897295
5	0xbe4c47e3	-0.19949298
6	0x3cb7ec26	0.022451472
7	0x3e9b4e54	0.30333197
8	0x3df4edda	0.11959429
9	0x3d9044c7	0.07044368
10	0x3e92c523	0.28666028
11	0x3e8062f2	0.2507549
12	0xbeadbe24	-0.33934128
13	0xbee1135e	-0.43960088
14	0x3d6ecfdf	0.05830371
15	0x3e14755f	0.14497899
16	0x3d5ca0ec	0.053864405
17	0x3e02705d	0.12738176
18	0x3d9a62c7	0.075383715
19	0x3dc2ea1f	0.09517311
20	0xbcc405b9	-0.02392851
21	0x3a6e0c9e	0.00090808596
22	0xbd9eca02	-0.07753374
23	0xbd95046d	-0.07276235
24	0x3e43812b	0.19092242
25	0xbe18644a	-0.14882007
26	0x3ea8ae11	0.32945302
27	0x3e99de41	0.3005238
28	0x3e57d864	0.2107864
29	0xbe456d2e	-0.1927993
30	0x3e09cb98	0.13456571
31	0xbe821ab5	-0.25411
32	0xb938eb51	-0.0001763527
33	0x3dbe3a84	0.09288505
34	0xbd833959	-0.064074226
35	0xbddee3cf	-0.10883295
36	0xbe0bac0e	-0.13639852
37	0x3e30be4e	0.17260095
38	0x3e273726	0.16329631
39	0xbd398173	-0.045289468
40	0xbe28d67e	-0.16488072
41	0xbe41f7a5	-0.18942125
42	0x3d6abeb1	0.057310764
43	0x3e5aab69	0.2135445
44	0xbe05e168	-0.13074267
45	0x3de0f3f2	0.10984029
46	0xbe78e052	-0.24304321
47	0xbe139203	-0.14411168
48	0x3e71f660	0.23629141
49	0x3e12dba4	0.14341599
50	0x3c64469d	0.013932851
51	0x3d2822c2	0.041048773
52	0xbdf6d52b	-0.12052377
53	0x3d1023e4	0.035190478
54	0x3e858517	0.26078102
55	0xbd914dd8	-0.07094926
56	0x3bf98b4f	0.007615484
57	0x3d484e8b	0.04890303
58	0xbdbe17e6	-0.09281902
59	0xbcbeb6da	-0.02328055
60	0x3cf304a6	0.029665302
61	0xbc7041fa	-0.014664168
62	0xbe18822d	-0.14893408
63	0x3df1de53	0.11809983
64	0xbe552a43	-0.20816903
65	0xbe795beb	-0.2435147
66	0xbdb10d13	-0.08645072
67	0x3d850b69	0.06496317
68	0x3d476d69	0.048688326
69	0x3cf22dd6	0.029562872
70	0x3ce091f3	0.027413344
71	0x3e17dbdd	0.14829965
72	0xbcc34649	-0.023837226
73	0x3db5f7a8	0.08885127
74	0x3d12809b	0.03576718
75	0xbce436fc	-0.02785825
76	0xbe42d565	-0.19026716
77	0xbea30df6	-0.3184659
78	0xbe8a1f90	-0.26977205
79	0x3da04ada	0.07826777
80	0x3e7f1546	0.24910459
81	0xbe305bd8	-0.17222536
82	0xbe411c14	-0.18858367
83	0xbe0e8ccf	-0.13920902
84	0x3e40a246	0.18811902
85	0x3e1deea0	0.1542306
86	0xbbd374dd	-0.00645314
87	0xbd0e288c	-0.034706637
88	0xbe01be20	-0.12670183
89	0xbead8ce3	-0.3389655
90	0x3e0aa754	0.13540393
91	0x3e5184a2	0.20460752
92	0x3e8248a8	0.25446057
93	0xbe4efe99	-0.20214309
94	0x3e26d53c	0.1629228
95	0xbcf52fbb	-0.029929986
96	0x3eb2d9fa	0.34931928
97	0xbe0f62d2	-0.1400254
98	0x3ef0d06f	0.47034022
99	0x3d96a570	0.073557734
100	0xbdf0bfb0	-0.117553115
101	0x3d10223f	0.03518891
102	0xbe3a330b	-0.18183534
103	0x3e284dc8	0.16435921
104	0xbe296fd6	-0.16546568
105	0xbe62267c	-0.22084993
106	0xbdf303dd	-0.11865971
107	0xbce92d92	-0.028464112
108	0x3d3bd0a3	0.04585327
109	0x3e931b40	0.28731728
110	0x3e4e956a	0.20174184
111	0xbcb17103	-0.021660333
112	0xbe57e94a	-0.21085086
113	0xbcddf067	-0.027092172
114	0xbe5157ab	-0.20443599
115	0xbe00d51f	-0.12581299
116	0xbe56a37f	-0.20960806
117	0x3c63b5ff	0.013898372
118	0xbc0caa9d	-0.008585599
119	0xbe4abce3	-0.19798617
120	0xbdbab653	-0.09116807
121	0xbaac5441	-0.0013147668
122	0x3e89ae5a	0.26890832
123	0xbc6b8b63	-0.014376494
124	0xbe0461a6	-0.12927875
125	0xbcb6ef17	-0.022330804
126	0x3e85bf0e	0.26122326
127	0xbdca51c9	-0.098788805
128	0x3f0a912c	0.54127765
129	0xbe64d0d5	-0.22345288
130	0x3e49b499	0.19697799
131	0x3e85403c	0.2602557
132	0xbf168fa7	-0.58812946
133	0x3e0fe03b	0.14050381
134	0xbdbec6ad	-0.09315238
135	0x3d183d2f	0.037167724
136	0x3e22c58a	0.15895668
137	0xbe05bb23	-0.13059668
138	0xbe9bd53b	-0.3043612
139	0xbee3dc62	-0.44504076
140	0xbdd27bd4	-0.102775246
141	0xbe378f25	-0.17925699
142	0x3de0d5d3	0.10978284
143	0xbea39405	-0.31948867
144	0xbed0fb0e	-0.4081654
145	0xbce7baff	-0.028287409
146	0xbe339931	-0.17538907
147	0xbd834fa1	-0.064116724
148	0xbdda4af9	-0.10658831
149	0x3f035cba	0.51313365
150	0xbee4e4e6	-0.44705886
151	0xbecc4b40	-0.3990116
152	0xbe84f53c	-0.2596835
153	0xbc6225b9	-0.013802939
154	0x3dcc2c92	0.099694386
155	0x3df134ba	0.11777635
156	0xbda2b141	-0.07943965
157	0xbea71faa	-0.32641345
158	0x3e18edab	0.14934413
159	0xbf1cec2a	-0.6129786
160	0xbf3c2d98	-0.7350707
161	0xbec02097	-0.37524864
162	0x3e839adc	0.25704086
163	0x3dd370bb	0.10324236
164	0xbcd06517	-0.025438828
165	0xbeb7aa80	-0.3587227
166	0xbd66c02a	-0.056335606
167	0x3e2d4fff	0.16925047
168	0xbdf40f29	-0.11916954
169	0x3ee11e12	0.43968254
170	0x3e9d5998	0.30732417
171	0x3d8f6a8b	0.07002743
172	0xbdb00ab7	-0.08595794
173	0x3d5e0800	0.05420685
174	0x3e0e2452	0.13881043
175	0xbdab87c3	-0.08375504
176	0xbabaa03b	-0.0014238426
177	0x3dbd05a3	0.09229591
178	0x3e2f36bc	0.17110723
179	0x3dce63d9	0.10077638
180	0xbb0035e8	-0.001956338
181	0xbe40e6dc	-0.18838066
182	0x3c2c30cb	0.01050968
183	0x3dd9c5f1	0.106334575
184	0x3efd44b0	0.49466467
185	0x3e6a52c9	0.22883143
186	0x3e9fa6f7	0.31182072
187	0x3e010f55	0.12603505
188	0x3d928fdf	0.071563475
189	0x3e12b569	0.14327015
190	0xbe2682e4	-0.16260868
191	0xbb32217f	-0.002718061
192	0xbed92ede	-0.4241857
193	0x3ef26a68	0.47346807
194	0xbf178a1b	-0.5919511
195	0xbefea8f8	-0.49738288
196	0x3f0e07b0	0.5548048
197	0x3e04e12c	0.12976521
198	0x3ca79394	0.020456113
199	0xbe768e09	-0.2407762
200	0x3c729d53	0.014808017
201	0x3e14d484	0.14534193
202	0x3eb0a269	0.3449891
203	0x3ed1fc62	0.41012865
204	0x3ea3eaad	0.3201498
205	0x3e824e12	0.25450188
206	0xbea7ba38	-0.3275926
207	0x3e6159fd	0.22006984
208	0x3ec872c8	0.3915007
209	0xbe5229cd	-0.20523758
210	0x3e7ab343	0.24482445
211	0xbc6c6562	-0.014428468
212	0xbd5c0d1b	-0.053723436
213	0xbe8e3318	-0.27773356
214	0x3f077c8d	0.52924424
215	0x3f324d13	0.69648856
216	0x3f0ea058	0.55713415
217	0x3e32ac85	0.17448623
218	0xbefb7ce2	-0.49118716
219	0xbe5d47f2	-0.21609476
220	0xbd615e01	-0.05502129
221	0x3e5e0e64	0.21685177
222	0xbe8157c2	-0.25262266
223	0x3f2bbf7a	0.67089045
224	0x3c29f502	0.010373356
225	0xbe69d553	-0.22835283
226	0x3e50b879	0.2038287
227	0x3ed178e9	0.4091256
228	0xbc966e3c	-0.01836311
229	0x3aaa3ec7	0.001298868
230	0xbe9148e9	-0.2837594
231	0x3ee3acd2	0.4446779
232	0xbd65d6a5	-0.056112904
233	0x3e78a171	0.24280335
234	0x3e70112e	0.23444054
235	0x3dff0523	0.124521516
236	0xbd87a9cd	-0.06624184
237	0x3e0b1797	0.13583218
238	0x3e36ff26	0.17870769
239	0x3cd49324	0.025949068
240	0x3dcac5b4	0.0990099
241	0xbd1b7b43	-0.03795935
242	0x3d271094	0.040787295
243	0xbb832b03	-0.00400293
244	0xbe16fc7a	-0.1474475
245	0x3df85616	0.121257946
246	0x3d24e899	0.040260885
247	0xbcfd1ed5	-0.03089849
248	0x3d827e04	0.06371692
249	0xbe2e9832	-0.17050245
250	0x3f1bbb27	0.60832447
251	0x3cc0674d	0.023486758
252	0x3eb4f94a	0.35346442
253	0xbed2ff97	-0.41210625
254	0x3df1fadf	0.11815428
255	0xbed65b9d	-0.4186677

in_proj_bias f4 [96]
0	0xbd9429ee	-0.0723456
1	0xbe216813	-0.15762357
2	0x3c0170d8	0.007900439
3	0x3e64264f	0.22280239
4	0x3ddd54cc	0.10807189
5	0x3a0fa611	0.0005479763
6	0xbe2e78a2	-0.17038205
7	0xbb328a70	-0.002724316
8	0x3d89a332	0.0672058
9	0x3e2c2cb1	0.16813923
10	0x3e91f977	0.2851064
11	0xbed909a6	-0.42390174
12	0x3e80be12	0.25145012
13	0xbe9e2ca5	-0.30893436
14	0x3df030d0	0.1172806
15	0xbe6ee923	-0.23331122
16	0xbd2a6946	-0.041604303
17	0x3ee20b06	0.44149035
18	0xbe7f1a9f	-0.24912499
19	0xbe8688c2	-0.26276213
20	0xbe95c98e	-0.29255337
21	0xbea3497b	-0.31892
22	0xbe90c346	-0.28273982
23	0xbd712c80	-0.05888033
24	0xbe34d8c9	-0.17660822
25	0xbdd6e35c	-0.10492584
26	0x3e911d3c	0.28342617
27	0x3e4071ea	0.18793455
28	0x3edc8207	0.43067953
29	0xbe34f438	-0.17671287
30	0x3df5ad31	0.11995924
31	0x3e49905d	0.19683976
32	0x3b1254c5	0.0022328359
33	0x3b05031b	0.002029604
34	0x3b47174d	0.0030378879
35	0xbb83c90c	-0.0040217694
36	0xbbbeee73	-0.005826765
37	0x39fdeaa2	0.00048430735
38	0x3b724170	0.0036965273
39	0x3b62ad71	0.0034588242
40	0xbb6e6ded	-0.003638144
41	0xbc432941	-0.011911691
42	0xbbf96d44	-0.0076119024
43	0x3c8eb736	0.017421346
44	0xbc338080	-0.01095593
45	0x3ca32944	0.019917138
46	0x3aad227d	0.0013209131
47	0x3bb31691	0.0054653366
48	0xbb2940e6	-0.0025826036
49	0x3ba1d272	0.004938417
50	0x3b5e31fb	0.0033904302
51	0xbad55bc5	-0.001627796
52	0xbaa650d9	-0.0012688889
53	0xbb84ac53	-0.004048863
54	0x3bb2094c	0.005433237
55	0x3b96877d	0.004593788
56	0xbbdd5814	-0.0067548845
57	0xbc08e038	-0.008354239
58	0x3c0ef9c2	0.008726539
59	0x3b9092e9	0.0044120443
60	0x3c8bd38f	0.017068652
61	0xbc321db3	-0.010871339
62	0x3b3eefa0	0.0029134527
63	0x3c5555eb	0.013020973
64	0x3b8bf1fc	0.00427079
65	0xbcf6eca2	-0.030142132
66	0xbc5580a8	-0.013031162
67	0x3c6db826	0.014509236
68	0x3c5c0695	0.013429304
69	0x3cde27e7	0.027118636
70	0xbd0a8f04	-0.033827797
71	0xbbd49102	-0.006487013
72	0xbd1a630a	-0.037692107
73	0xbcd59741	-0.0260731
74	0x3d0fed39	0.035138343
75	0xbc9f934a	-0.019479413
76	0xbd80b00d	-0.06283579
77	0x3d9da539	0.07697529
78	0x3b11c707	0.0022243874
79	0xbd9ba907	-0.07600599
80	0xbdb9b9c8	-0.09068638
81	0x3d3b489d	0.045723546
82	0xbd3a014c	-0.045411393
83	0xbd38e0cd	-0.04513626
84	0xbd0296c3	-0.03188206
85	0xbdb766ae	-0.089551315
86	0xbd51164d	-0.05104666
87	0x3cce1b99	0.025159644
88	0x3d048903	0.032357227
89	0x3c507c9c	0.012725022
90	0x3df245dd	0.118297316
91	0x3cef7afd	0.02923345
92	0x3d7b003a	0.061279513
93	0xbd5bad60	-0.05363214
94	0x3cb7c8d1	0.022434624
95	0x3ce295c4	0.027659304

weight f4 [32, 32]
0	0x3b5e917b	0.0033961225
1	0xbc285098	-0.010273121
2	0xbc00849c	-0.007844117
3	0x3c509a4f	0.012732103
4	0xbc42df57	-0.011894069
5	0xbac047f2	-0.0014669879
6	0xba94a914	-0.0011341893
7	0xbb16a60e	-0.002298716
8	0xbb7daa09	-0.0038706085
9	0xbcd1aecc	-0.025596045
10	0xbc8d5648	-0.017253056
11	0xbb584653	-0.00330009
12	0xbcbb6f8f	-0.022880344
13	0x3b91c0a0	0.0044480115
14	0xbbf7152a	-0.0075403647
15	0xbb3b2c06	-0.0028560176
16	0xbbe758cc	-0.007060146
17	0xbbd65196	-0.0065404875
18	0xbc2e288b	-0.010629783
19	0xbc3e8c82	-0.011630179
20	0xbbc67227	-0.0060560885
21	0x3aefa05b	0.0018282043
22	0xbbb8667c	-0.0056274515
23	0x3c4a44bd	0.01234549
24	0xbc8592c7	-0.01630534
25	0xbb44e4aa	-0.003004352
26	0xbb9d5911	-0.0048018773
27	0x3bca8862	0.006180809
28	0xbb6f2c14	-0.0036494778
29	0x3c160087	0.009155399
30	0x38ce5ff6	9.8407196e-05
31	0xbc8b6f8f	-0.017020969
32	0xbd25650f	-0.04037958
33	0x3c52e103	0.01287103
34	0x3d0b14c2	0.033955343
35	0x3ca8502e	0.020546045
36	0x3d401b13	0.04690082
37	0x3d75dbc9	0.060024057
38	0xbce0fcdb	-0.02746432
39	0xbe5b7238	-0.2143029
40	0xbb0a54b1	-0.002110761
41	0xbdfe3248	-0.12411934
42	0xbe35e7e8	-0.17764246
43	0x3f3f2997	0.74672836
44	0x3dafe912	0.085893765
45	0xbc985de5	-0.01859946
46	0xbddbb1d9	-0.10727281
47	0x3d9e6a0e	0.07735072
48	0x3e9316d4	0.28728354
49	0x3aff6ad6	0.0019486796
50	0x3ca1a8f7	0.019733889
51	0x3d67b10c	0.05656533
52	0x3c93c495	0.018038074
53	0x3e330a67	0.17484437
54	0x3d2c5acf	0.04207879
55	0xbdf264b4	-0.11835614
56	0xbdd05183	-0.10171797
57	0x3cc92c70	0.024557322
58	0x3d9e08e6	0.07716541
59	0xbd019e6b	-0.03164522
60	0x3f037bd4	0.5136082
61	0xbd566b77	-0.05234858
62	0x3d258943	0.040414106
63	0x3db10a04	0.086444885
64	0x3d2c0aaa	0.042002358
65	0xbd0f37e8	-0.034965426
66	0xbdad8bd3	-0.08473935
67	0x3d49bf83	0.049254905
68	0xbe4ed7b5	-0.20199473
69	0xbd972372	-0.073798075
70	0xbd329d2f	-0.043606933
71	0xbda17464	-0.07883528
72	0xbd59893f	-0.053109404
73	0xbdfe399e	-0.12413333
74	0xbe5f7df1	-0.21825387
75	0xbe11a8e2	-0.1422458
76	0xbd9085fc	-0.070568055
77	0x3d6526df	0.055945273
78	0x3c892b3b	0.016744247
79	0xbc845feb	-0.016159019
80	0x3ed6c23f	0.41945073
81	0xbb0f2645	-0.0021842879
82	0xbda88cb4	-0.08229962
83	0xbd92d007	-0.07168584
84	0xbd4e5503	-0.050374042
85	0x3efa59e5	0.4889671
86	0xbc8b6935	-0.01701794
87	0xbd11d648	-0.035604745
88	0xbd8ae1e3	-0.06781366
89	0xbc0bd209	-0.008533963
90	0x3d83dfa3	0.0643914
91	0x3f2f3081	0.68433386
92	0x3dc425e3	0.09577539
93	0xbd8a7c4a	-0.067619875
94	0xbbcf8bb2	-0.0063337917
95	0xbacc6ab0	-0.001559576
96	0xbcb8c856	-0.022556465
97	0xbb6a8490	-0.003578458
98	0x3ce5b87f	0.028042076
99	0x3c25df51	0.010124044
100	0x3ca9f0f5	0.02074478
101	0xbc0979ed	-0.008390886
102	0xbb5335e5	-0.0032228169
103	0x3ceb4927	0.028721405
104	0x3cb8ce41	0.022559287
105	0xbc3209d3	-0.0108666
106	0x3aa08482	0.0012246522
107	0xbb0d25cd	-0.0021537424
108	0x3caf2b7d	0.021383042
109	0xbca7958f	-0.020457057
110	0x3be19125	0.0068837577
111	0xbb0a30f3	-0.0021086305
112	0xbb74fc16	-0.00373817
113	0x3c34ec1a	0.011042619
114	0x3c42cb3c	0.011889275
115	0x3cbe8106	0.023254883
116	0x3a384201	0.00070288783
117	0xbc4c7709	-0.012479552
118	0x3bdb4636	0.0066917194
119	0x3bbdf97c	0.005797563
120	0x3c9b15f8	0.018931374
121	0x3b1b07a3	0.0023655675
122	0x3bf5b6a3	0.0074985786
123	0x3c726f0c	0.014796983
124	0x39e23e6a	0.0004315258
125	0xbcc73ebe	-0.02432191
126	0x3b2d778b	0.0026468958
127	0x3c01ddac	0.007926386
128	0xbce4bd15	-0.027922193
129	0xbd15a091	-0.03653008
130	0xba611dda	-0.0008587517
131	0xbbf9ebb6	-0.007626976
132	0xbcb6e8de	-0.022327837
133	0x3d0ba809	0.034095798
134	0x3cbceb22	0.023061339
135	0xbc8315db	-0.016001632
136	0xbc413f83	-0.0117949275
137	0xbcbd9ed5	-0.023147026
138	0xbc27991e	-0.010229377
139	0x3bf21451	0.007387676
140	0xb9ed1db8	-0.00045226305
141	0x3ba3c92d	0.0049983473
142	0xbc5d6b7e	-0.013514398
143	0xbc601062	-0.013675781
144	0xbc1f0420	-0.009705573
145	0xbccbfac1	-0.024899842
146	0xbc20a1e3	-0.009804222
147	0xbccbd46b	-0.024881562
148	0x3c17777f	0.009244799
149	0xbcca287a	-0.024677504
150	0x3c878726	0.016543936
151	0x3b129762	0.0022368063
152	0xbd28e248	-0.041231424
153	0x3d139266	0.03602829
154	0xbb4ef8b0	-0.0031581335
155	0xbc70dd28	-0.014701165
156	0x3c450696	0.012025496
157	0xbbf2a277	-0.007404621
158	0x3d4e60cd	0.050385285
159	0x3c8534b1	0.016260477
160	0x3cc835e2	0.024439756
161	0xbce96b97	-0.028493686
162	0x3b51e69f	0.003202833
163	0x3dc6433d	0.096807934
164	0x3e048140	0.1293993
165	0xbe1cf482	-0.15327647
166	0x3d56209f	0.052277204
167	0xbc7f3261	-0.015575976
168	0xbe899ef5	-0.26879087
169	0x3dbd995c	0.092577666
170	0x3e5f8a91	0.21830203
171	0x3e32252c	0.17396992
172	0xbd0d76ba	-0.034537055
173	0x3e6d953f	0.23201464
174	0x3e158604	0.14601904
175	0x3bd21449	0.0064111096
176	0x3e49bb09	0.19700254
177	0x3e1a7510	0.15083718
178	0xbd7a3750	-0.061087906
179	0xbe259d9c	-0.16173404
180	0x3c031f08	0.008003004
181	0x3e21a27b	0.15784638
182	0x3a95cc88	0.0011428753
183	0x3eaa83e9	0.33303764
184	0xbe1f8ede	-0.15581843
185	0xbdf038b6	-0.11729567
186	0x3d35e787	0.044410255
187	0x3e5576b6	0.20846066
188	0x3ea507c1	0.32232478
189	0xbe3f777c	-0.18697923
190	0xbd573b2c	-0.052546665
191	0x3d5fe21a	0.054658987
192	0xbbe799e2	-0.007067905
193	0xbbf78b69	-0.007554461
194	0x3ce8c6d8	0.028415129
195	0x3c8ad73e	0.016948339
196	0x3da95435	0.08268014
197	0xbd2110e9	-0.039322767
198	0xbd1d11bd	-0.038346995
199	0x3c2d2b4c	0.010569405
200	0x3d1f840c	0.03894429
201	0x3d3c0261	0.045900706
202	0xbd27f3bb	-0.041003924
203	0x3d9813f5	0.074256815
204	0xbd3a3889	-0.045464072
205	0xbcf7f95f	-0.030270277
206	0xbbd1bac8	-0.00640044
207	0xbbdfcd8c	-0.006829923
208	0xbda93c3b	-0.08263441
209	0x3d00c3df	0.031436797
210	0xbca45cd7	-0.0200638
211	0xbb6c5f11	-0.0036067406
212	0xbd308e54	-0.043104485
213	0x3d8faec3	0.07015755
214	0xbbdcdf5a	-0.006740493
215	0x3db1d68f	0.08683502
216	0x3b98f4e4	0.004667865
217	0xbd2b50f7	-0.04182526
218	0x3d41aea3	0.047285687
219	0x3c64e73c	0.013971146
220	0x3d52a4fe	0.05142688
221	0xbcbfec1d	-0.023428017
222	0xbd0f0434	-0.034916118
223	0xbd4d9cef	-0.05019849
224	0xbcc43b36	-0.023954015
225	0xbcfc6b80	-0.030812979
226	0xbc778348	-0.0151069835
227	0x3c8f8739	0.017520534
228	0x3d9279e9	0.07152159
229	0x3d043687	0.032278564
230	0x3d3b6aeb	0.04575626
231	0xbdf351b4	-0.11880818
232	0x3cade4fe	0.021227356
233	0x3dc13fb1	0.09435976
234	0xbe1d9dd0	-0.15392232
235	0xbf125b82	-0.5717088
236	0xbc5ed09e	-0.013599543
237	0xbcefd99f	-0.029278575
238	0xbcb798e2	-0.022411767
239	0xbbdf8941	-0.006821782
240	0x3ecf4cc5	0.40488258
241	0x3b70582e	0.0036673653
242	0xbb6d3c3a	-0.0036199228
243	0xb62689d8	-2.4816163e-06
244	0x3b2a201c	0.002595908
245	0xbea6b3e8	-0.32559133
246	0xbc7bfdf9	-0.015380376
247	0xbe11fea5	-0.14257295
248	0xbddf7693	-0.10911288
249	0xbc8c92dc	-0.017159872
250	0x3abd9fca	0.0014467177
251	0xbee526de	-0.44756216
252	0x3e82c075	0.25537458
253	0xbd060aa7	-0.032725003
254	0xbbc88ca1	-0.00612028
255	0x3d0da880	0.034584522

bias f4 [32]
0	0x3a921867	0.0011146188
1	0x3d614a07	0.05500224
2	0x3ac41ed3	0.00149628
3	0x3b4cd3ad	0.0031254098
4	0xbbc6eeb8	-0.006070938
5	0xbbd443a1	-0.0064777886
6	0x3ca7f346	0.020501744
7	0xbd102813	-0.035194468
8	0x3d520237	0.051271643
9	0xbd3820eb	-0.044953268
10	0xbd5973e8	-0.053089052
11	0xbbb6a39a	-0.005573702
12	0xbac93893	-0.0015351943
13	0xbb78cc89	-0.003796371
14	0x3ca0695f	0.019581495
15	0x3bcff49d	0.006346299
16	0xbbc9793d	-0.006148486
17	0xbc80ae65	-0.015708158
18	0x3b8f81f1	0.004379504
19	0xbbafd65a	-0.005366129
20	0x3c86ea0d	0.016469026
21	0x3d80ced1	0.06289447
22	0xbd9ee62f	-0.07758748
23	0x3d1b2f09	0.037886653
24	0x3d41c8b7	0.047310557
25	0x3c8ad616	0.016947787
26	0x3a8e3024	0.0010848087
27	0x3c00be83	0.0078579215
28	0xba8f7290	-0.0010944176
29	0xbaa7f660	-0.0012814514
30	0x3c231921	0.009954722
31	0x3d491c5b	0.049099308

weight f4 [128, 32]
0	0x3dbd3410	0.09238446
1	0x3e342b4d	0.17594643
2	0xbdd3cf4a	-0.103422716
3	0xbe2ade4b	-0.1668636
4	0xbdea869e	-0.114514574
5	0xbd240b46	-0.040049814
6	0xbdd1d6b3	-0.10246029
7	0xbdd8a719	-0.10578746
8	0xbd0cb82c	-0.034355327
9	0xbd10eaff	-0.03538036
10	0x3df3b96f	0.11900603
11	0x3c8169a1	0.015797438
12	0xbd76fa51	-0.060297314
13	0xbe17fccc	-0.14842528
14	0xbde4ed85	-0.11178116
15	0xbc640290	-0.013916627
16	0xbdc638fd	-0.096788384
17	0x3d4f929f	0.05067694
18	0x3d2c1e32	0.042020984
19	0xbb8d154d	-0.0043055178
20	0x3b924358	0.0044635944
21	0xbd9ecc96	-0.077538654
22	0xbe14406f	-0.14477704
23	0xbdb1a64e	-0.08674298
24	0x3db831f9	0.089939065
25	0xbd2cd434	-0.04219456
26	0x3ca598ed	0.020214522
27	0x3d110091	0.03540093
28	0x3df476ca	0.1193672
29	0xbdbef51c	-0.09324095
30	0xbdf88057	-0.12133854
31	0xbc2ab86b	-0.010419945
32	0x3d1e22ef	0.038607534
33	0x3e17f251	0.1483853
34	0xbd2e3d54	-0.042538956
35	0xbdaf2ad2	-0.08553089
36	0xbc53fb46	-0.012938326
37	0xbdaa9d53	-0.083307885
38	0xbc6e0c14	-0.014529247
39	0x3d2b5836	0.04183217
40	0x3e08ef19	0.13372459
41	0x3dd145fb	0.10218426
42	0x3db5d605	0.088787116
43	0x3e0d04a4	0.13771302
44	0xbd57112f	-0.052506622
45	0x3c3e9f2f	0.011634632
46	0xbdd7ae5c	-0.10531303
47	0x3c27a668	0.010232545
48	0x3be5732c	0.007002255
49	0xbccc470b	-0.02493622
50	0x3e21db5a	0.15806332
51	0x3d6b012d	0.05737417
52	0xbd99319e	-0.07480167
53	0x3df0be2f	0.11755025
54	0xbe23af68	-0.15984881
55	0xbd95163f	-0.07279634
56	0xbdb38694	-0.08765903
57	0xbd81ef2d	-0.06344447
58	0x3d7f4edb	0.06233106
59	0xbe11a18f	-0.14221786
60	0x3d059392	0.032611437
61	0xbe5bdb3f	-0.21470354
62	0xbe597aa4	-0.2123819
63	0x3d9139c6	0.070910975
64	0xbc6079a7	-0.013700879
65	0xbc55e65e	-0.013055412
66	0xbe00cb61	-0.12577583
67	0xbd6ee5ee	-0.058324747
68	0x3d3aaa8b	0.0455728
69	0x3da9e2ce	0.08295213
70	0xbe06469d	-0.13112874
71	0xbe41faaf	-0.18943284
72	0xbe0d5c5f	-0.13804768
73	0x3dbfc03b	0.09362837
74	0xbd95e184	-0.07318404
75	0x3e02f408	0.12788403
76	0xbce97417	-0.028497739
77	0xbd566b36	-0.052348338
78	0xbe6346fb	-0.22195046
79	0xbe04b519	-0.12959708
80	0x3de37a50	0.11107314
81	0xbd530a01	-0.051523212
82	0x3e4f9a1c	0.20273632
83	0xbd89cba3	-0.06728294
84	0xbde5768c	-0.11204252
85	0x3e433ef2	0.1906698
86	0xbe028dd9	-0.12749423
87	0x3dbd8cfb	0.092554055
88	0x3e6166a8	0.22011817
89	0xbe72107e	-0.23639104
90	0x3e64c551	0.22340895
91	0x3db9f702	0.09080316
92	0xba8dca71	-0.0010817779
93	0xbe402f15	-0.1876796
94	0xbe91c53a	-0.28470784
95	0xbdf12a9c	-0.11775705
96	0xbd718b3a	-0.058970667
97	0xbde9d341	-0.114172466
98	0xbe2a3657	-0.16622292
99	0xbec67a8b	-0.38765368
100	0xbd230957	-0.03980383
101	0x3e3e1456	0.18562445
102	0x3d1d9a5b	0.038477283
103	0xbafcb41a	-0.0019279749
104	0xbdb7e4c7	-0.08979183
105	0x3d0040d5	0.03131183
106	0x3de3ee5f	0.1112945
107	0x3cc4f45e	0.024042305
108	0xbd79c7f8	-0.06098172
109	0xbbe00cd1	-0.0068374653
110	0xbe074ed2	-0.13213661
111	0x3b8b1ede	0.004245623
112	0x3eeca87f	0.46222302
113	0x3e439ad3	0.1910203
114	0x3e845d44	0.25852406
115	0xbe772096	-0.24133524
116	0xbc0ed585	-0.008717899
117	0xbdcf7a2b	-0.101307236
118	0xbd7e4add	-0.062083114
119	0x3d1e61e6	0.038667582
120	0x3cdda6cd	0.027057076
121	0xbebec1d7	-0.37257263
122	0x3d5ad416	0.053424917
123	0xbe05f73f	-0.13082598
124	0x3db1d266	0.086827084
125	0xbe556196	-0.20838007
126	0xbea8d852	-0.3297754
127	0x3e2d8800	0.16946411
128	0xbdaf83ac	-0.08570036
129	0xbc8f33e3	-0.017480796
130	0xba9a9cd1	-0.0011796003
131	0xbe8d6ea5	-0.27623478
132	0xbd885df2	-0.06658544
133	0x3e2396af	0.1597545
134	0xbe05741f	-0.13032578
135	0x3c1c8415	0.009552975
136	0xbce95de5	-0.028487155
137	0x3dab3fb2	0.08361758
138	0x3e411340	0.18855
139	0x3c162fab	0.009166638
140	0xbced0a71	-0.028935643
141	0xbe144cc2	-0.14482406
142	0xbde70d63	-0.1128185
143	0x3e00f0ac	0.12591809
144	0xbbddf6ae	-0.0067737913
145	0x3d16182d	0.03664415
146	0x3e153e0a	0.14574447
147	0xbdf1c7d2	-0.11805691
148	0xbd610668	-0.05493775
149	0xbd2e8c84	-0.042614475
150	0xbdc748ef	-0.09730708
151	0x3c997413	0.018732106
152	0xbd911f99	-0.07086105
153	0xbd434857	-0.04767641
154	0x3b7a8997	0.0038228983
155	0x3c8ba364	0.017045684
156	0x3d54a078	0.051910847
157	0xbd41ed68	-0.04734555
158	0xbe70e260	-0.23523855
159	0xbe2a3846	-0.16623029
160	0x3b9fe465	0.0048795217
161	0x3da90eab	0.08254751
162	0xbe43f45c	-0.19136184
163	0x3d4293e3	0.047504317
164	0xbe2cd62a	-0.16878572
165	0xbd0d0221	-0.03442586
166	0xbdf89470	-0.12137687
167	0xbde52a2c	-0.11189684
168	0xbdd27d84	-0.102778465
169	0xbe2a2fa0	-0.1661973
170	0x3e28c28e	0.16480467
171	0x3cde133b	0.02710878
172	0x3d4baf64	0.049727812
173	0xbdf313d9	-0.1186902
174	0xbd8010db	-0.06253215
175	0x3ebca746	0.3684637
176	0x3dd5951b	0.1042883
177	0x3e1ce918	0.15323293
178	0x3e943262	0.2894469
179	0xbc559ff1	-0.013038621
180	0x3d8026eb	0.06257423
181	0xbdd97b09	-0.1061917
182	0xbeb1a478	-0.34695792
183	0x3dca2bfd	0.09871671
184	0x3e20513a	0.15655985
185	0x3dbda42a	0.092598274
186	0x3dc7692d	0.097368576
187	0xbe3c77f1	-0.18405129
188	0x3deb3e10	0.11486447
189	0x3e003914	0.12521774
190	0x3c6c9521	0.014439852
191	0xbcb23f60	-0.021758735
192	0x3cf94530	0.030428499
193	0xbae43e67	-0.0017413617
194	0xbd004bda	-0.031322338
195	0xbe8f3fb7	-0.27978298
196	0x3dda3f61	0.1065662
197	0x3e4a767d	0.19771762
198	0xbd621335	-0.0551941
199	0xbe427563	-0.18990092
200	0xbdfd6b86	-0.12374024
201	0x3d18e1e9	0.03732482
202	0xbe07f5d5	-0.13277371
203	0xbe157750	-0.14596295
204	0xbd75341b	-0.059864145
205	0xbe2baf5a	-0.1676611
206	0x3c21709d	0.009853509
207	0xbe27e34a	-0.16395298
208	0x3e7a9b16	0.24473223
209	0x3e7692e0	0.24079466
210	0x3e63dc98	0.22252119
211	0xbe5045b0	-0.20339084
212	0x3d99c5bb	0.07508417
213	0xbd9aadb5	-0.07552663
214	0x3ddeca1c	0.10878393
215	0x3d3bd3e1	0.04585636
216	0x3e59d52b	0.21272723
217	0xbe8ddec4	-0.2770902
218	0x3e3a6cad	0.18205519
219	0xbeb5769a	-0.35442048
220	0x3eb5eeba	0.35533696
221	0x3d39a64c	0.04532461
222	0xbe47c62d	-0.19509192
223	0xbb2bd67f	-0.002622038
224	0x3d715019	0.058914278
225	0x3d4ca64d	0.049963284
226	0x3da64f12	0.0812055
227	0xbe4174ba	-0.18892184
228	0x3e54e363	0.20789866
229	0xba9bc25d	-0.0011883486
230	0xbdaeee54	-0.08541551
231	0xbe782ac9	-0.24235071
232	0xba3a2734	-0.00071011786
233	0x3e1f5245	0.15558727
234	0x3d34d1cd	0.044145394
235	0xbd33c8b5	-0.04389258
236	0xbd9d8f86	-0.076933905
237	0xbe3486f2	-0.17629603
238	0xbd4500d7	-0.048096504
239	0xbe88e489	-0.26736858
240	0x3e26e7ad	0.16299315
241	0x3eafd962	0.34345537
242	0x3e5d6f60	0.21624517
243	0xbe227ee9	-0.15868725
244	0xbb3dd041	-0.002896324
245	0xbcf6ddf8	-0.03013514
246	0x3c888e0a	0.016669292
247	0x3e58bd50	0.21165967
248	0xbd8aab07	-0.06770902
249	0xbe3485cc	-0.17629164
250	0xbd1514f1	-0.036396924
251	0xbe4dfbc0	-0.20115566
252	0x3e69d558	0.2283529
253	0xbdc00215	-0.09375397
254	0xbdf59ad9	-0.119924255
255	0xbdf35b75	-0.118826784

bias f4 [128]
0	0xbe693e1e	-0.22777602
1	0xbed9268a	-0.42412215
2	0xbec60e78	-0.38682914
3	0xbe1bac57	-0.15202461
4	0xbe19afd7	-0.15008484
5	0xbef077ae	-0.46966308
6	0xbe57c717	-0.2107204
7	0xbe62bf99	-0.22143401
8	0xbf044c1f	-0.5167865
9	0xbe2ab717	-0.16671406
10	0xbdc1c42e	-0.094612464
11	0xbe26cc93	-0.16288976
12	0xbdcc6445	-0.099800624
13	0xbe977ea5	-0.2958881
14	0xbe6cdddb	-0.23131506
15	0xbdcbfa20	-0.09959817
16	0xbf0a9a45	-0.54141647
17	0xbea096d8	-0.31365085
18	0xbd1f7330	-0.03892821
19	0xbd9f579a	-0.077803805
20	0xbe3cf6b7	-0.18453489
21	0xbe2a48fe	-0.16629407
22	0xbef23652	-0.47307068
23	0xbeb2011d	-0.34766474
24	0xbd0e1f1f	-0.03469765
25	0xbe1e534b	-0.15461461
26	0xbd30c40b	-0.04315571
27	0xbe05e8aa	-0.13077036
28	0xbe32fae9	-0.17478527
29	0xbe11ea3b	-0.14249508
30	0xbe7ae6ab	-0.24502055
31	0xbed09c60	-0.40744305
32	0xbe5a4ce7	-0.21318398
33	0xbf1f5465	-0.6223815
34	0xbe0c1572	-0.13680056
35	0xbe2a2dd2	-0.16619042
36	0xbeaf66f3	-0.34258232
37	0xbef5cba5	-0.4800693
38	0xbe4deb0d	-0.20109196
39	0xbd508a79	-0.050913308
40	0xbed41655	-0.41423288
41	0xbe8b7d31	-0.2724395
42	0xbe6c6c99	-0.23088302
43	0xbe6e2e18	-0.23259771
44	0xbe636bbe	-0.22209069
45	0xbe5ff050	-0.21869016
46	0xbe7d7f39	-0.24755563
47	0xbdc547da	-0.09632845
48	0xbd979a45	-0.074024715
49	0xbe38a8be	-0.1803312
50	0x3d942a79	0.072346635
51	0xbe0b9003	-0.13629155
52	0xbe0b73cd	-0.13618393
53	0xbf19faa2	-0.6014806
54	0xbe61a4e1	-0.22035553
55	0xbe1572e8	-0.14594615
56	0xbe9c5aa9	-0.30537918
57	0xbedc627d	-0.4304389
58	0xbd0b7908	-0.03405097
59	0xbd964fcd	-0.073394395
60	0xbecefec6	-0.40428752
61	0xbe5c500c	-0.2151491
62	0xbe12c55d	-0.143331
63	0xbe8bb296	-0.27284688
64	0xbce0f70f	-0.027461557
65	0xbc0f7c7f	-0.0087577095
66	0xbe650efc	-0.22368997
67	0xbe60fefb	-0.21972267
68	0xbeb8d38b	-0.36098894
69	0xbdf4d4d6	-0.11954658
70	0xbebf6de6	-0.37388533
71	0xbe0c9cf6	-0.13731751
72	0xbea79cb8	-0.32736754
73	0xbeb25a5f	-0.34834573
74	0xbe880f60	-0.2657423
75	0xbe8c5c0f	-0.27413985
76	0xbcd69b3d	-0.02619707
77	0xbca3d150	-0.019997269
78	0xbe9cf4b5	-0.30655447
79	0xbee8d84a	-0.45477515
80	0xbd3e687f	-0.046486374
81	0xbd32c723	-0.043646943
82	0xbdedc866	-0.116104886
83	0xbe38201e	-0.17981002
84	0xbe4bdd75	-0.19908698
85	0xbe587413	-0.21138029
86	0xbd84fbc9	-0.06493337
87	0xbe990acd	-0.29891053
88	0xbe7a8197	-0.24463497
89	0xbe022ea0	-0.12713099
90	0xbe8a7196	-0.27039784
91	0xbdaf86e5	-0.08570651
92	0xbe0ef90d	-0.13962193
93	0xbebe8722	-0.37212473
94	0xbe060a1a	-0.13089791
95	0xbe53c468	-0.20680392
96	0xbe9e0326	-0.30861777
97	0xbd38433c	-0.044985995
98	0xbf2a7355	-0.6658223
99	0xbed1b8b3	-0.40961227
100	0xbda3e1ec	-0.080020756
101	0xbe9250c5	-0.28577247
102	0xbeab1597	-0.3341491
103	0xbe37c129	-0.17944779
104	0xbd952e4c	-0.07284221
105	0xbe8d9f95	-0.27660814
106	0xbe96c04a	-0.2944358
107	0xbd80a206	-0.062809035
108	0xbe1d2f68	-0.15350115
109	0xbe13351b	-0.14375727
110	0xbddbede7	-0.10738736
111	0xbd7133cb	-0.058887284
112	0xbcf193c3	-0.029489404
113	0xbe76d71b	-0.24105494
114	0xbcbeb0bb	-0.023277631
115	0xbeb75f3f	-0.35814855
116	0xbda05861	-0.07829357
117	0xbdb57efe	-0.088621125
118	0xbeef938b	-0.46792254
119	0xbeb3e66e	-0.3513674
120	0xbe8a5bf7	-0.2702329
121	0xbe42ea7d	-0.19034763
122	0xbdf3badf	-0.11900877
123	0xbd6027ae	-0.05472534
124	0xbe59e005	-0.21276863
125	0xbe66f80d	-0.22555561
126	0xbd53fb4e	-0.051753335
127	0xbee76ce9	-0.4520028

weight f4 [32, 128]
0	0xbc4a1203	-0.012333396
1	0x3b51902b	0.00319768
2	0xbbfe885c	-0.00776772
3	0x3c4e9de0	0.0126108825
4	0x3ccb0132	0.024780843
5	0x3d429b0f	0.047511157
6	0xbd27792e	-0.04088705
7	0xbc08cec5	-0.008350079
8	0x3d340806	0.043952964
9	0xbda8c3c4	-0.08240464
10	0x3d523c20	0.05132687
11	0xbc0c7a73	-0.008574116
12	0xbd14a040	-0.03628564
13	0x3dba30d0	0.090913415
14	0xbc11ff3f	-0.008910953
15	0x3d3d3372	0.04619164
16	0x3d17fd5f	0.037106868
17	0xbc9edffe	-0.019393917
18	0xbd03a656	-0.032141052
19	0xbdd0ba62	-0.101918
20	0x3cb05370	0.021524161
21	0xbd115c66	-0.03548851
22	0xbc0d13dd	-0.008610693
23	0xba9e8074	-0.0012092725
24	0xbab8eaa3	-0.0014108013
25	0xbd8a1e8c	-0.067441076
26	0xbd9ce523	-0.07660892
27	0xbc2839f1	-0.010267721
28	0xbd94f3e8	-0.07273084
29	0xbc334d55	-0.01094373
30	0x3ba532f2	0.0050414735
31	0x3c899324	0.016793795
32	0xbdb6874c	-0.089125246
33	0xbca1e5b2	-0.019762848
34	0xbe3b7ff1	-0.18310525
35	0x3ccd5199	0.025063323
36	0xbc04b88c	-0.00810064
37	0x3bf5f656	0.007506172
38	0x3c8e6c6e	0.017385688
39	0x3cfdb8b2	0.030971859
40	0x3db61a24	0.08891705
41	0xbbc91f20	-0.0061377436
42	0xbc5fe858	-0.013666235
43	0xbd620d7a	-0.055188634
44	0xbcecac03	-0.028890615
45	0x3bf13763	0.007361339
46	0xbd48b845	-0.049003858
47	0xbd758231	-0.059938613
48	0xbcc22e88	-0.023703828
49	0xbc9edee1	-0.019393386
50	0x3b14be52	0.0022696448
51	0x3d4eb987	0.0504699
52	0xbc09ab03	-0.008402589
53	0x3c97812b	0.01849421
54	0xbdcea553	-0.10090127
55	0xbdd2026c	-0.10254368
56	0xbdc6c239	-0.09705014
57	0x3b6d8658	0.0036243405
58	0xbc14a351	-0.009072141
59	0xbbec73a6	-0.007215935
60	0x3c8a93bc	0.016916148
61	0x3d9a62cf	0.075383775
62	0xbd2278cf	-0.039665993
63	0x3cf84df0	0.030310601
64	0xbc645a6a	-0.013937572
65	0x3cc93777	0.02456258
66	0xbd107ba7	-0.035274174
67	0xbd5895b7	-0.052877154
68	0x3cf289a4	0.029606648
69	0xbd8bee66	-0.0683258
70	0xbd3faef9	-0.046797726
71	0xbd390af7	-0.045176473
72	0x3d290b5c	0.0412706
73	0xbd18050b	-0.037114184
74	0xbcaf9bd9	-0.021436619
75	0xbc64e96c	-0.013971668
76	0xbde34ac8	-0.11098248
77	0xbded4a59	-0.11586446
78	0xbc901cde	-0.01759189
79	0xbca7a6fe	-0.02046537
80	0xbd526998	-0.051370233
81	0xbe3b179e	-0.18270728
82	0x3da53dc4	0.080684215
83	0x3c02781c	0.007963207
84	0x3b879320	0.0041374117
85	0xbd073004	-0.033004776
86	0xbb532ed6	-0.0032223961
87	0xbc9d47ba	-0.019199241
88	0xbda9e574	-0.08295718
89	0x3d4ec93f	0.050484892
90	0x3d4c527e	0.04988336
91	0xbd2cb4fa	-0.04216478
92	0xbcdad378	-0.026712164
93	0xbb0128da	-0.0019708187
94	0x3c2c4cf0	0.01051639
95	0xbbb38e47	-0.0054796073
96	0xbe052668	-0.13002932
97	0x3d6dd989	0.058068786
98	0x3c1439cd	0.009046984
99	0x3cb6f0e7	0.022331668
100	0xbd7c75ee	-0.061635904
101	0xbd16afe9	-0.036788855
102	0x3c45e81d	0.012079266
103	0xbc9c9b50	-0.019117028
104	0xbd381942	-0.044945963
105	0x3cecab52	0.028890286
106	0x3d014c3a	0.031566836
107	0xbdd1e680	-0.102490425
108	0xbab89b6c	-0.0014084405
109	0x3d5daefb	0.054121953
110	0xbc4bbfa7	-0.01243583
111	0x3cb77f09	0.022399442
112	0x3b0f8f9f	0.0021905673
113	0x3c9dbf47	0.019256247
114	0x3da9b68b	0.082867704
115	0xbc7a502f	-0.015277906
116	0x3d59e873	0.053200196
117	0xbaac2520	-0.0013133623
118	0x3c40fb2f	0.011778637
119	0x3b6cefc8	0.0036153663
120	0x3c52ef2c	0.012874406
121	0xbcd9c7e9	-0.026584582
122	0xbce2850e	-0.027651336
123	0xbb430a8f	-0.0029760932
124	0xbd961261	-0.07327724
125	0xbd068bcf	-0.032848176
126	0xbd53bada	-0.051691867
127	0x3c7c858c	0.015412699
128	0x3c6803d7	0.014161072
129	0x3b3f0955	0.002914985
130	0x3e929656	0.28630322
131	0x3e12ea5e	0.14347216
132	0xbd0a67c2	-0.033790357
133	0x3dca82be	0.09888218
134	0x3d975498	0.07389182
135	0x3e03e6a9	0.12880959
136	0xbe054f97	-0.13018642
137	0x3d8c4f3d	0.06851051
138	0x3c128916	0.008943817
139	0x3d43bdc5	0.0477884
140	0x3e21253f	0.15736865
141	0x3d758890	0.05994469
142	0xbd0dc3d4	-0.034610584
143	0xbde7fb41	-0.1132722
144	0xbd2ffeba	-0.042967536
145	0xbf113915	-0.56727725
146	0xbcfa6382	-0.030565027
147	0x3cd7086f	0.026249139
148	0x3e1760f4	0.14783078
149	0x3da7d1d4	0.081943184
150	0x3e827958	0.25483203
151	0xbbbaec84	-0.0057044644
152	0xbd90934e	-0.07059346
153	0xbcc1d11b	-0.02365928
154	0x3d2af785	0.04173996
155	0xbe3b412f	-0.18286584
156	0x3dce0a97	0.100606136
157	0x3eb4764b	0.352465
158	0xbd9a2997	-0.07527464
159	0x3d82568c	0.06364164
160	0x3c12d8d8	0.008962832
161	0x3f37abfb	0.71746796
162	0x3d9592f1	0.073034175
163	0xbd814a69	-0.06313021
164	0xbeb6bfeb	-0.35693297
165	0x3dab5f26	0.083677575
166	0xbef59def	-0.47972056
167	0x3d8f0c3c	0.069847554
168	0x3dc9dbe3	0.09856393
169	0x3e1ad0ad	0.15118666
170	0xbe97bd7e	-0.2963676
171	0xbd9bdae6	-0.07610111
172	0x3da4ded1	0.08050311
173	0xbc34845d	-0.011017886
174	0x3d9be9ef	0.07612979
175	0x3e354bc0	0.17704678
176	0xbd0c8914	-0.034310415
177	0x3eec226e	0.46120018
178	0x3ca7a736	0.020465475
179	0x3d44b2c9	0.048022065
180	0x3e956002	0.2917481
181	0xbe501fdc	-0.20324653
182	0x3d9832d0	0.07431567
183	0xbcd53d8c	-0.026030324
184	0x3dc09fd3	0.09405484
185	0x3f336a20	0.7008381
186	0xbe03de08	-0.12877667
187	0x3cc58903	0.024113184
188	0x3dc7b44c	0.09751186
189	0x3d8b7182	0.06808759
190	0x3e9b74be	0.30362505
191	0x3d669249	0.056291852
192	0x3df72f02	0.12069513
193	0x3db944a5	0.09046296
194	0x3b869364	0.004106926
195	0xbd8be30c	-0.06830415
196	0x3e2482ed	0.16065569
197	0x3d2345f7	0.039861646
198	0xbb91be98	-0.0044477694
199	0x3cd454a4	0.025919266
200	0xbd9a6f68	-0.0754078
201	0xbd4a66f2	-0.049414583
202	0x3f30b65f	0.69028276
203	0xbe067697	-0.13131176
204	0x3d6ef63d	0.0583403
205	0x3d88c477	0.06678098
206	0x3ea262c1	0.31715968
207	0x3def3663	0.11680295
208	0x3d937483	0.07199957
209	0x3efc8094	0.49316847
210	0x3d7d0b62	0.061778434
211	0x3e34f64c	0.1767208
212	0x3e170188	0.14746678
213	0xbcdbf4aa	-0.026850063
214	0xbddeffce	-0.108886346
215	0x3eb6d7e7	0.35711595
216	0x3e0c979c	0.1372971
217	0x3cb973d5	0.02263824
218	0x3c8387cb	0.016055962
219	0xbd3b814e	-0.04577761
220	0x3e40fd9d	0.18846746
221	0xbd80f819	-0.06297321
222	0x3ce91c7f	0.02845597
223	0xbdd86254	-0.105656296
224	0x3d8e3632	0.06943931
225	0xbca0dca5	-0.019636462
226	0xbed24fb7	-0.41076443
227	0xbc882a9f	-0.016621886
228	0xbce454ad	-0.027872408
229	0x3eaca2b7	0.33717892
230	0x3d2ff34c	0.042956635
231	0xbe3fc177	-0.18726145
232	0x3dc77a86	0.09740166
233	0xbd9c1438	-0.07621044
234	0x3ca5867a	0.020205725
235	0x3bc1c4d7	0.0059133577
236	0xbe3a80ad	-0.18213148
237	0x3e6bb843	0.23019509
238	0xbc521d42	-0.012824358
239	0x3cbb6d47	0.022879256
240	0x3d187694	0.03722246
241	0xbe0dcbfd	-0.13847347
242	0xbd405c8a	-0.046963252
243	0x3e2e0173	0.1699274
244	0xbd4966f1	-0.04917044
245	0xbd72db29	-0.05929104
246	0xbd5e9e7e	-0.05435037
247	0x3da4942a	0.080360726
248	0x3e691e26	0.22765407
249	0xbd0c1ceb	-0.034207266
250	0x3b82addd	0.0039880113
251	0x3bce689b	0.006299091
252	0xbdd693c8	-0.10477406
253	0xbdf5a7b5	-0.11994878
254	0x3e28d9a7	0.16489278
255	0xbd49c229	-0.04925743

bias f4 [32]
0	0x3951bed2	0.0002000288
1	0xbc5a5d4b	-0.013327907
2	0x3c1049ad	0.008806628
3	0x3b072b95	0.0020625342
4	0xbc273917	-0.010206482
5	0x3cd3067e	0.025759932
6	0xbbc8c975	-0.006127531
7	0x3cab630e	0.020921256
8	0x3cfa2907	0.030537141
9	0xbc99f5d5	-0.01879398
10	0x3cd31e42	0.025771264
11	0x3baebc66	0.0053325174
12	0xbc0e2c2f	-0.008677526
13	0xbd53fbf1	-0.051753942
14	0xbc0592ff	-0.008152722
15	0xbc0f64b2	-0.008752035
16	0x3cf12e55	0.029441038
17	0xbc0cae9b	-0.008586551
18	0xbd3e16f1	-0.046408597
19	0x3bec2bad	0.007207355
20	0x3b9d3be6	0.0047984
21	0xbd9014af	-0.07035195
22	0xbc2c5efa	-0.010520691
23	0x3c98f7a0	0.018672764
24	0xbc84cf25	-0.016212055
25	0xbd3762b0	-0.04477185
26	0xbcaa5090	-0.020790368
27	0x3c383a51	0.011244372
28	0x3ab82d46	0.0014051578
29	0x3c10a74e	0.008828951
30	0x3c636a64	0.013880346
31	0x3d924030	0.07141149

weight f4 [32]
0	0x3f778516	0.9668745
1	0x3ee135a0	0.43986225
2	0x3f1f2183	0.6216051
3	0x3fe1233b	1.7588876
4	0x3f909f58	1.1298628
5	0x3db1a2fe	0.086736664
6	0x3f952116	1.1650722
7	0x3f416249	0.75540596
8	0x3e862e71	0.26207307
9	0x3f350405	0.7070926
10	0x3f13c644	0.57724404
11	0x3fad3246	1.3530967
12	0x3f7ad1d7	0.9797644
13	0x3f13fbf9	0.57806355
14	0x3f8f9a9e	1.121906
15	0x3efcec0d	0.49398842
16	0x3f84eadf	1.0384177
17	0x3f8689c1	1.0510789
18	0x3f99f7ba	1.2028725
19	0x3f816c4a	1.0111172
20	0x3f20c24b	0.6279647
21	0x3ece2819	0.40264967
22	0x3eaebf23	0.341302
23	0x3f0711fe	0.5276183
24	0x3f703b98	0.9384093
25	0x3f236300	0.63822937
26	0x3f82bd31	1.0213987
27	0x3f1a1ffc	0.60205054
28	0x3fbcc2e7	1.474698
29	0x3f9d0314	1.2266564
30	0x3fa95865	1.3230101
31	0x3f226a76	0.63443696

bias f4 [32]
0	0x3ec1f821	0.3788462
1	0xbdde8ff6	-0.10867302
2	0xbd9f2969	-0.0777157
3	0xbd6f578c	-0.0584331
4	0xbe0f5859	-0.13998546
5	0x3def9c65	0.11699752
6	0x3d7a9a46	0.061182283
7	0x3d637122	0.055527814
8	0x3e0c8945	0.13724239
9	0xbcdff4ae	-0.027338352
10	0xbb5978cc	-0.0033183573
11	0xbe21b63a	-0.1579217
12	0x3e018e3b	0.12651913
13	0xbd9d11fb	-0.07669445
14	0xbda399ee	-0.07988344
15	0x3d9a8c8c	0.075463384
16	0x3e166382	0.14686397
17	0xbdddb90a	-0.10826309
18	0xbde2457f	-0.110484116
19	0xbd8c332b	-0.06845697
20	0xbe3e2f78	-0.18572795
21	0x3e31c539	0.1736039
22	0x3cd2d2a6	0.02573521
23	0xbe35ee37	-0.17766653
24	0xbea3d449	-0.31997898
25	0xbd574e9e	-0.05256521
26	0xbe195ab8	-0.14976013
27	0x3eb8c19b	0.3608521
28	0xbe115ea5	-0.1419626
29	0xbead6660	-0.33867168
30	0xbedc8289	-0.4306834
31	0xbe02b008	-0.12762463

weight f4 [32]
0	0x3fd82357	1.6885785
1	0x3f7e522d	0.9934414
2	0x3fc27c04	1.5194097
3	0x3fbdb883	1.4821934
4	0x3f904d19	1.1273528
5	0x3f010077	0.50391334
6	0x3f8b4b83	1.0882419
7	0x3f6addec	0.91744876
8	0x3f5d1a7a	0.86368525
9	0x3f8ef2ac	1.1167808
10	0x3f2ff8e2	0.6873914
11	0x3fac22d6	1.3448131
12	0x3f8b7fb9	1.0898353
13	0x3f8113d7	1.008418
14	0x3f680792	0.9063655
15	0x3f8f42c5	1.1192251
16	0x3f68523e	0.9075049
17	0x3f80c8cd	1.006128
18	0x3f87e672	1.0617201
19	0x3f9cf28f	1.2261523
20	0x3f80431e	1.0020483
21	0x3f8c8ac0	1.0979843
22	0x3f4cfcf7	0.80073494
23	0x3f87da9a	1.0613587
24	0x3f01abfa	0.5065304
25	0x3f523836	0.8211702
26	0x3f84f327	1.0386704
27	0x3f592159	0.8481651
28	0x3f9d8388	1.2305765
29	0x3fc52770	1.540266
30	0x3fa88cc6	1.3167961
31	0x3f7e4331	0.99321276

bias f4 [32]
0	0x3e8c5b6c	0.274135
1	0x3d9a2d20	0.07528138
2	0x3a40a295	0.00073484454
3	0xbeddf1f6	-0.43348664
4	0xbc10e39c	-0.008843329
5	0xbd853235	-0.06503717
6	0x3cb814e4	0.022470899
7	0xbdcd219f	-0.10016178
8	0xbe01b785	-0.12667663
9	0x3e5de71c	0.21670192
10	0x3db893fd	0.090126015
11	0xbd3ba851	-0.045814816
12	0x3d0108ad	0.031502414
13	0xbbfa0fd6	-0.0076312823
14	0xbe95cfd3	-0.2926012
15	0xbd986649	-0.07441384
16	0x3f0dbf4e	0.5537003
17	0x3e1673cd	0.14692612
18	0x3f32b6ad	0.6980999
19	0xbe0c2901	-0.13687517
20	0x3ced08b3	0.028934812
21	0x3d23f972	0.04003281
22	0x3d7cb187	0.06169274
23	0x3e160bdb	0.1465296
24	0x3e8ba774	0.27276194
25	0xbc8c9be5	-0.01716418
26	0x3d002370	0.031283796
27	0x3d1e58a4	0.038658753
28	0x3eeeea48	0.46663117
29	0xbd46f3a3	-0.048572194
30	0xbf15f30e	-0.58574
31	0xbd1cc290	-0.038271487
