nets/transformer_default_outbending.pt (torch, 248288 bytes, 42 tensors)

weight f4 [32, 5]
000000 4f 44 48 be c8 f2 e3 3d ea 17 bc be 3f 62 89 3e
       -0.19557308 0.11130291 -0.36736995 0.26832768
000010 a6 42 b1 3e 44 fd 77 bd 03 6a 28 bd c9 05 db bd
       0.3462116 -0.060544267 -0.041116726 -0.10694463
000020 f3 a2 3d 3e 8e 52 c2 bd db 5e 4c bd 8d e4 80 be
       0.18519191 -0.09488402 -0.04989515 -0.2517437
000030 ef ac b3 3e 5b 79 52 3d 72 82 01 be 3d b1 cb 3c
       0.35092875 0.051385265 -0.12647417 0.024864787
000040 92 25 c4 3d 6e ed 9c bd 7d ea 84 bd a9 23 4f 3e
       0.095774785 -0.076624736 -0.064900376 0.20228447
000050 c1 49 73 bc cb 3e 5e bd 78 4f f7 3d 46 3f bd bd
       -0.014849127 -0.054259103 0.12075704 -0.09240584
000060 44 08 ba 3d b3 55 85 bd 60 ba 1e 3f b0 68 09 bf
       0.09083608 -0.065104865 0.62003136 -0.53675365
000070 be 62 54 3d 0a ad 27 be 65 b9 8a bd c6 bb a9 3e
       0.05185198 -0.16374603 -0.067736425 0.33151072
000080 8e 86 97 3d c8 66 01 3e 2f 88 0d 3e 7a dd 87 bd
       0.07398711 0.12636864 0.13821481 -0.0663404
000090 8a 9f dc 3c c1 56 a6 bd f2 88 c6 3d 76 11 55 bd
       0.026931543 -0.08122016 0.09694089 -0.052018605
0000a0 3c bc 33 bd 3b 3b 28 bf 02 63 14 3f 97 25 d6 3d
       -0.043880686 -0.6571538 0.57963574 0.104563884
0000b0 f3 18 a4 3c c9 51 c1 bd e1 fd 08 bf c3 be 80 bd
       0.020031428 -0.094394274 -0.5351239 -0.06286385
0000c0 fc 91 0f be 85 4f 42 3e 73 cb 1f bd d1 01 c7 bc
       -0.14020532 0.18975647 -0.039012384 -0.024292858
0000d0 8c 11 1e 3e 60 37 1d be 26 93 2e 3e da 6f 7f bd
       0.15436381 -0.15353155 0.1704832 -0.06236253
0000e0 84 6c 38 3e a0 93 a9 be d6 5b 2e 3e fe e9 dd bd
       0.18010145 -0.3312044 0.1702722 -0.10835646
0000f0 25 6a 6d bd df df f0 be bc 74 2b 3f 6c c6 53 be
       -0.057962555 -0.470458 0.66975 -0.2068116
000100 90 90 ad be c1 10 70 bd 6f be 40 3e 3b f0 53 bd
       -0.33899355 -0.058609728 0.18822645 -0.051742774
000110 6c 48 e2 3d 13 26 aa be 9d 90 f5 bc 34 2e 82 be
       0.110489696 -0.33232173 -0.029976184 -0.25425875
000120 01 4d 50 be 3d ef c7 3e 8f 25 a8 3e fb d7 df bc
       -0.20341875 0.39049712 0.32841155 -0.027324667
000130 9e 55 8e be 70 e7 9b be 8b 6e 89 3e c0 59 aa be
       -0.27799696 -0.3045001 0.2684215 -0.332716
000140 c1 b0 27 bd ab 31 ed bb 5b dc 1a 3e ad f8 51 be
       -0.04094005 -0.007238587 0.15123121 -0.20505019
000150 25 e9 30 3e 5b 43 38 bd 7e f8 65 3d fc 45 7d be
       0.17276438 -0.04498611 0.056145184 -0.24733728
000160 01 fb a0 3e 7b a9 33 3f 45 0b af bd 5e 46 1d bf
       0.314415 0.7018048 -0.08547071 -0.61435497
000170 02 70 28 3f c6 88 09 bd 2f fc 2b 3d bf 7f 41 bd
       0.6579591 -0.033577703 0.041988548 -0.04724097
000180 77 04 82 be 73 3b 2b 3e 43 db cd 3d 96 27 3f bd
       -0.2539403 0.16721897 0.100515865 -0.04666861
000190 c4 d2 cc bd 6c eb 6e 3e cd de da 3d ec 74 af be
       -0.10001138 0.23331994 0.10687027 -0.34268892
0001a0 36 9f 90 bf ec d1 8c bd 2d 07 57 be 27 98 3e 3d
       -1.1298587 -0.06875977 -0.20998831 0.046531823
0001b0 15 92 0b 3e c7 ac 9c bd 4c 34 3e bd 96 06 57 3e
       0.13629945 -0.07650142 -0.046436593 0.20998606
0001c0 dc 12 5b 3c 41 b5 95 be 00 cd 71 3e 1c 61 5d bd
       0.013371196 -0.29239848 0.23613358 -0.05404769
0001d0 fb 87 51 3d 08 39 e5 bd a6 11 86 3d 5a 94 51 bb
       0.05115507 -0.111925185 0.06546335 -0.0031979294
0001e0 76 53 9d bd 91 b4 d6 bb 0a 97 03 3e 5a 50 07 be
       -0.076819345 -0.006552287 0.12850586 -0.13214245
0001f0 03 1f 12 3e 98 98 75 bd e3 7d 34 3f 65 68 26 be
       0.14269643 -0.059959978 0.7050459 -0.16250761
000200 85 5d 1c bf 78 0f fa 3e 72 d4 80 bd ca c3 87 3e
       -0.610802 0.48839927 -0.06290521 0.26516563
000210 3b f8 d4 bd 35 d1 43 be f7 95 31 3e 81 43 50 bd
       -0.10398909 -0.19122775 0.17342363 -0.050845627
000220 0e 37 fc 3e 1d c6 50 bf 08 84 bb 3e ea 1d 8d be
       0.49260753 -0.81552297 0.3662417 -0.27561885
000230 fa a5 c8 bd 1f e7 be be a9 ed 3d 3e 44 3b 7c 3e
       -0.097972825 -0.37285706 0.18547691 0.24631983
000240 37 7e e4 3e 7f 68 76 bd 50 b9 68 3e cf d5 81 be
       0.44627544 -0.06015825 0.22726941 -0.25358436
000250 09 f5 8f 3d 54 98 cc be a7 30 46 bd 80 5d 05 bf
       0.070291586 -0.39959967 -0.048386242 -0.52095795
000260 08 c6 cb 3e d6 ea 0e 3e 9f 29 98 bd 56 5f 3e bd
       0.39799523 0.1395677 -0.074298136 -0.04647764
000270 26 55 88 3e 6e 1e 5a be e6 b1 cc bc 5f ea bc bd
       0.26627463 -0.2130067 -0.024987172 -0.0922439

bias f4 [32]
000000 d4 21 a6 3e f0 29 d2 3b 7d 18 a5 be 19 d9 fc 3e
       0.32447684 0.0064136907 -0.32245246 0.49384382
000010 af be 8f 3c 99 ff 3c bf d9 ad 69 bf e1 d0 59 be
       0.01754698 -0.7382751 -0.91280895 -0.21271087
000020 13 02 a7 3e 70 ba 47 3e f9 04 25 bd 7b c0 48 3c
       0.3261877 0.19504714 -0.040287945 0.012252922
000030 46 19 1a bf 78 7f b5 3e 30 0d a7 3e a7 77 41 bf
       -0.60194814 0.35448813 0.3262725 -0.755732
000040 48 26 20 3c 90 4e 5d 3f 30 71 29 3e b4 69 80 3a
       0.009774752 0.86448 0.16547084 0.0009797127
000050 b4 79 44 3e 55 e0 3e 3c 2e ae a4 3d ec 4b 91 3d
       0.19187051 0.011650165 0.08041035 0.07094559
000060 8c c8 a5 3b 8c a8 40 3e 7e a1 6a b9 35 08 f6 bd
       0.0050593074 0.18814296 -0.0002237614 -0.12013284
000070 9e 3e c4 3e 4f 1f 4c 3f 20 2b c2 3d 09 3b eb bd
       0.38329023 0.79735273 0.09480882 -0.114858694

in_proj_weight f4 [96, 32]
000000 93 6d 83 bd a4 e4 57 3f 5d cc 1c 3e 88 c7 84 be
       -0.06417384 0.8433325 0.15312333 -0.2593348
000010 9b ba 16 be 93 2f 46 3f be 0d 39 3f a1 b5 cb 3e
       -0.14719622 0.7741634 0.72286594 0.3978701
000020 60 1a 1a bd f5 3d 53 3e 0a 0b 35 3f 6c f4 59 3e
       -0.03762281 0.20629103 0.7071997 0.21284646
000030 4e 94 b2 3e 64 96 46 3d 6f 7f bf be 05 9a a4 3e
       0.34878772 0.048483267 -0.37401912 0.32148758
000040 81 29 6d 3d a2 84 86 be 69 5d 3b bd 5c 04 c7 3e
       0.05790091 -0.26273066 -0.04574338 0.38870513
000050 e3 73 4a bf 73 90 80 3e 40 2b 63 bf ca 52 84 3e
       -0.7908308 0.25110206 -0.8873787 0.25844413
000060 d3 e4 4e 3f 1a e9 b7 3d d8 20 09 3e b8 b9 02 3f
       0.8081791 0.089800075 0.13391435 0.51064634
000070 12 68 97 bd d5 5d ac bf d0 56 11 3e 48 d7 eb bd
       -0.07392897 -1.3466135 0.14193273 -0.11515671
000080 73 16 ce bd 22 bb 1c 3e 81 98 83 3e f6 b1 aa be
       -0.100628756 0.1530576 0.2570229 -0.33338898
000090 43 79 9c bd 67 14 dc 3e 12 45 42 3f c9 67 64 3e
       -0.07640316 0.42984316 0.7588664 0.22305216
0000a0 76 67 58 3e 9e 68 8d be f4 76 55 3e 1e 51 31 3e
       0.21133217 -0.2761888 0.20846158 0.173161
0000b0 1a d5 70 be bf 79 05 be df c7 da bc 7c 44 1e 3e
       -0.23518792 -0.13034724 -0.026706634 0.15455812
0000c0 ab dd 03 be a0 46 00 3e ee 9a 92 be 2e 21 09 3d
       -0.12877528 0.12526941 -0.28633827 0.03347891
0000d0 84 53 22 bf 5c 36 8f 3d be de 60 be 7a 66 a2 be
       -0.63408685 0.0699279 -0.2195997 -0.31718808
0000e0 59 be 13 3d 44 50 3e 3c 7d a8 59 bb 57 2f a7 3e
       0.0360702 0.0116158165 -0.0033212 0.32653305
0000f0 ad 3e 50 3e 87 5b 3a bf 9d cd 4f 3e a4 7b 89 bd
       0.20336409 -0.7279591 0.20293279 -0.06713036
000100 2b a7 dd bd df 01 c0 bd 6b 17 5b be 54 f7 30 3e
       -0.108229004 -0.09375357 -0.21395652 0.17281848
000110 bc f2 59 bd 92 33 c1 be 2c 4f d8 be 6c 87 58 be
       -0.053210005 -0.37734658 -0.42247903 -0.2114541
000120 aa e3 1d be c5 7d 97 be 95 dc 05 be 3e 32 96 3e
       -0.15418878 -0.29588142 -0.13072427 0.29335207
000130 05 94 2a be 6f 80 c6 3e 7c 3d 19 be 44 38 77 be
       -0.16658027 0.38769862 -0.1496486 -0.24142557
000140 e8 c7 5c 3e 1f bc cd 3d 33 de 55 3e 92 a2 30 3e
       0.21560633 0.10045647 0.20885544 0.17249516
000150 df bc 5c 3f dd 89 61 3d 61 ce 53 3f bc ae 76 3e
       0.86225694 0.055063117 0.82736784 0.24090093
000160 ad 2b 36 bd d6 08 51 bc ec ce 13 3e 64 4e e8 bd
       -0.044475246 -0.012758454 0.14434403 -0.11343077
000170 9a 30 aa bd 20 d2 8d 3f f8 4e e8 bd 21 ab 7e 3e
       -0.08310051 1.107975 -0.11343187 0.24869968
000180 39 ab 18 bf 0f d1 dd 3e 66 9a 9f 3e fd 56 1d bf
       -0.59636265 0.43323562 0.31172484 -0.6146086
000190 1f f4 c5 bc 12 78 9c 3e 38 71 6b 3e e2 dc 9a bd
       -0.024164258 0.30560356 0.22992408 -0.07561661
0001a0 1b 97 f1 be 3f 80 c1 3e 5a 18 ef 3e 87 90 bd 3e
       -0.47185597 0.37793157 0.46698266 0.37024328
0001b0 93 0b bf 3e 6c e1 02 be 30 01 26 bf e5 be c1 3e
       0.37313518 -0.12781304 -0.6484556 0.37840953
0001c0 5c fb b2 3e 6f 13 27 bf 27 3e 97 3e 56 dd f0 3e
       0.34957397 -0.6526403 0.29539606 0.47043866
0001d0 ab 26 5f 3e a0 25 ef 3e 31 9f ca 3d a8 2d 3b 3f
       0.21792094 0.46708393 0.098936446 0.7311654
0001e0 ff 1b 4f 3e 34 1d 9a be fc b4 88 3e 10 30 1b 3f
       0.20225523 -0.30100405 0.2670058 0.6062021
0001f0 d7 d5 a8 bd 5d 37 0f be ea 5d 74 3e 62 92 f8 3e
       -0.08243912 -0.13985963 0.2386395 0.4854918
000200 c3 c9 30 3d 21 66 4c be 45 1e cc 3d 0e 2b f3 bd
       0.043161165 -0.19960834 0.09966711 -0.118734464
000210 3e e0 ae 3e ac 5a 9f be 21 01 2e bf 42 91 76 bd
       0.34155458 -0.31123865 -0.6797047 -0.060197122
000220 92 4e be bd 39 6c 05 3c 2a c8 c4 bd ec 6e 9b 3d
       -0.0929233 0.008143478 -0.09608491 0.07589516
000230 0d ea 86 3e e2 33 d0 bd 24 5e 1d 3e 83 47 10 3b
       0.26350442 -0.10166146 0.15367943 0.002201528
000240 68 66 0b 3d 54 3d e1 bd 40 ec 2a 3e 38 00 bc bd
       0.03403321 -0.109980255 0.16691685 -0.09179729
000250 4e 8e d2 3e a6 82 23 be 39 c8 68 3e af 62 68 3e
       0.41124195 -0.15967807 0.22732629 0.22693895
000260 11 14 f6 bd 42 65 f8 bd d4 c4 85 3d 61 4c b4 bd
       -0.12015546 -0.121286884 0.065316826 -0.088036306
000270 f5 2b 90 be 11 81 17 3f f5 8d d7 bc 08 ef 5b 3d
       -0.28158537 0.59181315 -0.026312808 0.053694755
000280 75 77 42 bc 04 81 73 3d 90 e5 88 3d e5 5a 8f be
       -0.011869301 0.05944921 0.066844106 -0.27999035
000290 5a 03 e4 be df 90 df 3e ae d2 26 3f 8f 84 9e 3e
       -0.44533807 0.43665215 0.6516522 0.3096051
0002a0 6e 76 04 3d a7 47 dc 3d 7e 35 a7 3e a6 28 6d be
       0.032339506 0.10755854 0.32658 -0.23160037
0002b0 eb 40 0e 3e b7 2d 95 be 13 43 42 be a5 79 ef 3d
       0.13891952 -0.2913644 -0.189709 0.11693124
0002c0 4a d9 14 be 31 c3 80 bd 9f 24 8e bd 58 b8 f1 3d
       -0.14536014 -0.0628723 -0.06940579 0.11802739
0002d0 7c 9d 2d bf ce 90 2a 3d 37 d3 7e bf e9 0f 9e be
       -0.6781843 0.041642003 -0.9954104 -0.30871513
0002e0 03 fc 76 3e a4 3c 42 3d 78 7f 8b be 01 1f 63 3e
       0.24119572 0.047421113 -0.27245688 0.22179796
0002f0 4f 68 e9 bc 7d 71 ad bf 45 9e 38 3d 9e aa 8b be
       -0.028492121 -1.3550259 0.045072813 -0.27278608
000300 6c 53 ec bd 3a 9d 98 be 14 18 fc bd b0 d9 f4 3e
       -0.11539349 -0.29807454 -0.1230928 0.47822332
000310 07 32 87 3d d3 4a 15 bf d4 bb 3f bf 98 6c 88 be
       0.06601339 -0.583173 -0.7489598 -0.2664535
000320 34 8e 77 3e 22 34 d6 3e a5 a7 2e be f3 bf 9b be
       0.2417534 0.4183665 -0.17056139 -0.30419883
000330 b5 e8 81 bd a0 0a 59 3c 2a 82 ea 3e 32 29 3a be
       -0.063432135 0.013247162 0.45802432 -0.18179777
000340 60 c0 70 be 14 42 0b 3e 31 b7 52 3e 13 f8 5b be
       -0.23510885 0.13599426 0.20577694 -0.21481352
000350 01 5c e0 3e d9 ae 93 bd 71 c0 20 3f 54 e2 cf 3c
       0.43820193 -0.07211084 0.6279364 0.025376476
000360 a9 7b 9a bc 3b f6 3c 3e db 32 3c 3d f7 f2 75 be
       -0.018857794 0.18453304 0.045946937 -0.24018465
000370 d1 45 82 bd b3 5b 85 3f 4a 7a 52 be 2b 86 61 bd
       -0.06360973 1.0418609 -0.20554462 -0.055059593
000380 ad d2 02 3e 00 67 5e 3d c9 aa 71 3d 81 d3 cd bd
       0.12775679 0.054297447 0.059000764 -0.10050107
000390 0d ea 51 be 6d f0 d2 3e d9 4a bb 3e 7f 49 c8 bb
       -0.2049944 0.41199055 0.36580542 -0.006112277
0003a0 de 38 0e 3d 12 8d b9 be e8 63 d3 3d 63 de a5 3d
       0.0347222 -0.3624044 0.1032179 0.080990575
0003b0 30 2c 34 be b1 cd b0 3e e3 50 bf bd 5b e4 2b be
       -0.17594981 0.3453193 -0.093416 -0.1678633
0003c0 4c 3a 27 be 73 39 71 3d 2f 68 f8 be a5 24 b5 be
       -0.16330832 0.05889268 -0.48516986 -0.3537952
0003d0 53 94 23 bf dc 12 30 bd 52 e1 31 be bc 1f 2a bd
       -0.638982 -0.042986736 -0.17371109 -0.04153417
0003e0 61 8e 29 3e 69 b7 3c 3d 57 53 64 bd 61 46 cd bd
       0.1655822 0.04607335 -0.05574354 -0.10023189
0003f0 f7 61 96 3e 44 7a 27 bf 5c 11 d5 3d d4 ff 3a 3d
       0.29371616 -0.6542094 0.10403702 0.045654133

in_proj_bias f4 [96]
000000 d1 61 03 bf 43 36 99 be a2 e9 e9 3e 0b 03 a4 be
       -0.5132113 -0.2992421 0.4568606 -0.32033572
000010 2e 36 81 3e 07 cd fa be cc 2e d9 3e 08 95 4f be
       0.25236648 -0.48984548 0.42418516 -0.20271695
000020 76 de a9 bd 9b 29 91 3e b5 4d 05 bc 6a 2e 82 3e
       -0.08294384 0.28352055 -0.008136203 0.25426036
000030 33 d8 83 be e3 78 c0 3d 5e ad 8f 3d a0 22 2e be
       -0.25750884 0.09398057 0.07015489 -0.17005396
000040 4c 8a 87 be 69 29 a8 3e 84 c2 1c 3e 71 f2 53 3e
       -0.264727 0.32844093 0.15308577 0.20697953
000050 b1 81 5b be 68 69 d0 be bd ce 1b 3f af 82 d6 3e
       -0.21436192 -0.4070542 0.6086233 0.4189658
000060 ae db 45 3d 7d 1a 81 3e 8e ce 7c be a0 8f 96 3e
       0.048305206 0.2521552 -0.2468817 0.29406452
000070 21 66 69 bc 3a 6d 7e 3e 7f 12 57 3c 66 26 ac bd
       -0.014245541 0.24846354 0.013126968 -0.084057614
000080 18 72 18 3a 49 0c 50 3a 61 e8 8d ba a8 de 32 ba
       0.0005815341 0.0007936401 -0.0010826701 -0.00068233395
000090 e7 f7 dc b9 45 f3 32 3a 65 0b ef b9 ad bf 84 3a
       -0.00042146372 0.0006826411 -0.00045594122 0.0010127925
0000a0 42 67 d1 b9 22 7b 1f 39 e9 2c 17 ba 16 f6 15 39
       -0.0003994052 0.00015209292 -0.0005766885 0.00014301421
0000b0 a7 21 13 ba 6d 5d fd 39 d7 b4 d8 b8 28 88 53 b9
       -0.00056126196 0.00048325528 -0.00010333367 -0.0002017325
0000c0 ee c2 3a 3a 88 ad 0a 3b 0a 42 c7 3a 06 06 55 ba
       0.00071243837 0.0021160562 0.0015202176 -0.0008126203
0000d0 dd 16 9b ba 55 8f 42 bb 57 31 1c 3b ad 35 b5 3a
       -0.0011832375 -0.0029687483 0.002383312 0.0013825201
0000e0 a9 b9 c6 b9 8a da 27 3a ed 5d 17 b8 95 af 8d b9
       -0.0003790383 0.00064031093 -3.608868e-05 -0.00027024435
0000f0 21 c6 12 3a 98 11 71 3a 58 f8 94 ba 90 e5 1b ba
       0.00055989815 0.0009196042 -0.0011365516 -0.0005946988
000100 ce 4e e4 3c b6 55 0d bd c3 57 87 bc ad 22 99 3d
       0.027869608 -0.03450557 -0.01652134 0.07477317
000110 b9 d8 98 3c 9c f3 b0 3a 67 a4 88 bd 86 fd a3 3c
       0.018658029 0.0013500336 -0.06671982 0.02001835
000120 1e f9 97 3d 84 46 1b 3d 10 02 f3 bc 36 3b 2f bd
       0.07420562 0.037909046 -0.02966407 -0.042781077
000130 02 d3 8b bd 63 40 4b 3c 32 ff 66 3c 8c 42 44 3d
       -0.06827356 0.012405488 0.014098929 0.047915027
000140 ef 71 cc bd 8e e4 50 bb e5 85 55 3d 62 e9 d1 3c
       -0.099826686 -0.003187451 0.052129645 0.02562398
000150 56 45 03 3d 47 fa 97 bd f4 94 97 3d ff e4 88 3d
       0.032048546 -0.074207835 0.074014574 0.066843025
000160 a1 0e 12 3d 39 d4 91 bc be f9 5d bd 11 5e f5 bc
       0.035658482 -0.017801391 -0.05419325 -0.02995208
000170 6a 17 f9 bc 9a 37 c9 3d 3b 07 a5 3c 2a be cd bc
       -0.030406673 0.09825058 0.02014505 -0.025115091

weight f4 [32, 32]
000000 f4 b8 0d 3d 37 3a 0f 3d 3c 45 1a 3c a7 d0 ec bb
       0.034600213 0.034967627 0.009415921 -0.0072270217
000010 0f 20 46 3c a2 6d 92 3c 8b c0 a4 39 5a 88 99 bb
       0.012092604 0.017874543 0.00031423973 -0.004685444
000020 0f fa 5e bc f9 bd 40 bb 34 6b cf bb e2 b8 f9 39
       -0.013609423 -0.0029410108 -0.0063299183 0.0004763073
000030 ce 26 2f bc 64 1f 83 bb 1e 75 d3 3b 46 38 09 bc
       -0.010690404 -0.004001545 0.0064531704 -0.008375233
000040 ed da 83 ba 93 a5 1f bb 95 54 fb 3c 74 68 27 3c
       -0.0010059752 -0.0024360165 0.03067998 0.010217775
000050 fb e5 ef 3a 4e 6c 4c bc 36 e6 d3 bb 67 2e 8b bc
       0.0018302792 -0.012476994 -0.0064666523 -0.0169899
000060 e1 ba ab 3a 50 72 2f ba 39 88 04 3b 68 68 3c 3b
       0.0013101959 -0.0006692754 0.0020222797 0.0028748754
000070 0d c2 e9 3c c8 9b cf ba 8a f6 35 3c 87 98 83 ba
       0.028534913 -0.0015839273 0.011106143 -0.0010039964
000080 c0 e9 0c bd 9a 91 b7 be ed 50 cc 39 26 60 46 3b
       -0.03440261 -0.35853273 0.00038970207 0.0030269711
000090 d8 d9 4c 3b 62 a7 b4 3d ee 79 ef 37 d9 34 44 bd
       0.0031257775 0.08820988 2.8547798e-05 -0.047901962
0000a0 6d fb 97 3c a7 ca 85 3a 82 15 71 ba d2 27 17 3b
       0.018552506 0.001020749 -0.00091966253 0.0023064506
0000b0 3c d7 bb bc b5 fe 16 3e d7 b2 b6 ba 35 2d 25 be
       -0.02292978 0.147456 -0.0013938796 -0.16130526
0000c0 8f bc 5d bb cf 33 04 3c 36 a4 ac 3e 88 0c 0e 3b
       -0.0033834314 0.008068993 0.33719033 0.002167495
0000d0 8e 02 03 bc 99 97 d0 3b 52 18 00 3a 9e e0 0a be
       -0.007996215 0.006365728 0.00048864365 -0.13562247
0000e0 90 a4 f2 ba 9f 64 67 bc 63 1a 7a 3d 5c 18 20 bc
       -0.0018512178 -0.014123111 0.06106032 -0.009771433
0000f0 cc 3b e9 bc 50 74 98 3e 8d 95 f3 bd 41 dc 24 3b
       -0.028470896 0.2977624 -0.11893759 0.0025155696
000100 63 a0 26 3d 13 05 63 3c ee fb ed bb 1f e5 97 bb
       0.0406803 0.01385619 -0.0072626984 -0.0046354677
000110 07 fe e8 ba 41 e3 da 3d c8 dd 1b 3c 4c fe a0 3c
       -0.0017775901 0.106878765 0.009513326 0.019652508
000120 fd 36 2a 3d 4d be f9 ba 2c f5 2a ba 2c 44 94 bb
       0.041556347 -0.0019053906 -0.0006521519 -0.0045247283
000130 cf d5 f2 bc bc 3d 00 37 ae 1d 8c 3a bf 3e 5c bd
       -0.029642968 7.643768e-06 0.0010689998 -0.053770777
000140 b6 0d 61 bb 1f a5 88 3d 07 2c 30 bd 37 5b ff bb
       -0.0034340448 0.06672119 -0.043010738 -0.007792856
000150 61 ac b7 bb e5 4f 84 3d 63 99 0a 3b 3f 05 63 be
       -0.005605266 0.06460551 0.0021148555 -0.2216997
000160 5c 3b 5c 3b 81 a7 95 3b e4 02 55 3d 2c 9b 8b 3b
       0.0033604717 0.004567087 0.05200471 0.0042604413
000170 40 e3 ce 3c 12 d4 c6 bc 1b e8 ad 3c fd 0d 98 bb
       0.025254846 -0.024271045 0.02122884 -0.0046403394
000180 97 e0 ef ba c8 e4 44 bd c6 2f 5f 3b 07 15 86 39
       -0.0018301186 -0.048069745 0.0034055575 0.00025574138
000190 c2 13 30 3c 1f e0 f0 bd a6 9a 34 3c ec 4c 1c 3d
       0.010746898 -0.11761498 0.011023199 0.038159296
0001a0 9f c9 d2 ba 5f 3f 97 3b 05 bb 36 bc 17 07 85 3b
       -0.0016081816 0.0046157087 -0.011152987 0.004059683
0001b0 9c aa 2d 3b 97 3e bd ba 32 0c 9e bc b8 6c b4 bb
       0.0026499396 -0.0014438209 -0.019292925 -0.0055061243
0001c0 58 40 9c 3a d2 d6 82 3c e9 fa 56 bb a7 af 15 3b
       0.0011921031 0.015971575 -0.0032803363 0.0022840293
0001d0 d3 96 20 bc f0 eb 91 bc ee 13 13 ba 53 3d 23 bd
       -0.009801584 -0.0178127 -0.0005610575 -0.039853405
0001e0 e8 f1 c4 3b 27 db ef b9 85 04 49 3d 0a 30 ba 3a
       0.006010283 -0.00045748914 0.049076576 0.0014204991
0001f0 18 9b 02 3c 32 d0 ea 3a 36 0d 99 3c 12 84 1e bb
       0.007971548 0.001791483 0.018683057 -0.0024187607
000200 eb 65 e1 bd b2 bb 80 3e 8b a3 44 bc 42 bc c0 ba
       -0.110057674 0.251432 -0.012001882 -0.0014704543
000210 b7 00 cf bb 25 6d b2 be 51 3c 15 bc a0 50 5a be
       -0.006317224 -0.34848896 -0.009108619 -0.21319818
000220 d4 16 8b bc c1 c1 9b bb 79 3f 12 bc b5 80 36 bc
       -0.016978659 -0.004753322 -0.008926266 -0.011139085
000230 f0 cb 04 be 03 e9 f6 3d 15 9a 0d 3c 11 8a cc 3c
       -0.12968421 0.12056162 0.008642693 0.024968179
000240 44 82 46 ba 60 0d 4f 3e e7 b7 e4 3c aa eb 13 bc
       -0.00075725117 0.20219946 0.027919723 -0.009028355
000250 fb b6 43 bc ea 45 93 bd b0 a8 61 3b 47 95 a0 be
       -0.011945481 -0.071910694 0.003443282 -0.3136389
000260 27 f2 93 3b 22 67 aa ba aa d3 43 be 85 3d b1 ba
       0.004514951 -0.0013000707 -0.19123712 -0.0013522363
000270 f1 75 89 3d 2b d8 12 3e 37 b8 a3 bc 1f 52 a7 bb
       0.06711949 0.14340274 -0.019985301 -0.005106225
000280 63 9d 9f 38 86 eb 86 3b e6 a5 0a 3b 8c de 18 3b
       7.6110264e-05 0.004117432 0.0021156012 0.0023326008
000290 64 1f 1c 3b 1c 81 3d 3c f9 cd 4d ba 4d 28 6d 3b
       0.0023822421 0.011566427 -0.0007850822 0.0036187351
0002a0 23 36 04 bc 22 11 95 39 d9 ab b2 37 98 f6 e1 ba
       -0.008069548 0.0002843226 2.1299276e-05 -0.0017239628
0002b0 21 02 96 3b 02 4c 99 3b 96 f8 df 3b 25 0c 9b b8
       0.0045778905 0.0046782503 0.0068350537 -7.393238e-05
0002c0 33 49 02 bb 6d 7b 80 3c 14 33 c2 bb 88 bb 30 ba
       -0.0019880056 0.015683854 -0.005926499 -0.00067418115
0002d0 ea e3 23 3b 92 ef e0 bb ec d9 7b ba f2 0b 5a bc
       0.0025007674 -0.0068644965 -0.0009607363 -0.013308512
0002e0 8b 7e 4e 3a 14 c8 32 3b 7c 8a 3f ba 36 88 6f 3a
       0.0007877133 0.00272799 -0.00073067076 0.00091374235
0002f0 12 06 17 3b 8f 0a 78 ba 3b 89 36 bb 89 e6 23 ba
       0.002304439 -0.00094620226 -0.0027852792 -0.0006252309
000300 7f 54 cc 3b 5d ad b9 3a 8d 5d 2a ba c8 db 11 3b
       0.0062356587 0.0014166046 -0.00064989255 0.0022256244
000310 67 54 f7 3a e2 16 67 3b db 7f 6e 3a 1e 6b d7 ba
       0.0018869758 0.0035261442 0.00090980314 -0.0016435122
000320 15 89 51 3b 39 98 5f 39 80 c6 28 39 26 c7 16 3b
       0.0031972576 0.00021323645 0.00016095676 0.0023006885
000330 f4 9f 31 bb d0 e4 d3 ba 15 39 e3 3b 07 01 7c ba
       -0.0027103396 -0.0016166214 0.006934295 -0.000961319
000340 d4 44 0e bb 53 d7 a8 3c 78 3d 0a bc c2 1e b5 ba
       -0.0021708505 0.020610487 -0.008437507 -0.0013818371
000350 d7 73 46 bb 36 13 f9 3a 47 da 94 ba 6d a8 52 bc
       -0.0030281448 0.0019002918 -0.0011356556 -0.012857539
000360 cf 9d da 39 18 d7 38 bb 33 d0 07 3a b5 f5 20 ba
       0.00041697777 -0.0028204378 0.00051808654 -0.0006140129
000370 e5 a5 a0 bb ef fc 94 39 63 8a 1f 3b b8 71 20 3a
       -0.0049025887 0.0002841721 0.002434396 0.0006120461
000380 f7 7c 86 3e 15 2b 1c 3e 76 f1 59 3a f5 b3 34 39
       0.26267216 0.1525081 0.00083138735 0.00017233177
000390 5b 40 8c ba a7 e3 9b 38 22 0a 86 bb 49 47 3f 3c
       -0.0010700332 7.4333795e-05 -0.0040905634 0.011674711
0003a0 66 3a ee bd 1b 57 ab bb ce f4 8c 3b 1d e4 c9 3b
       -0.11632232 -0.0052288896 0.004301644 0.0061612264
0003b0 15 3d 49 bd 90 f4 eb bc 9f d0 10 3d 4a f0 b6 3b
       -0.049130518 -0.02880314 0.035355207 0.005582844
0003c0 eb 08 51 3c 0e 19 3f be 7f 1b ca be fc 1e f3 3b
       0.012758474 -0.18661901 -0.39474103 0.007419465
0003d0 30 c4 7d 3b 66 0b c1 bc 4a b2 3a 3a db c7 64 3e
       0.0038721673 -0.023565006 0.0007121904 0.22341864
0003e0 3f eb 5a bb 68 3a dc 3b 00 61 14 be b4 43 b7 3b
       -0.0033404378 0.0067208298 -0.14490128 0.0055927876
0003f0 d4 c6 42 3d 1d 16 2c 3e 9a 36 99 3c 44 5e 89 ba
       0.0475529 0.1680531 0.018702794 -0.0010480364

bias f4 [32]
000000 9c 20 18 39 8e 25 1d bd b2 9e 7a 3c d6 57 c5 3a
       0.00014507998 -0.038365893 0.015296625 0.0015056084
000010 5f 2c a8 bb 46 7b 94 b9 31 58 9d ba 64 44 71 3c
       -0.0051322426 -0.00028320606 -0.0012004433 0.014725778
000020 19 88 67 b9 0f 00 09 ba 27 8f ea 3c 5e 88 4e 3b
       -0.00022080577 -0.0005226144 0.028632713 0.0031514387
000030 fa 81 c6 ba 9c e6 bb 39 3b 85 3c bb 74 95 57 39
       -0.0015144937 0.00035839237 -0.0028765935 0.00020559673
000040 f1 60 4a bb 3c a4 4e ba c3 37 19 ba f9 76 1f bb
       -0.0030880535 -0.0007882749 -0.0005844796 -0.0024332388
000050 c3 b9 0d 3b 3e ba 0b 3d ff 61 d4 3c 8e ee ca bc
       0.0021625615 0.03411316 0.025925634 -0.024771955
000060 97 8c 3e bc 70 c1 95 39 59 bf 7a bc 55 28 cd ba
       -0.011630199 0.00028563617 -0.01530441 -0.0015652279
000070 9b 54 0c 3b e6 67 87 3a 32 1b 0a bd 4b 0c d8 3b
       0.0021412733 0.0010330647 -0.03371734 0.0065932623

weight f4 [128, 32]
000000 6c df 02 be 69 3d 84 be 56 68 28 3b ca 67 65 be
       -0.12780541 -0.25828102 0.0025696955 -0.22402874
000010 c4 95 b2 3e 9d 2c fa 3d 79 0e d2 3c e8 11 ee be
       0.34879887 0.122155406 0.025641667 -0.46498036
000020 75 77 d8 bd cb c4 99 3b db a2 8b 3e a2 0f 82 3e
       -0.105696596 0.004692649 0.27272686 0.25402552
000030 91 2b 07 be 69 36 b2 3c 2a a5 f4 be 42 ad 81 bd
       -0.13200213 0.02175446 -0.4778226 -0.063318744
000040 09 9b 28 3d d1 c3 3d 3d 73 d4 b4 3e cc 6d 0c 3d
       0.041163478 0.046329323 0.35318336 0.034284398
000050 7c 8e bc 3e 3d b3 95 3d 24 e2 b7 bd 3c db 30 3f
       0.36827457 0.073095776 -0.0897868 0.69084525
000060 b7 02 34 bc 1b c2 64 3e 07 12 64 3d d1 6a 4f be
       -0.010986975 0.2233967 0.055681255 -0.20255591
000070 b3 c0 88 bd a6 e9 32 3e c7 c8 ab 3e 4e 76 c0 bd
       -0.066773795 0.17471942 0.33551618 -0.09397565
000080 80 17 0e 3c 0c 93 e4 3c 91 b9 0e 3d 23 ac f2 bd
       0.008672595 0.027902149 0.03484494 -0.11849239
000090 4f 31 ac bd dd dd 70 3d f7 f2 14 3e ec 8b 76 be
       -0.08407842 0.058805335 0.14545809 -0.24076813
0000a0 b2 2b 0a 3d cc 32 9a bd 5d 45 0b be 9c 24 bb bb
       0.033733077 -0.0752922 -0.13600679 -0.0057111513
0000b0 d8 37 01 bd d3 d6 58 bd 8c f6 1e bd b3 46 b6 bb
       -0.031547397 -0.052939247 -0.038809344 -0.005562627
0000c0 fd a1 f5 3c ab 78 2d bd 53 75 25 be 30 8d 9e 3e
       0.029984469 -0.042351406 -0.16158037 0.30967093
0000d0 b9 44 1e 3e aa 8c cb bd 91 eb 0e bf 3e 22 25 3e
       0.15455903 -0.09938939 -0.55828196 0.16126344
0000e0 57 52 e5 3d 08 4a 00 bd c7 c8 c2 3e 99 8b 03 3e
       0.11197346 -0.0313206 0.38043806 0.12846221
0000f0 74 20 fc 3c 73 da 1b bf cc b2 94 3d 1e bc 1b be
       0.030777194 -0.608802 0.07260665 -0.1520848
000100 b5 c0 94 bd 88 69 23 bd 3f 40 a4 bd cb ab b7 bd
       -0.072633184 -0.039895564 -0.080200665 -0.08968314
000110 d0 34 5d be c0 b5 fb bb a2 92 0f 3e e0 d4 04 be
       -0.21602178 -0.0076815784 0.1402078 -0.1297183
000120 d0 5d 9f 3e 84 d8 07 3d 67 86 4d bf 2e 84 35 bc
       0.3112626 0.03316547 -0.80283207 -0.011078877
000130 41 ad e0 bd 96 1e 7e 3d d4 82 8e bd 14 c1 bf 3d
       -0.109705456 0.062040888 -0.06958547 0.093629986
000140 7f 27 f7 3c 81 bc 31 ba 8e 22 d0 3d 91 49 b0 3e
       0.0301702 -0.00067801034 0.10162841 0.34431127
000150 b6 1d c0 bd 28 e8 1b 3d 92 24 6d bd 75 96 cc be
       -0.09380667 0.0380632 -0.057896204 -0.3995854
000160 3d 98 17 3e 67 f5 6f 3e 79 61 ab 3e 02 aa 47 3e
       0.14804168 0.23433457 0.33472803 0.19498447
000170 2d c3 24 3e 46 f0 b8 be 15 48 dd 3d 21 f0 89 bb
       0.16090079 -0.36120814 0.10804764 -0.004209534
000180 7c cf a7 be cf b9 2b be 0d a1 d2 bc a6 06 9c 3d
       -0.32775486 -0.16770099 -0.02571156 0.076184556
000190 2c 80 98 be b6 7e 30 3d b7 e4 60 bd 1d 9b 3e be
       -0.29785287 0.04308959 -0.05490562 -0.18613859
0001a0 eb ca 74 be 03 84 ea bd 75 76 5a be 4e 25 c5 bb
       -0.23905532 -0.114509605 -0.2133425 -0.00601641
0001b0 c3 90 95 3e 21 21 c1 3c c1 d1 e1 be c0 67 13 3d
       0.29212007 0.023575367 -0.44105342 0.035987616
0001c0 96 70 10 be ca 01 d3 be da ea 1d 3d ef cf 29 be
       -0.14105448 -0.41212302 0.03855405 -0.16583227
0001d0 83 b6 79 3e 62 e0 34 be 1a d7 57 bd 42 65 0e bd
       0.24386029 -0.1766372 -0.05269537 -0.034764536
0001e0 b5 8a e7 bd 92 ed 4a 3e af ab 64 bd fb e8 13 3d
       -0.11305753 0.19817188 -0.055827793 0.03611086
0001f0 ea 50 89 be 0c 29 83 bd d4 e9 0a be 4c 91 91 3e
       -0.26819545 -0.064043134 -0.13565761 0.28431165
000200 ed 6d 8f be 00 a8 58 be 5d 0c fa 3d c0 16 ad be
       -0.28013554 -0.21157837 0.12209389 -0.3380642
000210 30 37 ba be 3d 12 2d 3e 8f 54 7e 3e d7 89 15 3e
       -0.3637023 0.16901489 0.24836944 0.14603363
000220 fe c1 81 be 83 20 8e bd 4d 98 1b 3e d8 da 21 be
       -0.25343317 -0.06939795 0.15194817 -0.15806139
000230 49 35 ed 3d 5d e2 b1 3d ae 8a cc be 6b 22 c0 3d
       0.11582429 0.086857535 -0.39949554 0.09381565
000240 83 28 fe 3d 3e 78 73 3d 9f 44 6a 3d c3 9d 26 be
       0.12410071 0.059440844 0.05719435 -0.16271119
000250 90 20 39 bd 15 93 2b be 6c 66 8f bd 1e 73 71 be
       -0.04519707 -0.16755326 -0.07001957 -0.2357907
000260 31 2c d2 3c ae 20 a4 bc 21 a4 0f be 4a 3a 9c bd
       0.025655838 -0.020035114 -0.14027454 -0.07628305
000270 78 68 ce bd 10 dc 14 be 4d fb ab 3e a1 0a 86 3e
       -0.100785196 -0.14537072 0.33590165 0.26179984
000280 7d 7a 02 be 06 90 f0 bd 37 1d 32 3e c1 ac 75 be
       -0.12742038 -0.1174622 0.17393957 -0.23991682
000290 ba 12 25 be 3b 85 1d 3e 53 5f 26 3d 7c 48 0b 3d
       -0.16120425 0.15382855 0.040618252 0.034004673
0002a0 63 d2 a8 3d 2c 4d 79 bd 0c 1f 21 bf 33 d8 ba bd
       0.08243253 -0.060864612 -0.62938 -0.09123268
0002b0 bc 48 dd bd 3f b0 91 bd 16 95 31 3e f6 f7 a6 3d
       -0.108048886 -0.071136944 0.17342028 0.081527635
0002c0 4e b8 75 3c 26 e9 01 3c ed c7 fb 3b 25 70 16 3f
       0.014997555 0.007929122 0.007683745 0.5876487
0002d0 b8 a6 0c be ec 6d 9a 3d 96 c3 af be 8a 5d 75 3e
       -0.13735473 0.07540497 -0.34328908 0.23961464
0002e0 5e 39 17 be 01 78 10 3e 5b c9 b5 be 0e 56 6a 3c
       -0.14767978 0.14108278 -0.35505185 0.014302744
0002f0 82 1a 69 3d 4a 42 0a 3e cb cb e6 3d 1e d3 8f 3e
       0.056910045 0.1350185 0.11269339 0.28090757
000300 2e 73 1e bf 01 78 9e 3c 96 b5 60 3e 64 af d0 3e
       -0.618945 0.019344332 0.2194427 0.40758812
000310 08 0f 44 3e df f8 f6 bd df 7f 1f be be cd 6b 3d
       0.19146359 -0.12059187 -0.15576123 0.057569258
000320 bb 6f 18 3e 2c 90 ef be 3f 4f 1d 3e 21 80 d1 3d
       0.14886372 -0.46789682 0.15362261 0.10229517
000330 21 7f 3a 3d 4a 09 1f 3e 4e 26 53 bd 48 b5 11 3f
       0.045531396 0.15530887 -0.051550202 0.5691724
000340 e7 1b a0 3c 3d d5 40 3e fe bc da be 84 43 45 3d
       0.019544555 0.18831344 -0.42722315 0.04816009
000350 f8 d5 3a 3e a7 7a 91 3c b3 57 38 3d 18 b6 8f 3d
       0.18245685 0.01775868 0.04500551 0.070171535
000360 b3 86 24 3d 3f 6b ff 3c ef ed 71 3d 8b c3 ed b9
       0.04016752 0.031179069 0.0590648 -0.00045349853
000370 e5 74 75 bd 52 ea 9e bd 30 f1 2a bc ca f1 ed 3d
       -0.059925932 -0.07759537 -0.01043348 0.11618383
000380 fa 80 76 39 6d 4a a3 bc aa af ab bd 55 55 56 bd
       0.00023508436 -0.01993295 -0.08383115 -0.052327473
000390 cb 2c b5 3d 05 d6 0a 3e f9 87 ce 3c 9a 8e 47 be
       0.08846434 0.13558204 0.025211321 -0.19487992
0003a0 69 19 bd 3c 8d c9 ba bc 68 9f 73 be bf aa 22 be
       0.023083406 -0.022801185 -0.23791277 -0.15885447
0003b0 fb af 38 be 50 8e 63 bd 1f c6 1b 3d 15 34 d6 bb
       -0.18035881 -0.05555564 0.03803074 -0.0065369704
0003c0 71 cb 39 3e 96 31 17 3d 40 4a 47 3d 37 43 5a be
       0.18144013 0.036912523 0.048654795 -0.21314703
0003d0 23 ea f3 3d 06 e3 5e be 2c 7c 0a 3f 33 86 4b be
       0.119098924 -0.2176629 0.5409572 -0.19875412
0003e0 b6 a4 e5 3d 05 c5 68 3c e2 80 96 3e 7f b9 66 bc
       0.11213057 0.014207129 0.29395205 -0.014082312
0003f0 70 14 0d bc a7 e0 ac be 59 2d 21 3e 92 f1 5d be
       -0.00861083 -0.33765146 0.15739955 -0.21674183

bias f4 [128]
000000 aa d5 b6 be a3 60 05 3d 74 80 38 be 39 b4 53 be
       -0.35709888 0.032562863 -0.18017751 -0.20674218
000010 e0 e8 d8 bd 20 97 a3 be 8d 85 b8 3d 26 99 87 be
       -0.105912924 -0.31951237 0.09009848 -0.2648403
000020 0b c1 ee be 95 1e 4a be 19 a8 09 3d 0e 04 13 be
       -0.46631655 -0.19738229 0.033607576 -0.14357015
000030 e8 7d f4 be 41 7c 78 be f0 cc d2 bd aa e1 4f bd
       -0.4775231 -0.24266149 -0.10292995 -0.05075232
000040 e9 0a 47 be 40 9d 13 bf d5 e6 92 bc a5 d6 27 be
       -0.19437756 -0.5766182 -0.017932335 -0.16390474
000050 6c 27 a6 be 80 b8 00 bf a9 4a 64 be a4 6c d6 be
       -0.32451952 -0.50281525 -0.22294106 -0.4187976
000060 24 a2 23 bd 06 ae 3c be 8e dd 64 be 7f 5b 80 be
       -0.03994955 -0.1842576 -0.22350141 -0.25069806
000070 f5 34 05 bf 45 4d a6 be fe 2e 0d 3d 0c 79 81 be
       -0.5203393 -0.32480827 0.034468643 -0.25287664
000080 7f 2b 66 be 8a bf 9a be 32 36 cd be 6f 16 a4 bd
       -0.2247753 -0.30224258 -0.4008041 -0.08012091
000090 a7 d6 92 be 4d 1e c5 be 26 10 a6 be ce 3c 92 be
       -0.28679392 -0.3849968 -0.32434195 -0.28562015
0000a0 22 69 0d be 21 de 56 be 87 91 b8 be 0d 5c 0a be
       -0.13809636 -0.20983173 -0.3604853 -0.13511677
0000b0 7c bd 41 be fa 27 90 be 4d 0e db be cd e2 a3 be
       -0.18919939 -0.281555 -0.42784348 -0.32008973
0000c0 8a 8e a5 be d3 2b c0 bd 8c c6 2a be 17 76 5e be
       -0.3233531 -0.09383359 -0.16677302 -0.21724735
0000d0 91 45 c0 be a7 43 b8 be 99 72 7b be 3e e1 f1 be
       -0.37553075 -0.35989115 -0.24555434 -0.4724216
0000e0 38 da e7 bd 7d d2 05 be a3 aa 79 3d 2d c1 12 be
       -0.11320919 -0.13068576 0.060953747 -0.14331503
0000f0 ac 21 f7 bd 4b 95 16 3b 9f e7 c5 bd 51 2d cd bd
       -0.12066969 0.002297717 -0.09663319 -0.10018409
000100 5f ee 5a be 9b 79 8f be 3f 48 ca be df 9f 85 3d
       -0.21379994 -0.28022465 -0.39508244 0.065246336
000110 9e 0e 67 be f1 bc 1b be ce 36 30 be 83 c2 10 be
       -0.2256417 -0.15208794 -0.17208406 -0.141367
000120 f1 01 be be 67 9d 4f be 9b 8f d2 3c 92 b2 fe bd
       -0.37110856 -0.20274888 0.025703242 -0.12436403
000130 84 2e 0b bc 24 a7 95 be ab fb cc be 47 29 b4 be
       -0.008494977 -0.2922908 -0.40035757 -0.35187742
000140 de 06 9f bb 5a 24 3d be ec c8 69 be 02 38 b2 be
       -0.0048531136 -0.18470898 -0.22830552 -0.34808356
000150 54 9c ae bd fb 80 b7 be 31 7e e6 bd 96 b8 1e be
       -0.08525911 -0.35840592 -0.11254538 -0.15500101
000160 f5 19 8a bd 53 05 a9 be 90 12 23 be de 56 f7 bc
       -0.06743232 -0.33011875 -0.1592505 -0.030192789
000170 32 59 5f be 8d 8e 72 be 28 fe a8 be 66 ca 6a be
       -0.21811369 -0.23687191 -0.33006406 -0.22928771
000180 bf fe 01 bc 91 15 00 be 7c cb b5 be 5f c8 51 be
       -0.007934271 -0.12508227 -0.3550681 -0.20486592
000190 45 72 25 be 10 01 85 ba 62 aa 72 be 5b 4d 9a be
       -0.16156872 -0.0010147411 -0.23697808 -0.30137143
0001a0 db a2 e3 bd 73 82 01 bf d2 e1 a8 be 74 35 e9 be
       -0.111150466 -0.50589675 -0.32984787 -0.45548594
0001b0 11 d7 8a be 32 7d cb ba 3a be 96 be 7a a6 07 bf
       -0.27117208 -0.0015524982 -0.29442006 -0.529884
0001c0 6c 46 a6 3d e9 70 74 be 1a 8b 33 bc 94 27 74 be
       0.08118901 -0.23871197 -0.010958457 -0.23843223
0001d0 f1 62 58 be 00 7e b0 be 71 c9 39 be cd 83 b4 be
       -0.21131493 -0.3447113 -0.1814325 -0.35256806
0001e0 ee a6 72 be 5f 46 a5 be fb 0e 5b be 1d 74 0c bf
       -0.23696491 -0.3228025 -0.21392433 -0.54864675
0001f0 18 2e ef bb 5f 29 8b be 2f c7 22 bf e8 91 8c be
       -0.007299196 -0.2718 -0.6358518 -0.27455068

weight f4 [32, 128]
000000 bc e1 ca bc 64 55 0d 3b f4 fd a5 3c 38 7c cd 3d
       -0.024765842 0.002156579 0.020262696 0.100334585
000010 15 1e c7 bb 28 85 e7 3d 8c 85 66 bd d9 7d 3e bd
       -0.006076584 0.113046944 -0.056279704 -0.046506736
000020 b7 fa fb 3c ec 30 ee ba bd 07 23 bc 80 e9 c6 3c
       0.030759199 -0.0018172539 -0.009950575 0.024281263
000030 f9 a8 0c 3d 2a e4 ed 3c c5 d5 43 3e f4 7b 02 3e
       0.034340832 0.029039461 0.19124515 0.12742597
000040 6a 1f 3b bd 3b d1 85 bd 75 cd 88 3d ed db 88 3d
       -0.045684256 -0.06534048 0.06679813 0.066825725
000050 42 95 b0 bc 85 90 6b 3d ba de 91 bd 39 24 22 3c
       -0.021555547 0.05751087 -0.0712256 0.0098963315
000060 d6 7c 4f bd 95 ae b0 bd 55 5f 22 bf 18 25 cc 3c
       -0.050656162 -0.08627049 -0.63426715 0.024920031
000070 5c d5 ae be 05 a2 68 bc 6e 51 52 bd 34 c5 8c 3d
       -0.34147155 -0.014198785 -0.05134719 0.06873551
000080 0b c4 4a 3d b6 b0 95 3e 5d 01 9a 3c d4 8d 2a bd
       0.049503367 0.29236382 0.018799478 -0.041639164
000090 48 7f 47 3c 6f 1c 2e be eb d4 08 bc de b0 ce 39
       0.012176342 -0.17003034 -0.008351545 0.00039423158
0000a0 43 d3 0e be 69 49 13 be 86 6b 28 bc bf 36 00 bd
       -0.13947777 -0.14383473 -0.010279542 -0.03130221
0000b0 db 4c 2b 3c 56 7f da 3e 44 42 9d 3b ea ab 0e be
       0.0104553355 0.42675275 0.0047991592 -0.13932768
0000c0 58 13 c6 3b 25 c5 38 3d 2c 6a 56 bd d2 15 ed 3b
       0.0060447864 0.045109887 -0.052347347 0.007235267
0000d0 69 48 c7 3c 48 9b 18 3d 47 bf 7a bc db 8c de 3b
       0.02432652 0.037257463 -0.015304393 0.0067916936
0000e0 6c 97 14 bd da e8 9a bc 5f ef cf 3c b3 22 bf 3d
       -0.03627722 -0.01890986 0.025382696 0.0933279
0000f0 7f 6a 8d 3c b5 cb 46 bd 80 7d 5a 3c f4 61 81 3d
       0.017262695 -0.048534114 0.013335586 0.06317511
000100 dd 27 2a bc e8 83 61 3c 25 4b 24 bd 78 e3 29 bd
       -0.010385481 0.013764359 -0.040110726 -0.041476697
000110 5f 55 e6 ba ac 27 24 bc e5 4e 08 bd 5a b8 00 3e
       -0.001757305 -0.010019224 -0.033278365 0.12570325
000120 1d de 5a bd e2 80 6e 3d 44 40 3c bd fb de 24 bd
       -0.05343448 0.05822838 -0.045959726 -0.040251713
000130 ed 3c 47 be 56 0e 86 bd d5 07 90 bd 35 68 8a 3d
       -0.19456835 -0.06545703 -0.07032744 0.06758157
000140 38 85 aa 3c 37 e0 e8 bd a9 6f 45 bd 67 e8 c6 3c
       0.020815477 -0.113708906 -0.04820219 0.02428074
000150 80 c7 b9 3d 39 97 00 3c ed 02 8e bc c0 43 85 3c
       0.09071255 0.007848554 -0.01733538 0.016267657
000160 d6 c3 80 3d f8 05 19 bd a9 f2 22 bd eb 9e 88 bd
       0.06287353 -0.037359208 -0.0397822 -0.06670936
000170 85 b1 8c bd 46 f3 7a bc bd dd 30 bc 3c 87 de 3c
       -0.06869797 -0.01531679 -0.010795054 0.027164094
000180 a7 f7 e9 ba fe f4 9d 3e dc a3 46 3c 06 90 d9 bd
       -0.0017850295 0.30850977 0.012124028 -0.106231734
000190 77 bf ff bc 32 4b fe 3c 10 d6 b5 bd 92 e9 09 bd
       -0.031219227 0.031041715 -0.0887872 -0.033670016
0001a0 62 dd f6 3d bc 49 42 bd 42 d8 0f be 2b 6d 16 be
       0.12053944 -0.0474336 -0.1404734 -0.14690082
0001b0 38 15 3c bd 11 4d 11 3e af 28 b2 bc c1 b2 97 3c
       -0.045918673 0.14189555 -0.021747915 0.018517854
0001c0 28 b5 ec 3c b4 7e 2e bd 26 ce d4 bb 62 5e b1 bc
       0.028894976 -0.042601302 -0.0064943014 -0.02165145
0001d0 f2 d5 84 3c 5d 55 5c bd 1c b9 6e bb 8d 05 da bc
       0.016215298 -0.053792346 -0.0036426252 -0.026613975
0001e0 19 d5 25 bd 24 05 3f 3d ca de c0 bd 03 4e 69 bc
       -0.04048643 0.04663576 -0.09417494 -0.014239791
0001f0 5a 1e 04 bd a8 47 10 3c 49 48 e5 bd 09 45 16 3a
       -0.032255508 0.008806147 -0.11195428 0.0005732333
000200 30 31 6b 3e 67 f9 c7 3d b7 db e6 3d f2 e7 45 3e
       0.22967982 0.097643666 0.11272376 0.19326761
000210 60 75 71 3e 6d 21 63 bd 97 85 66 3d 61 de 41 be
       0.23579931 -0.0554518 0.056279745 -0.18932487
000220 5c 14 1b 3f db 3f 37 bf e8 11 eb bd 81 82 ca bc
       0.6057794 -0.7158181 -0.11478025 -0.024720432
000230 f0 9f 14 3c 8a d4 26 3e 43 7d 01 bd 9e 2b 12 be
       0.009071335 0.16292015 -0.0316136 -0.14274451
000240 5a 25 67 39 fb 2b 76 3d ed 1d c5 bd 40 df 45 3e
       0.00022043791 0.060100537 -0.096248485 0.19323444
000250 4a fa a4 3e d8 93 e0 be 6b 21 9e 3c 60 da a8 be
       0.32222205 -0.43862796 0.019303044 -0.32979107
000260 6f 58 18 3e 54 32 ba 3d 3c 20 8b 3e 9e 0c 02 3d
       0.14877485 0.090916306 0.2717303 0.031750314
000270 7d d2 65 3d b0 19 93 bf 1b df 70 3f 2b a5 6e be
       0.05610894 -1.1492214 0.9409043 -0.23305194
000280 ad eb 4d 3e d2 86 45 3e da d7 84 3d 35 cf 21 3e
       0.20109434 0.19289711 0.06486483 0.158017
000290 a3 7c f4 bd 19 d5 58 be 8c 45 88 be 33 07 0e be
       -0.11937835 -0.2117504 -0.2661556 -0.13869934
0002a0 b1 92 89 bd de 4e 69 bd ac 26 44 3e 50 24 c6 be
       -0.06717432 -0.05695998 0.19155377 -0.3869958
0002b0 5b 18 4a 3e 62 57 f5 3e 63 10 c7 be 77 3a 55 3e
       0.19735853 0.4791823 -0.3887969 0.20823084
0002c0 da 4c 65 be cc c8 47 bd 61 11 e0 bd ae db fc bc
       -0.22392598 -0.04877548 -0.10940815 -0.03086647
0002d0 df 10 27 3e a4 ef 67 be 79 20 93 3c 9d 9c 12 be
       0.1631503 -0.2265001 0.01795982 -0.14317556
0002e0 0b 4e 26 bf 70 5b 5c bd 41 20 8a be 52 82 0b 3e
       -0.64962834 -0.05379814 -0.26977733 0.13623932
0002f0 57 c8 4c 3e 9e db 75 3c 4a b8 89 bd 0d eb e7 be
       0.19998299 0.015005974 -0.067246035 -0.45296517
000300 76 d6 33 3e 7e de ff 3c 4a 52 68 be 71 f5 93 3d
       0.17562279 0.031234022 -0.22687641 0.072245486
000310 b9 b6 45 3d 9b 9c 22 3e bd 33 b8 3d db c4 3d 3e
       0.04826996 0.15880053 0.08994243 0.18532126
000320 9b 00 02 bf b5 94 26 be 8d 5e b0 bc 83 3a 06 be
       -0.50782174 -0.16267665 -0.02152946 -0.13108258
000330 be 4e 10 3e c1 44 d1 bd 72 a5 ff 3d c5 eb 61 be
       0.14092538 -0.10218192 0.12482728 -0.22062595
000340 80 f2 61 3d 8e 2b b4 3d 9e 94 f1 3c 54 59 af bc
       0.055162907 0.0879737 0.029489812 -0.0214049
000350 ad 24 22 3e b5 63 34 bd 64 07 86 be 15 81 1e 3e
       0.15834303 -0.0440404 -0.26177514 0.15478928
000360 7c 63 9a 3d ea dc 36 3d 3a 5a 06 3e 11 ac 0c 3d
       0.075385064 0.044644274 0.13120356 0.034343783
000370 72 63 42 be f5 7b c8 3d 1b 53 ed 3d 2a ed 07 3d
       -0.18983248 0.09789268 0.11588117 0.03318516
000380 8b e2 27 be 4f 79 3b 3e 86 dc 8c 3c ed 3d 33 3e
       -0.16395013 0.18307994 0.017194998 0.17504092
000390 33 cb 01 be 42 ef 50 3e 26 11 86 be a4 ff 0f 3e
       -0.1267517 0.2040377 -0.26184958 0.14062363
0003a0 29 52 07 bc 1f 2f 9c bd 95 03 ca 3d a1 3d e1 3e
       -0.008259335 -0.07626175 0.098639645 0.43992332
0003b0 da 03 05 be 04 a4 87 bc c5 d2 cc 3d 90 7c 1f 3e
       -0.1298975 -0.016557701 0.100011386 0.1557486
0003c0 5d 54 80 3d 2f 83 17 3e 74 e1 06 3e a0 da 7b be
       0.06266091 0.14796136 0.13171941 -0.24595118
0003d0 2b 1d 41 bd 23 f3 d0 3d 63 4c 10 3e 8a 12 71 bd
       -0.047146957 0.10202625 0.14091639 -0.05885557
0003e0 1a ba 95 3d ea f9 0a 3d 90 35 f6 3e c4 90 48 3d
       0.07310887 0.033929743 0.4808774 0.048966184
0003f0 22 dc c4 3e c0 5b 37 3d 06 8e c1 bb a7 c3 a9 3c
       0.38449198 0.044765234 -0.005906823 0.020723177

bias f4 [32]
000000 42 9a b6 3b ef 53 6d bc a5 b7 3f bc d0 71 ef bb
       0.005572588 -0.014485343 -0.011701499 -0.0073072687
000010 a1 36 c1 bc ae 35 0c 3a 90 6e a1 b7 4c 84 c1 bd
       -0.02358562 0.0005348575 -1.924418e-05 -0.09449062
000020 15 26 ce 3a d3 ff 3e 39 a7 a6 d6 3c 27 a3 0a 3d
       0.0015727902 0.00018215114 0.026202513 0.033847
000030 aa 6b 97 bb f4 83 21 bb ff ba 98 3c 18 8e 98 ba
       -0.004620989 -0.00246453 0.018643854 -0.0011639027
000040 bf 36 b9 bc ac 78 7e b9 ad e6 4d 3b d9 56 77 3c
       -0.022609113 -0.00024268281 0.003141801 0.01509639
000050 9a 0b 20 3c 0e 82 02 bd 84 3f bd ba 38 7b 4b 3b
       0.009768391 -0.03186231 -0.0014438485 0.0031048786
000060 4b 55 04 3d 99 31 8e bb 00 65 9c bd c5 ad 23 3b
       0.032307904 -0.0043394086 -0.07636452 0.00249754
000070 08 c2 18 bb f7 ab 0b bb 7d 60 36 3d 81 9a 11 3d
       -0.002330901 -0.0021312216 0.044525612 0.035547737

weight f4 [32]
000000 17 1a 1e 3f c3 f0 7f 3f c5 ef 22 3f 46 63 44 3f
       0.6175856 0.9997675 0.6364711 0.7671398
000010 1b 8e 10 3f 2e 78 ac 3f a5 fe 50 3f 96 52 5c 3f
       0.56466836 1.3474176 0.81638557 0.86063516
000020 f1 7b b7 3f b7 3e 54 3f 53 8f f0 3e ae 60 0f 3f
       1.4334699 0.82908195 0.46984348 0.56006896
000030 7f 87 a5 3f 8f 66 30 3f 37 1d 4c 3e ee 34 9b 3f
       1.2931975 0.6890649 0.1993302 1.2125528
000040 f1 6b 40 3f c7 ba b6 3f 07 82 84 3f 03 b7 34 3f
       0.75164706 1.427575 1.0352181 0.70591754
000050 d6 5b 07 3e b5 0f 63 3f ff fe 18 3f a7 ae 0e 3f
       0.13218626 0.8869584 0.59764093 0.5573525
000060 86 8a 2d 3f c0 8a bf 3f 5e 04 e5 3e 54 e2 e2 3f
       0.67789495 1.4964218 0.44729894 1.772532
000070 a5 54 21 3f 91 3e 92 3f 3b 0a 3d 3f c4 c6 a4 3e
       0.6301978 1.1425344 0.73843735 0.32182896

bias f4 [32]
000000 92 46 88 3e 49 22 86 3d 14 1f 4f 3e a4 98 99 be
       0.2661634 0.06549508 0.20226699 -0.29999268
000010 9d 3b 16 3d 8e 98 67 3e b0 02 04 3f 62 46 b0 3e
       0.036677945 0.22616789 0.515666 0.34428698
000020 a4 98 1b bf 9e 98 97 3d c3 8b f4 3d 82 53 63 3d
       -0.60779786 0.07402156 0.1194072 0.05549956
000030 49 1d 46 3d 9a 97 ca be bb 35 9f 3d 91 25 02 3f
       0.048367772 -0.39568788 0.0777392 0.5083857
000040 4b 20 f0 3d 4e a1 bd 3e e4 f4 b7 be e5 ab 51 3d
       0.117249094 0.37037128 -0.35929024 0.051189322
000050 8a af db be 7f 02 57 bc 8c c8 c5 bc 11 73 db bc
       -0.42907363 -0.013123154 -0.02414348 -0.026788266
000060 2e 9a 3f 3d 20 1b e1 be 52 d4 e3 3c a6 a6 e5 3e
       0.046777897 -0.43966007 0.027811203 0.44853705
000070 96 e2 6c 3e 1e 86 18 bf 12 8e e5 bd e5 99 bb 3c
       0.2313331 -0.59579647 -0.112087384 0.022900531

weight f4 [32]
000000 e9 8f 68 3f fa 24 0d 40 29 a6 ae 3f 57 3b 79 3f
       0.9084459 2.2053819 1.3644458 0.9735617
000010 f0 82 6c 3f 0f f9 ae 3f 5f 00 ad 3f 46 19 f4 3f
       0.92387295 1.3669757 1.3515738 1.9070213
000020 38 77 c5 3f 40 5b a7 3f 51 04 75 3f 60 13 52 3f
       1.5427008 1.3074722 0.9570971 0.82060814
000030 88 5c a8 3f 95 74 98 3f a5 4c f9 3e ae 44 96 3f
       1.3153238 1.1910578 0.48691288 1.1739709
000040 fa a0 d8 3f 08 fa 9b 3f 31 d2 74 3f ee f8 b3 3f
       1.6924126 1.2185678 0.95633227 1.4060342
000050 77 09 33 3f 4a da f0 3f b0 18 95 3f 34 62 72 3f
       0.6993632 1.8816617 1.1648159 0.94681096
000060 42 94 9b 3f d8 7a c6 3f 36 ae 6a 3f af 78 b6 3f
       1.215462 1.5506239 0.91672075 1.425558
000070 2a 0a 7c 3f 31 67 ae 3f 7c 64 c9 3f 3e 19 6f 3f
       0.9845301 1.3625242 1.573379 0.9339789

bias f4 [32]
000000 4b 71 37 be a5 9c 11 3e 3b 08 2c 3e 3e 1a 98 be
       -0.17914312 0.14219911 0.16800015 -0.2970752
000010 f9 e3 af bc 27 87 27 3d 93 6d 3a 3e 12 15 a2 3e
       -0.02147101 0.040900376 0.18205862 0.316567
000020 92 90 8f be f1 09 10 3d d3 20 29 bd cb db be bd
       -0.28039986 0.03516573 -0.04129107 -0.09319266
000030 a4 e2 1f 3f 24 ef 8f be ac e1 f3 bc e9 55 b2 3e
       0.624552 -0.28112137 -0.029770695 0.3483117
000040 bf 55 87 3c c6 ba 97 be 5a 9a 0d bd 5b f3 71 3c
       0.01652038 -0.29634684 -0.03457103 0.014767493
000050 32 9a ca bb 44 c2 29 ba e8 f0 53 bc 75 50 7a bd
       -0.0061829323 -0.0006475786 -0.0129358545 -0.061111886
000060 a5 03 05 bd 1e 1e 43 be 0d fb 2c bd 39 e9 20 3e
       -0.03247418 -0.19054458 -0.04223161 0.15713967
000070 9f 89 c5 bd 98 26 89 be a5 69 87 3d f2 4a 81 bc
       -0.0964539 -0.26787257 0.06611947 -0.015782807
