nets/transformer_default_inbending.pt (torch, 248224 bytes, 42 tensors)

weight f4 [32, 5]
0	0xbd8b40bc	-0.067994565
1	0x3d2315e6	0.039815806
2	0xbef527ff	-0.47882077
3	0x3ef1211c	0.47095573
4	0x3faa6b95	1.3314081
5	0xbd97f182	-0.07419111
6	0x3d298aa8	0.041392
7	0xbe265801	-0.16244508
8	0x3e10751b	0.14107172
9	0xbd70e4ad	-0.058811832
10	0xbd0447f9	-0.0322952
11	0xbf268d11	-0.65059
12	0x3f0f3a05	0.55947906
13	0x3e0733e5	0.1320339
14	0xbdb73742	-0.089460865
15	0xbd8f11ba	-0.06985803
16	0x3d338090	0.04382378
17	0xbde81d7e	-0.1133375
18	0xbc1b6226	-0.00948385
19	0x3eac9202	0.33705145
20	0x3b617d59	0.0034406988
21	0xbcdb612b	-0.026779732
22	0x3d6983b5	0.05701037
23	0xbd50c3f6	-0.050968133
24	0x3d77297c	0.060342297
25	0xbdb21e96	-0.0869724
26	0x3f210210	0.6289377
27	0xbeffa749	-0.49932316
28	0x3bb6209b	0.005558086
29	0xbc77cc4a	-0.01512439
30	0xbd9471c1	-0.07248259
31	0x3ece9e69	0.40355232
32	0x3c5e58c2	0.013570966
33	0x3e14bfd4	0.14526302
34	0x3e306cb1	0.17228962
35	0xbdbb4bd1	-0.0914532
36	0x3ed75302	0.42055517
37	0xbeb12d7f	-0.34605023
38	0xbe03348b	-0.12813012
39	0x3e23b56e	0.15987179
40	0xbd3a4e74	-0.045484975
41	0xbee08354	-0.43850195
42	0x3eaeb51c	0.3412255
43	0x3e256b1d	0.16154142
44	0x3e9a0062	0.30078417
45	0xbdb1028a	-0.086430624
46	0xbf116409	-0.56793267
47	0x3d3cc619	0.04608736
48	0xbdb751c5	-0.08951143
49	0x3e52b8c3	0.20578294
50	0xbd93db9d	-0.07219622
51	0x3ce7be3f	0.028288959
52	0x3e03b2eb	0.1286122
53	0xbe66e807	-0.22549449
54	0x3e7aefe8	0.2450558
55	0xbdadc540	-0.08484888
56	0x3ee466c2	0.44609648
57	0xbf0fbe2b	-0.5614955
58	0x3e07fade	0.13279292
59	0xbd8ce4ea	-0.068795994
60	0xbd60ecea	-0.05491344
61	0xbe975cee	-0.29563087
62	0x3f13921b	0.57644814
63	0xbe9f08c2	-0.3106137
64	0xbeed5ba9	-0.46358994
65	0xbdb7a6fe	-0.08967398
66	0x3e543b7c	0.20725816
67	0x3cc3faed	0.023923362
68	0x3e0665b4	0.13124734
69	0xbea7b94c	-0.32758558
70	0xbe296a39	-0.16544427
71	0xbdcb2b78	-0.099204004
72	0xbe0f0a49	-0.13968767
73	0x3e71755a	0.23579922
74	0x3cb7f2e9	0.022454696
75	0xbd8df46f	-0.06931388
76	0xbe7250f0	-0.23663688
77	0xbe531cc0	-0.20616436
78	0x3ea3a9da	0.31965524
79	0xbee0f303	-0.43935403
80	0xbd57cbbf	-0.05268454
81	0x3ce6ad7d	0.028158898
82	0x3e2c19df	0.16806744
83	0xbe8a3d32	-0.26999813
84	0x3e58233a	0.21107188
85	0xbd8bb6c7	-0.068219714
86	0x3e3692f0	0.1782949
87	0xbe6971fa	-0.22797385
88	0x3cef54b3	0.029215192
89	0x3d8556cd	0.065106966
90	0xbe10490a	-0.14090362
91	0xbf304971	-0.6886206
92	0x3f1ff129	0.62477356
93	0x3dd2745b	0.10276099
94	0xbcc2460a	-0.023715038
95	0xbda0f8a9	-0.07859928
96	0xbf00ecc0	-0.5036125
97	0x3ea3355c	0.31876647
98	0x3e7df16e	0.2479913
99	0xbe544df7	-0.20732866
100	0xbd3504c1	-0.044193987
101	0x3e426c15	0.18986543
102	0xbe8dc44d	-0.27688828
103	0xbd5c0441	-0.053714994
104	0xbf3a62a9	-0.72806793
105	0xbd27497c	-0.040841565
106	0xbd60a696	-0.05484637
107	0xbd37c5db	-0.044866424
108	0x3e1361a9	0.14392723
109	0xbe099644	-0.13436228
110	0xbda88c2c	-0.08229861
111	0xbccd569d	-0.025065714
112	0x3ddc260e	0.10749446
113	0xbe167111	-0.14691569
114	0x3e00cd89	0.12578405
115	0xbdbe9480	-0.09305668
116	0x3daed155	0.08536021
117	0xbe454e71	-0.19268204
118	0x3db8006e	0.08984457
119	0xbc886b4c	-0.016652726
120	0xbdd11f7c	-0.10211083
121	0xbe0d774d	-0.13815041
122	0x3e9d2130	0.30689383
123	0xbe82cf07	-0.25548574
124	0x3e7ab5a9	0.2448336
125	0xbd8647c9	-0.06556661
126	0x3ef4f3ae	0.47842163
127	0xbcd74291	-0.026276859
128	0xbf1ba141	-0.6079293
129	0x3ef9b3db	0.4877003
130	0xbd9728f2	-0.073808566
131	0x3e2efa99	0.17087783
132	0xbd7ae785	-0.06125595
133	0xbe44db1a	-0.19224206
134	0x3e582019	0.21105994
135	0xbd955cba	-0.07293077
136	0x3edf3181	0.43592456
137	0xbf3f297d	-0.7467268
138	0x3ebff451	0.37491086
139	0xbea2741b	-0.31729206
140	0xbdb0cadf	-0.086324446
141	0xbf048a39	-0.5177341
142	0x3eaa3ed4	0.3325106
143	0x3e56fb00	0.20994186
144	0x3e855202	0.2603913
145	0xbd93bcd7	-0.07213753
146	0x3e3dd383	0.18537717
147	0xbea3bb4e	-0.3197884
148	0x3e64c784	0.22341734
149	0xbe2ad381	-0.16682245
150	0xbd9855a8	-0.07438213
151	0xbe0d1090	-0.1377585
152	0x3db3a3ad	0.08771453
153	0x3d182723	0.0371467
154	0x3d665408	0.056232482
155	0xbdc284ef	-0.09498011
156	0x3e45c668	0.19313967
157	0x3e07426c	0.13208932
158	0xbed1f14f	-0.41004416
159	0xbf86e43c	-1.0538402

bias f4 [32]
0	0x3f08e105	0.5346835
1	0x3d4daf63	0.05021609
2	0xbcd56105	-0.02604724
3	0x3f236d62	0.6383878
4	0x3da761a4	0.0817292
5	0xbf486276	-0.7827524
6	0xbeee407a	-0.46533567
7	0x3bcd4b9c	0.006265117
8	0x3ef4d972	0.47822148
9	0x3deb94d5	0.11502997
10	0x3caa33ce	0.020776656
11	0xbd87e9d2	-0.066363946
12	0xbf1f9bc4	-0.62347054
13	0xbbab5bb9	-0.00522944
14	0x3e4a52a6	0.1975809
15	0xbf879ac5	-1.0594107
16	0x3cb497d1	0.022045048
17	0x3d8fed9d	0.07027743
18	0x3d7ead43	0.062176954
19	0xbd38d548	-0.045125276
20	0x3dea665b	0.11445304
21	0xbc793124	-0.01520947
22	0xbbb1754f	-0.0054155956
23	0x3dcc2d2e	0.09969555
24	0x3d454840	0.048164606
25	0x3ccebd26	0.025236677
26	0x3d515c34	0.051113322
27	0xbe70824c	-0.23487204
28	0x3ec7ec13	0.39047298
29	0x3f61a170	0.8813696
30	0x3dbfdf0f	0.09368717
31	0xbe939f8d	-0.28832665

in_proj_weight f4 [96, 32]
0	0xbe3b460c	-0.1828844
1	0x3e8188d6	0.2529971
2	0xbf17a7fd	-0.59240705
3	0x3e72223e	0.23645875
4	0x3e30e1fa	0.17273703
5	0x3e2d0925	0.1689802
6	0xbeb90c14	-0.36142027
7	0x3ebe4652	0.37163025
8	0xbe8ca8c6	-0.27472514
9	0x3ec4eb85	0.38460937
10	0xbea2bdea	-0.31785518
11	0x3eb26dd0	0.34849405
12	0x3ea265b9	0.31718233
13	0x3d3e8709	0.0465155
14	0xbdbd5e83	-0.09246542
15	0x3db63545	0.08896879
16	0x3e7d517b	0.24738114
17	0xbe6be64a	-0.23037067
18	0xbe7388b6	-0.2378262
19	0xbe0a3b45	-0.13499172
20	0x3ec154bf	0.3775997
21	0x3dc671c8	0.09689671
22	0x3e44b051	0.19207884
23	0x3f093654	0.53598523
24	0x3ebea7ed	0.37237492
25	0x3f3641ef	0.71194357
26	0x3eca2f23	0.39489087
27	0x3edc42bd	0.43019667
28	0xbf0079fb	-0.5018613
29	0x3e164a6b	0.14676826
30	0xbdcee538	-0.10102314
31	0x3dfc0650	0.123058915
32	0xbe4a5bc3	-0.19761567
33	0xbdf532b0	-0.119725585
34	0x3ec1c13f	0.37842748
35	0xbede9024	-0.43469346
36	0xbe48eec5	-0.19622333
37	0x3e96f4e3	0.2948371
38	0x3f105cca	0.56391585
39	0x3eb068c1	0.3445492
40	0x3dae79b4	0.08519307
41	0xbe41d842	-0.18930152
42	0x3e99f917	0.30072853
43	0x3ef9f18d	0.488171
44	0xbd063030	-0.0327608
45	0xbdbc8fd8	-0.092071235
46	0xbe293815	-0.165253
47	0x3e7f983f	0.24960421
48	0xbdfeaede	-0.12435697
49	0x3dc2bced	0.09508691
50	0xbba2a72a	-0.004963775
51	0x3e87ecc2	0.2654782
52	0xbebee98b	-0.37287554
53	0x3e6bf3bb	0.23042195
54	0xbe6851fd	-0.22687526
55	0xbe8075f2	-0.25089985
56	0xbe6ad668	-0.22933352
57	0x3e0d35aa	0.13790002
58	0x3ea62867	0.324527
59	0x3e8d05b2	0.27543408
60	0x3d5a836d	0.053347994
61	0xbe89d2b2	-0.2691856
62	0xbe597553	-0.21236162
63	0xbd8d682a	-0.06904633
64	0xbc81da54	-0.015851177
65	0xbba013dc	-0.00488518
66	0xbda45443	-0.08023884
67	0x3da1c439	0.078987546
68	0xbe24328c	-0.16034907
69	0x3c59686a	0.013269523
70	0xbba7d752	-0.0051221037
71	0xbe1e0b2c	-0.15433949
72	0xbda571f7	-0.08078378
73	0xbdc2ed9f	-0.09517979
74	0x3e6002f1	0.21876122
75	0x3d1e5ae5	0.038660903
76	0xbe7691c8	-0.24079049
77	0xbc83da17	-0.016095204
78	0xbca9aebe	-0.020713206
79	0x3d0f96a9	0.03505579
80	0x3e12a41c	0.14320415
81	0x3dd89f12	0.10577215
82	0xbd9c0cce	-0.0761963
83	0x3e85169a	0.25993806
84	0x3e067d3f	0.13133715
85	0xbcca997a	-0.024731386
86	0x3ea08ad6	0.31355923
87	0xbe142a9b	-0.14469378
88	0x3e02cd60	0.12773657
89	0xbe84711e	-0.25867552
90	0x3d42d992	0.047570772
91	0xbd5a8b88	-0.053355724
92	0x3d64ab53	0.05582745
93	0xbe151531	-0.14558865
94	0xbde98926	-0.11403112
95	0x3c72f5d7	0.014829121
96	0xbde148cb	-0.11000212
97	0xbdfffb86	-0.12499146
98	0xbe2fbf08	-0.17162716
99	0xbdd57a9d	-0.10423777
100	0xbcc2ba9c	-0.023770623
101	0x3dca7ddf	0.09887289
102	0x3e202400	0.15638733
103	0x3f0d1c01	0.55120856
104	0xbe5775ea	-0.21041074
105	0x3e0ea81f	0.1393132
106	0x3e6895fa	0.22713462
107	0x3e718534	0.23585969
108	0xbe52e802	-0.20596316
109	0x3d743f86	0.059630893
110	0xbe8c56b0	-0.27409887
111	0xbc061d41	-0.008185686
112	0x3e9c53ef	0.30532786
113	0x3d594dab	0.053052586
114	0xbeadb806	-0.3392946
115	0xbeac668f	-0.33671996
116	0x3d9e8dca	0.07741888
117	0x3e2b3016	0.16717562
118	0xbdbc01d7	-0.091800384
119	0x3ec3e1f5	0.3825833
120	0xbe042ad4	-0.12906963
121	0x3eceb9cf	0.40376136
122	0x3f0a1515	0.5393842
123	0x3dc033fb	0.093849145
124	0x3e7c0707	0.24612056
125	0x3d00d2a1	0.03145087
126	0xbc9d1ead	-0.019179666
127	0x3e368ce6	0.17827186
128	0x3d8dd13e	0.069246754
129	0xbcb71e96	-0.022353452
130	0x3db60e6b	0.08889469
131	0xbe043197	-0.12909542
132	0x3eb064f8	0.34452033
133	0xbdcbf6da	-0.099591926
134	0xbef1a05f	-0.47192666
135	0xbd967280	-0.07346058
136	0xbde424cc	-0.11139831
137	0xbd601085	-0.054703254
138	0xbe5fd721	-0.21859409
139	0xbdf9e500	-0.122018814
140	0x3e58de89	0.2117864
141	0xbe2410ec	-0.1602208
142	0x3e3c5d92	0.18395069
143	0x3cbfafce	0.02339926
144	0x3cd2f6c5	0.025752435
145	0xbe2fede0	-0.17180586
146	0xbe0c21f6	-0.1368483
147	0xbe7a8894	-0.24466163
148	0x3e5e9478	0.21736324
149	0xbe7ba38c	-0.24574107
150	0x3e97cf6b	0.29650435
151	0x3da0e5d0	0.07856333
152	0x3da1987c	0.07890412
153	0xbe5812b1	-0.2110088
154	0xbe8e2b60	-0.27767467
155	0x3da78fbd	0.08181713
156	0xbe90539b	-0.28188786
157	0x3de7bd17	0.11315363
158	0x3e83f9a6	0.25776404
159	0x3e034153	0.12817888
160	0x3e29c52c	0.16579121
161	0x3e9f2a5c	0.31087005
162	0x3db8f91a	0.09031887
163	0x3e10e75b	0.14150755
164	0xbc95826a	-0.018250663
165	0xbc7cff61	-0.015441746
166	0xbc84817b	-0.016175022
167	0xbd83df2a	-0.064390495
168	0x3e691618	0.22762334
169	0x3e58cf3f	0.21172808
170	0xbc08a0aa	-0.008339087
171	0xbeaa316e	-0.33240837
172	0x3ba78a02	0.0051128874
173	0xbe227073	-0.15863208
174	0x3e587a99	0.21140517
175	0xbd34c721	-0.044135217
176	0xbea26877	-0.31720325
177	0xbd90f657	-0.070782356
178	0x3eac268a	0.33623153
179	0x3e74bf9d	0.2390122
180	0x3c9c2500	0.019060612
181	0x3dfcc1e3	0.123416685
182	0xbe882599	-0.26591185
183	0xbd57978b	-0.052634757
184	0x3e4318ca	0.19052425
185	0xbe8587aa	-0.26080066
186	0xbf0e1e9c	-0.55515456
187	0x3d1944db	0.03741918
188	0x3d264b6b	0.040599268
189	0xbcd77db4	-0.026305057
190	0x3e971622	0.29509073
191	0xbe7bb77a	-0.2458171
192	0xbd504cea	-0.0508546
193	0x3e372816	0.17886385
194	0x3da7d96e	0.08195768
195	0x3e9dedd4	0.3084551
196	0xbd39c214	-0.045351103
197	0xbe8cabae	-0.2747473
198	0xbe255c6b	-0.16148536
199	0xbf00d647	-0.5032696
200	0x3ec72e3e	0.38902467
201	0x3eb14749	0.346247
202	0xb9fae94d	-0.00047857538
203	0xbf204389	-0.6260305
204	0xbe214f11	-0.15752818
205	0xbd81ec9c	-0.06343958
206	0x3ee86fa8	0.45397687
207	0xbde5c511	-0.11219228
208	0xbed74f48	-0.42052674
209	0x3cb13979	0.02163385
210	0x3db69fc7	0.08917194
211	0xbe4ba066	-0.19885406
212	0xbdca2e77	-0.09872144
213	0xbece4367	-0.402858
214	0x3eb48f72	0.3526569
215	0xbe160aa9	-0.14652504
216	0x3eba761c	0.36418235
217	0xbea423cb	-0.32058558
218	0xbee3a6e8	-0.44463277
219	0xbe06efcc	-0.13177413
220	0x3e308ab7	0.17240416
221	0x3e275ea4	0.16344696
222	0x3ef34d64	0.47519982
223	0xbe16edfd	-0.14739223
224	0xbd8f27bd	-0.06990001
225	0xbe53e919	-0.20694388
226	0x3e5fa1ec	0.21839112
227	0xbe8c7c2b	-0.27438483
228	0xbe8e1d0c	-0.27756536
229	0x3e98b0be	0.29822344
230	0x3e4eec05	0.20207222
231	0x3b6efc64	0.0036466355
232	0xbdb9938d	-0.09061346
233	0xbe7c4b5a	-0.2463812
234	0x3e344374	0.17603856
235	0x3eba1647	0.3634512
236	0x3da6ecf5	0.08150665
237	0x3ea85f55	0.32885233
238	0xbe8e7ba1	-0.27828696
239	0xbd1c9998	-0.038232416
240	0xbdc4d770	-0.09611404
241	0xbd9ab553	-0.07554116
242	0xbde92110	-0.11383259
243	0x3d1343fa	0.0359535
244	0xbedbb34f	-0.4291024
245	0x3e52354f	0.20528148
246	0xbe435d55	-0.19078572
247	0x3dc83202	0.09775163
248	0xbdc064b4	-0.093942076
249	0x3dffec72	0.1249627
250	0x3e6fac32	0.23405531
251	0xbe1a6ccd	-0.15080567
252	0x3e06e46a	0.1317307
253	0xbebefef8	-0.373039
254	0xbeb61ad8	-0.35567355
255	0x3d9f284c	0.07771358

in_proj_bias f4 [96]
0	0x3d686f16	0.056746565
1	0xbe5876e7	-0.21139108
2	0x3c75ec81	0.01501
3	0x3c1b9914	0.009496946
4	0x3d90ee6c	0.07076725
5	0x3d014b0b	0.031565707
6	0x3dd17448	0.10227257
7	0xbe13cbc7	-0.14433204
8	0xbecb363f	-0.39689824
9	0x3e0d09b7	0.13773237
10	0xbeab2c3a	-0.3343218
11	0xbbac40da	-0.0052567543
12	0xbed8bbed	-0.42330876
13	0xbe4c3bb5	-0.19944651
14	0x3db00543	0.085947536
15	0x3e432f9e	0.19061133
16	0x3f2d687e	0.6773757
17	0x3de812cb	0.113317095
18	0xbd915bec	-0.07097611
19	0x3ed358df	0.4127874
20	0x3ec26205	0.37965408
21	0xbebc149e	-0.3673448
22	0x3f81c4b6	1.0138156
23	0x3f964045	1.1738364
24	0xbd6fcec1	-0.058546785
25	0xbe0f8bfc	-0.14018244
26	0x3e6d7f8c	0.23193187
27	0xbea347cd	-0.31890717
28	0x3c278bd1	0.010226206
29	0xbd46407f	-0.048401352
30	0xbe720831	-0.23635937
31	0x3e816475	0.25271955
32	0x3a2f1e34	0.0006680221
33	0xbaa64d05	-0.0012687749
34	0xb9f8c02a	-0.0004744542
35	0xba931af2	-0.001122324
36	0x3a7c0b84	0.0009614753
37	0x39975ef4	0.0002887171
38	0x3a40c496	0.00073535123
39	0xbaafd6ee	-0.0013415494
40	0x3a1ae28f	0.00059083937
41	0xb98d84d3	-0.00026992577
42	0x39772430	0.00023569237
43	0xb8fd657c	-0.00012082883
44	0x39cc3b0c	0.00038953905
45	0x39cc81ad	0.00039006528
46	0x3949de2d	0.0001925162
47	0xb9966ea9	-0.00028692678
48	0xb9e010b2	-0.00042737048
49	0x39881ad7	0.0002595994
50	0x3987157d	0.00025765217
51	0x3a442998	0.00074830046
52	0x39ddd1b1	0.00042308637
53	0xba0e9cb2	-0.00054402195
54	0xb953ca64	-0.00020197924
55	0xb9eaa638	-0.000447558
56	0xba898339	-0.0010491378
57	0x391a7374	0.00014729594
58	0x39ced3bd	0.0003944914
59	0xb94e91fe	-0.00019700077
60	0x3a109d21	0.0005516578
61	0x3ab788c6	0.0014002554
62	0x3a885aad	0.0010403
63	0x39129f62	0.0001398302
64	0x3be7ba31	0.0070717563
65	0xbd2a32a6	-0.04155221
66	0xbcb8655a	-0.022509266
67	0x3d83c24b	0.06433543
68	0x3c94c06b	0.018158158
69	0x3d293e19	0.041318987
70	0xbd6bddee	-0.057584696
71	0x3b797e0b	0.0038069512
72	0x3df02680	0.11726093
73	0x3d51390f	0.051079806
74	0xbc87d59b	-0.016581347
75	0xbd820f0f	-0.063505284
76	0xbd96891b	-0.073503695
77	0xbda9cf3d	-0.08291481
78	0x3c51986b	0.012792687
79	0x3d60c4b8	0.054875106
80	0xbd8e99e0	-0.06962943
81	0x3c615957	0.01375421
82	0x3bb7fa09	0.0056145233
83	0x3c8610fa	0.016365517
84	0x3bdbd103	0.0067082657
85	0xbdb68ad8	-0.08913201
86	0xbc35abd5	-0.011088331
87	0x3d855094	0.0650951
88	0x3b227d37	0.0024793872
89	0xbd1e82df	-0.038699027
90	0x3d983600	0.07432175
91	0x3b114b13	0.0022169992
92	0xbc8a89fa	-0.016911495
93	0xbcde239c	-0.02711659
94	0xbcbb57b5	-0.02286897
95	0xbccaf26f	-0.024773804

weight f4 [32, 32]
0	0xbb12c54e	-0.0022395435
1	0xba5cf840	-0.0008429326
2	0x3b94a38d	0.0045360983
3	0xbbedf8ba	-0.0072623165
4	0xbc01d54d	-0.00792439
5	0xbc45270c	-0.012033235
6	0x3b901b99	0.004397821
7	0x3a59ffc1	0.00083160034
8	0x3b5af723	0.0033411465
9	0x3b73c0e9	0.003719384
10	0xbb50cde6	-0.0031861006
11	0xbafe111c	-0.0019383761
12	0xbc15f18c	-0.009151828
13	0x3c21ec0c	0.009882938
14	0xbb441a6a	-0.002992297
15	0xba806284	-0.0009794985
16	0xbc4680f2	-0.012115704
17	0x3aa8a3fe	0.0012866256
18	0x3c042e2a	0.008067647
19	0x3b9984a1	0.004685
20	0x3aa1c8f0	0.0012343209
21	0x3bb72042	0.005588562
22	0x3a36493c	0.0006953662
23	0xbab21491	-0.0013586452
24	0x3a7fdbd4	0.0009760235
25	0x3b746d7d	0.0037296705
26	0xbbc4ff58	-0.0060118847
27	0xbc6210d6	-0.013797959
28	0xbb9d62f7	-0.0048030573
29	0x3cb70922	0.022343222
30	0xb90301cf	-0.00012493807
31	0xbb8c1347	-0.004274759
32	0x3b996c56	0.004682104
33	0xbbb08e6b	-0.0053880713
34	0xba07ebb1	-0.0005184962
35	0x3db48c8c	0.0881587
36	0x3aedcdc1	0.0018142984
37	0x3e8c51b2	0.2740608
38	0xbb0a4bc5	-0.002110229
39	0xbc20f3d4	-0.009823758
40	0x3d6291e0	0.0553149
41	0xbb999525	-0.004686969
42	0xbc51d5ba	-0.012807304
43	0xbb982c05	-0.0046439194
44	0x3eef6ea4	0.467641
45	0xbbe1a23f	-0.0068857963
46	0xbb315fb7	-0.0027065107
47	0x3e1581d2	0.14600304
48	0xbc3361b3	-0.010948586
49	0xbdae47e8	-0.08509809
50	0xbedb5570	-0.4283862
51	0x3a81a298	0.0009890376
52	0xbc071b0e	-0.008246196
53	0xbb95114f	-0.0045491825
54	0xbcc33eb8	-0.023833618
55	0x3ada2804	0.0016644006
56	0x3defa1f8	0.11700815
57	0xbc9bef01	-0.019034864
58	0x3e9ea0ff	0.30982205
59	0xbcb5069e	-0.022097882
60	0xbb810c46	-0.0039382307
61	0x3d1b41e4	0.037904635
62	0x3ab9ed83	0.0014185164
63	0xb8bc4c50	-8.978753e-05
64	0x3c099644	0.0083976425
65	0x3b344ee0	0.0027512833
66	0xbc41feae	-0.0118405055
67	0xbb92d07d	-0.00448042
68	0x3c36935b	0.011143531
69	0x3b982ebf	0.0046442444
70	0xba3927aa	-0.00070631003
71	0x3c91d1c3	0.017800217
72	0x3ae665f4	0.0017577992
73	0xb745f0bc	-1.1798165e-05
74	0x3b240bb2	0.0025031385
75	0x3a4ee601	0.00078925496
76	0xbcc48695	-0.023989955
77	0x3b3880ed	0.0028153018
78	0xbad5e788	-0.0016319612
79	0x3c491692	0.012273448
80	0xbbdd1967	-0.006747413
81	0x3ccdc99e	0.025120553
82	0xbc9e4617	-0.01932053
83	0xbbb6fd5d	-0.0055844025
84	0x3bd5f179	0.00652903
85	0xbc0b7dce	-0.008513881
86	0x3c239bf6	0.009985914
87	0xbbf8e539	-0.007595685
88	0x3b253f87	0.0025214867
89	0x3c93d594	0.018046178
90	0xbc84c42b	-0.016206821
91	0x3b56390c	0.0032687811
92	0x3bba913e	0.0056935837
93	0x3c310ec8	0.010806747
94	0xbb99b1b0	-0.0046903715
95	0xbb9dc1db	-0.004814369
96	0xbb4a13ec	-0.0030834628
97	0xbb97dce0	-0.0046344846
98	0x3b439c2e	0.002984773
99	0x3c8564e9	0.01628347
100	0x3c01c8d6	0.007921418
101	0xbc0b7edd	-0.008514133
102	0x3becb679	0.007223901
103	0xbbbf7962	-0.0058433274
104	0xbbb78ff7	-0.0056018787
105	0x3bf84b31	0.007577323
106	0x3b22619c	0.0024777418
107	0xbb870a8e	-0.0041211313
108	0xba9764c6	-0.0011550419
109	0xba9a2166	-0.0011759221
110	0xbb3bd21c	-0.002865917
111	0x3c10410d	0.008804572
112	0xbcb4e17c	-0.022080176
113	0xbced9555	-0.029001871
114	0xba637679	-0.00086770166
115	0xbbec41ab	-0.0072099767
116	0x3b69f2a3	0.0035697601
117	0x3b22f47f	0.002486497
118	0xbbd94177	-0.0066301185
119	0xba8f363e	-0.00109262
120	0xbb1d3df0	-0.0023993216
121	0x3c24ce63	0.010058972
122	0x3b7171e0	0.0036841556
123	0x3c5e78e1	0.013578624
124	0x3bd5651a	0.0065122964
125	0x3b300086	0.002685578
126	0x3a1ce18f	0.00059845386
127	0xb9133930	-0.00014040316
128	0x3ca95398	0.020669743
129	0x3c0f879d	0.00876036
130	0xbcb9bd07	-0.022673143
131	0x3dbcbe6c	0.092160076
132	0x3c3ed995	0.011648555
133	0x3b33d9d9	0.002744308
134	0xbab5ad11	-0.0013860782
135	0xbdb20967	-0.086931996
136	0xbd30ddeb	-0.043180387
137	0xbb9914e4	-0.00467168
138	0xbc4b09da	-0.0123924855
139	0x3c7397d8	0.014867745
140	0xbbcf65b7	-0.006329264
141	0x3cac8ed5	0.021064201
142	0xbbd144b1	-0.0063863625
143	0xbc080553	-0.008302051
144	0x3e4011db	0.18756811
145	0x3db03ecb	0.08605727
146	0xbd83e4e3	-0.06440141
147	0xbb5c8497	-0.0033648366
148	0x3b8b85fe	0.0042579165
149	0x3b3bb2f3	0.0028640598
150	0x3dddd253	0.10831132
151	0x3b36389a	0.0027804733
152	0xbd098323	-0.033572327
153	0xbcc67b40	-0.024228692
154	0x3d4a7060	0.049423575
155	0xbde9f2b3	-0.11423244
156	0x3bec07ca	0.007203077
157	0xbd042c3c	-0.032268748
158	0xbb34868c	-0.0027546016
159	0xbb553d0d	-0.003253761
160	0xbb2e4e32	-0.00265969
161	0xbb55e201	-0.003263593
162	0x3b9658ae	0.004588208
163	0xbbc5f21a	-0.0060408236
164	0x3b598e87	0.0033196525
165	0x3b1e2cda	0.002413562
166	0xbb28450a	-0.0025675916
167	0x3c818146	0.015808713
168	0x39087d4c	0.00013016647
169	0xba6634e7	-0.0008781687
170	0xbabba250	-0.0014315341
171	0x3ba3cbeb	0.004998674
172	0x3a54ed1a	0.0008122489
173	0x3b6701e0	0.003524892
174	0x3b357541	0.0027688297
175	0xba98d8e0	-0.0011661313
176	0x3bf484d8	0.0074621253
177	0x3bc2ba7e	0.0059426418
178	0xb92b8c9e	-0.00016360215
179	0xbb0ecc35	-0.0021789197
180	0xbb821983	-0.0039703264
181	0x3b03dba8	0.002011994
182	0xb9e627cc	-0.0004389867
183	0x3b2186ef	0.0024647077
184	0xbb6a6a33	-0.0035768866
185	0xbb074269	-0.0020638949
186	0xbb5aaed2	-0.0033368361
187	0x3c1521a8	0.009102263
188	0x3ba540c3	0.0050431206
189	0x3b7521db	0.0037404213
190	0x3961402f	0.00021481582
191	0xba9fbefe	-0.0012187657
192	0x3a689ffd	0.0008873938
193	0x3a28bba6	0.0006436653
194	0xba011e84	-0.00049255067
195	0xba9fc4d8	-0.0012189401
196	0x39916780	0.0002773367
197	0x39aeb057	0.0003331925
198	0xb9a71197	-0.00031865828
199	0xba522b7d	-0.00080173445
200	0x3ad227f2	0.0016033633
201	0x39253e8f	0.00015758931
202	0x38276598	3.991052e-05
203	0x3b182a8e	0.0023218724
204	0xb7c7ae5c	-2.3803841e-05
205	0x3b8e9270	0.004350953
206	0xba9e0ff6	-0.00120592
207	0x3a2c900e	0.0006582745
208	0x3b674feb	0.0035295438
209	0x3aeff876	0.00183083
210	0x38204f08	3.8220576e-05
211	0x3a218347	0.00061612244
212	0x3b503864	0.0031771893
213	0xba9b2e93	-0.0011839442
214	0x3ac0df89	0.0014715056
215	0xba49a72e	-0.0007692453
216	0xbb86b96b	-0.004111459
217	0xba930449	-0.0011216487
218	0x3b846486	0.0040403036
219	0x3a457ac6	0.0007533248
220	0x3ad2774e	0.0016057284
221	0xbb0a2bed	-0.002108331
222	0xb90ea02e	-0.00013601847
223	0xbb370b56	-0.002793034
224	0xbc277078	-0.010219686
225	0xbba27a68	-0.0049584396
226	0x3bf4fb4c	0.007476246
227	0xbe934ca4	-0.2876941
228	0xbbb468fe	-0.00550568
229	0x3d704bdb	0.05866609
230	0xbb343ec7	-0.0027503239
231	0xbd74fdfd	-0.059812535
232	0xbd6decd9	-0.058087204
233	0x3b0612a8	0.0020457897
234	0xb82b4a91	-4.0839022e-05
235	0x3b758457	0.0037462914
236	0xbda49a45	-0.08037237
237	0xbb8f9534	-0.0043818
238	0x3c08fb15	0.008360644
239	0xbca80e28	-0.020514563
240	0xbd405951	-0.04696018
241	0xbd9d3841	-0.07676745
242	0x3eaae1e8	0.33375478
243	0x3986c5e4	0.00025705912
244	0xbc1b0627	-0.009461916
245	0x3a241892	0.0006259765
246	0x3cccaf92	0.024986062
247	0x3bcdfe9b	0.006286455
248	0x3ed57792	0.41692787
249	0xbe0a5f5d	-0.1351294
250	0xbe84cbe9	-0.2593682
251	0xbdb452e7	-0.08804875
252	0x39e88e3f	0.0004435647
253	0xbcb305fe	-0.021853443
254	0x3bd91f62	0.0066260556
255	0x3b84ca11	0.0040524085

bias f4 [32]
0	0x3b514f28	0.003193805
1	0xbd9b2d42	-0.075769916
2	0xbb1261d6	-0.0022336147
3	0x3897eb4a	7.244067e-05
4	0x3a7c9150	0.00096346904
5	0xba7660d0	-0.00093985815
6	0x3a009a78	0.000490583
7	0x3c1d81ba	0.009613449
8	0x39f9770b	0.00047581675
9	0xbaa58d35	-0.0012630584
10	0xb9083c6a	-0.00012992477
11	0x3c17c8ad	0.009264153
12	0x39c0024e	0.0003662281
13	0xba9fc4ac	-0.001218935
14	0xbbe59f4d	-0.0070075155
15	0x3995a04a	0.0002853892
16	0xbc49cbda	-0.012316668
17	0x3c3b67ce	0.011438323
18	0xbaffbc69	-0.0019511107
19	0x3c928f06	0.017890465
20	0xb9ec2db3	-0.00045047476
21	0x3c347581	0.011014343
22	0x3b89e5be	0.0042082956
23	0xbc6cbe89	-0.014449724
24	0xbcc45202	-0.023964886
25	0x3b0f43f2	0.0021860567
26	0x3c894c63	0.016760057
27	0xbada27d7	-0.0016643953
28	0xbc0962fa	-0.008385414
29	0x3a71b0cf	0.0009219767
30	0xbd53b4d9	-0.05168614
31	0x3b2e48ec	0.0026593758

weight f4 [128, 32]
0	0xbe23521f	-0.15949295
1	0xbd05ea5d	-0.03269421
2	0x3c954320	0.018220484
3	0x3db15965	0.08659629
4	0x3ec4cd39	0.38437822
5	0x3e2353f8	0.1595
6	0x3e6089a8	0.21927512
7	0xbd784915	-0.06061657
8	0xbc01cf3c	-0.007922944
9	0x3d191224	0.037370816
10	0xbe449630	-0.19197917
11	0xbe33cbe9	-0.17558254
12	0xbe0233fc	-0.12715143
13	0xbca2850c	-0.019838832
14	0xbd47a32d	-0.0487396
15	0xbcf3c2d5	-0.02975599
16	0xbd3c5fa8	-0.045989662
17	0x3eafd814	0.34344542
18	0x3d8cf4a0	0.06882596
19	0xbcc5ea75	-0.02415965
20	0x3d6a5339	0.057208274
21	0x3e17c121	0.14819767
22	0xbecd50c9	-0.40100697
23	0x3e7ba121	0.24573185
24	0x3e825789	0.2545741
25	0x3dd8b34b	0.105810724
26	0x3e9aee44	0.30259907
27	0x3d288000	0.041137695
28	0x3dc58070	0.09643638
29	0x3e25283e	0.16128632
30	0xbbf175f5	-0.007368798
31	0x3d4da5b5	0.05020686
32	0x3d7f2f35	0.06230088
33	0x3e1dd5a4	0.15413529
34	0x3d0e6725	0.034766335
35	0xbb37092f	-0.0027929058
36	0xbcaec307	-0.02133323
37	0x3d6bb134	0.05754204
38	0x3d2f2489	0.042759452
39	0xbdc16327	-0.0944274
40	0x3caf8d5e	0.021429714
41	0xbcf43366	-0.029809665
42	0xbe30cbe0	-0.17265272
43	0xbe01098d	-0.126013
44	0xbd8e40af	-0.06945931
45	0x3b3258b6	0.002721352
46	0xbd818999	-0.06325073
47	0xbaaa1ded	-0.0012978889
48	0xbf0c80fc	-0.54884315
49	0xbd686ff8	-0.056747407
50	0xbce8f6d2	-0.028438006
51	0xbe7e1a43	-0.24814706
52	0x3e137f00	0.14403915
53	0xbf1d6762	-0.61485875
54	0xbdb60aec	-0.08888802
55	0xbd057f95	-0.032592375
56	0xbdd6dca4	-0.104913026
57	0xbe101820	-0.14071703
58	0xbef241e6	-0.47315902
59	0x3e1d9724	0.15389687
60	0x3e0df156	0.13861594
61	0xbd6520ca	-0.055939473
62	0x3dd457db	0.103683196
63	0xbdf23802	-0.11827089
64	0xbe08507b	-0.13311951
65	0x3da98835	0.082779326
66	0x3ed32406	0.4123842
67	0xbe4b12ec	-0.19831437
68	0x3df2e351	0.118597634
69	0xbe84be8c	-0.25926626
70	0xbd09e092	-0.033661433
71	0x3e80c626	0.25151175
72	0x3e964fb8	0.29357696
73	0x3dc6c66e	0.09705816
74	0xbe3d69f8	-0.18497455
75	0x3e523ebf	0.20531748
76	0xbb95294d	-0.0045520426
77	0x3d866b53	0.06563439
78	0xbe234afb	-0.15946572
79	0x3de61066	0.112335965
80	0xbe3b546b	-0.18293922
81	0x3d8499a5	0.06474618
82	0x3ecffc9d	0.40622416
83	0xbe9f1c9e	-0.3107652
84	0x3bf5ba9d	0.0074990527
85	0xbdd55558	-0.10416669
86	0xbe4977c9	-0.196746
87	0x3e02e2a3	0.12781768
88	0xbdf92196	-0.12164609
89	0xbd225021	-0.039627198
90	0xbdda0ede	-0.10647367
91	0xbd7865af	-0.060643848
92	0x3e14c541	0.14528371
93	0xbe6a4195	-0.2287658
94	0xbdf78a43	-0.12086918
95	0xbc948a57	-0.018132372
96	0xbea41fed	-0.32055607
97	0xbcd591f3	-0.02607057
98	0xbd7c480d	-0.06159215
99	0xbe615efd	-0.22008891
100	0x3d85ec3d	0.065391995
101	0xbb24b8e2	-0.0025134613
102	0xbe1bc646	-0.15212354
103	0xbdfaa186	-0.122378394
104	0xbf04160a	-0.5159613
105	0xbe0ef845	-0.13961895
106	0xbdc4f1c5	-0.096164264
107	0x3d283f94	0.041076258
108	0x3ed42099	0.4143112
109	0xbd698276	-0.057009183
110	0xbe6ba440	-0.23011875
111	0x3e1fde51	0.1561215
112	0xbdaadd55	-0.08342997
113	0xbc53443c	-0.012894686
114	0xbd1e48fb	-0.03864382
115	0x3c422696	0.01185002
116	0xbc6343cd	-0.013871145
117	0xbd5f2839	-0.05448172
118	0xbddfa087	-0.1091929
119	0x3e4a11e1	0.19733383
120	0xbe198618	-0.14992559
121	0xbad7ee34	-0.0016474188
122	0xbd804b06	-0.062643096
123	0x3e77b6f5	0.24190886
124	0xbed53569	-0.4164231
125	0xbe12bd95	-0.14330132
126	0xbbd49567	-0.0064875367
127	0xbcc5c351	-0.024140986
128	0xbe400326	-0.18751201
129	0xbd2ef823	-0.04271711
130	0xbe383dea	-0.17992368
131	0xbe728516	-0.23683581
132	0xbe1452fe	-0.14484784
133	0x3ea5a725	0.32354084
134	0x3d9e6a7f	0.07735156
135	0x3e15ec3f	0.14640902
136	0xbe175ff3	-0.14782695
137	0xbd0b85b8	-0.03406307
138	0xbdd5d212	-0.10440458
139	0xbce2c8e8	-0.02768369
140	0xbd8f2f6e	-0.06991468
141	0xbcee861d	-0.029116685
142	0xbe29d5bc	-0.1658544
143	0x3dd59d8e	0.10430442
144	0x3e0a0c68	0.13481295
145	0xbc91f14b	-0.017815253
146	0x3d1bcd49	0.038037572
147	0xbdf1ab6d	-0.11800275
148	0xbcc9418b	-0.024567386
149	0xbd629248	-0.055315286
150	0xbe2a1c60	-0.16612387
151	0xbd8762ff	-0.06610679
152	0xbd31cd4c	-0.043408677
153	0xbe98b326	-0.2982418
154	0xbc0dc0a6	-0.008651888
155	0x3e3dd0c1	0.18536665
156	0xbd915003	-0.07095339
157	0xbe1e1525	-0.15437753
158	0x3dcefa57	0.10106342
159	0x3e311921	0.17294742
160	0xbe269b8c	-0.16270274
161	0x3e40c459	0.188249
162	0x3db3ca15	0.087787785
163	0xbdf68614	-0.12037292
164	0x3da68d01	0.08132363
165	0x3e9c57df	0.3053579
166	0x3e5431cc	0.20722121
167	0x3ce8ea58	0.028432056
168	0xbcff58a2	-0.031170193
169	0xbde278d1	-0.110582
170	0x3d8e0c03	0.06935885
171	0x3dd311a2	0.103060976
172	0xbc95e95b	-0.01829975
173	0xbd3bdfd0	-0.04586774
174	0x3ba094ca	0.0049005495
175	0x3cb84750	0.022494942
176	0xbe88c755	-0.26714578
177	0xbdd5e2d3	-0.10443654
178	0x3e0bf472	0.13667467
179	0x3dd5743b	0.1042256
180	0xbe2fc374	-0.17164403
181	0xbd9554e9	-0.07291586
182	0xbdf89161	-0.12137104
183	0xbe3fc41c	-0.18727154
184	0x3d4ed1ef	0.050493177
185	0x3de1fa13	0.11034026
186	0x3d675c00	0.056484222
187	0xbe355d84	-0.17711455
188	0x3dc237f9	0.09483332
189	0x3e88bdff	0.26707456
190	0x3c93412c	0.017975412
191	0x3ca3d908	0.02000095
192	0xbc34a798	-0.011026286
193	0xbd58a659	-0.052893016
194	0x3c0f4c8f	0.00874628
195	0x3e814752	0.25249726
196	0x3e919fd1	0.28442243
197	0xbe18500f	-0.1487429
198	0xbd8ee05a	-0.069763854
199	0xbe068be6	-0.13139305
200	0x3de76af1	0.11299694
201	0xbe7823bc	-0.24232382
202	0x3c22c8f0	0.009935603
203	0xbd38a979	-0.045083497
204	0xbca9ecf8	-0.020742878
205	0xbc205bde	-0.009787528
206	0xbf267c16	-0.6503309
207	0x3e153ccf	0.14573978
208	0x3cb555bc	0.022135608
209	0x3ecd61fc	0.4011382
210	0xbe97debb	-0.29662117
211	0x3d9c4104	0.07629588
212	0x3d9276a6	0.07151537
213	0x3c75cef8	0.0150029585
214	0x3d590f07	0.052992847
215	0x3df91249	0.12161691
216	0x3de6e7b3	0.11274662
217	0x3da5e41d	0.0810015
218	0xbdce2d1c	-0.10067198
219	0xbdea8895	-0.11451832
220	0x3e647019	0.22308387
221	0xbdfa260e	-0.122142896
222	0xbc0d8c57	-0.008639417
223	0xbe2dd678	-0.16976345
224	0xbd1d8f8b	-0.03846697
225	0xbd934871	-0.071915515
226	0x3e7310e1	0.23736908
227	0xbc408df3	-0.011752593
228	0x3cd63014	0.026145972
229	0x3d97b4c7	0.074075274
230	0x3d794262	0.060854323
231	0xbe08cd04	-0.13359457
232	0xbd08f990	-0.033441126
233	0xbd927f5d	-0.07153199
234	0x3db29e0c	0.08721551
235	0xbe6142ba	-0.2199811
236	0xbda1b4cb	-0.07895812
237	0x3d9bf849	0.07615716
238	0x3dee31cb	0.11630591
239	0xbd9c73b5	-0.07639257
240	0xbf02f810	-0.51159763
241	0xbd4bcb8e	-0.04975467
242	0x3e614ff0	0.2200315
243	0x3e3fd8fb	0.18735115
244	0x3dc2fc81	0.095208175
245	0xbd27b32b	-0.040942352
246	0xbd995aaa	-0.07487996
247	0xbe587ec7	-0.21142112
248	0xbdd7f40b	-0.105445944
249	0xbdabc29e	-0.0838673
250	0xbc15f129	-0.009151735
251	0xbd4027f0	-0.046913087
252	0x3cc3e548	0.02391304
253	0xbcf15cec	-0.029463254
254	0x3d4a7844	0.0494311
255	0xbd8d819b	-0.06909486

bias f4 [128]
0	0xbf18c4d7	-0.59675354
1	0xbe15604a	-0.14587513
2	0xbd283be3	-0.041072737
3	0xbe53b2fd	-0.20673747
4	0xbdc462ec	-0.0958918
5	0xbec66348	-0.3874762
6	0xbdfd3228	-0.12363082
7	0xbed06f7e	-0.40710062
8	0xbe178c28	-0.14799559
9	0xbe093460	-0.13398886
10	0xbd317c1a	-0.043331243
11	0xbe86c8a7	-0.2632496
12	0xbd690bd4	-0.056896046
13	0xbe27a9d8	-0.16373384
14	0xbe93201a	-0.2873543
15	0xbe09590a	-0.13412872
16	0xbeb749d9	-0.3579853
17	0xbe93d46c	-0.28873003
18	0xbc8853fa	-0.016641606
19	0xbde1c286	-0.110234305
20	0xbea80e6b	-0.328235
21	0xbebbbb1c	-0.3666619
22	0xbe803139	-0.25037554
23	0xbe3489a7	-0.17630635
24	0x3bac881a	0.005265248
25	0xbe5c172f	-0.21493219
26	0xbe9a1822	-0.30096537
27	0xbe877251	-0.26454404
28	0xbecbd9d2	-0.3981462
29	0xbec1c1df	-0.37843224
30	0x3d722a14	0.05912216
31	0xbe57dc13	-0.21080045
32	0xbe512a7b	-0.20426361
33	0xbe84d758	-0.25945544
34	0xbea870f2	-0.3289867
35	0xbe2591e9	-0.16168942
36	0xbe8e22c8	-0.2776091
37	0xbe609f26	-0.2193571
38	0xbe758a1c	-0.23978466
39	0xbe84f7fa	-0.2597044
40	0xbeb367d0	-0.3504014
41	0xbe291c07	-0.16514598
42	0xbe45a79a	-0.19302216
43	0xbdf13872	-0.11778344
44	0xbd9648a5	-0.073380746
45	0xbec08b57	-0.37606308
46	0xbeeec65c	-0.4663571
47	0xbea4ca0e	-0.32185405
48	0xbe4e9b6c	-0.20176476
49	0xbcf7b05a	-0.030235458
50	0xbd991146	-0.07473998
51	0xbe59f5ee	-0.21285221
52	0xbeabd232	-0.33558804
53	0xbebc469a	-0.36772615
54	0xbec10543	-0.37699327
55	0xbec46b44	-0.38363087
56	0xbd9aa6f7	-0.07551377
57	0xbd85441e	-0.06507133
58	0x3d21f303	0.039538395
59	0xbe8ce8ce	-0.27521366
60	0xbe2bef41	-0.16790487
61	0x3d03707d	0.0320897
62	0xbdee8d6d	-0.116480686
63	0xbeac4a86	-0.33650607
64	0xbeb21bd5	-0.3478686
65	0xbe9d4d23	-0.30722913
66	0xbeff304a	-0.4984153
67	0xbc02b6a6	-0.007978117
68	0xbead8f4f	-0.33898398
69	0xbe0700e7	-0.13183938
70	0xbe8774ee	-0.26456398
71	0xbe2227c7	-0.15835486
72	0xbea17d35	-0.31540838
73	0xbe4f4095	-0.2023948
74	0xbec430e1	-0.38318542
75	0xbe343a87	-0.17600451
76	0xbe424fc9	-0.18975748
77	0xbe9c0ee6	-0.30480117
78	0xbe806bfe	-0.25082392
79	0xbe827490	-0.25479555
80	0xbd8691be	-0.06570767
81	0xbdb5bbab	-0.088736854
82	0xbe406b35	-0.18790896
83	0xbe854ea3	-0.26036558
84	0xbd7c25cc	-0.061559483
85	0xbed03550	-0.40665674
86	0xbe370ebc	-0.17876714
87	0xbde5f071	-0.11227501
88	0xbe0bca46	-0.1365138
89	0xbe4c91d8	-0.1997751
90	0xbe00c216	-0.12574038
91	0x3c392da4	0.0113023855
92	0xbea51008	-0.32238793
93	0xbed07982	-0.40717703
94	0xbe4f3b89	-0.20237555
95	0xbeaf43da	-0.34231454
96	0xbe275f9c	-0.16345066
97	0xbe09bd57	-0.13451134
98	0xbed79cd0	-0.42111826
99	0xbe22b768	-0.15890276
100	0xbcfa5ad7	-0.030560894
101	0xbe4557e2	-0.19271806
102	0xbeb34621	-0.35014442
103	0xbebbcb96	-0.3667876
104	0xbdef783e	-0.11692856
105	0xbe1d2f3f	-0.15350054
106	0xbeef4389	-0.46731213
107	0xbe29e4c4	-0.16591173
108	0x3caa33a8	0.020776585
109	0xbe0a7b7b	-0.13523667
110	0xbe3355d2	-0.17513207
111	0xbeed120c	-0.4630283
112	0x3d1e2397	0.03860816
113	0xbe04bad3	-0.12961893
114	0xbe2d5613	-0.16927366
115	0xbe0c543e	-0.13704011
116	0xbdd9ab2c	-0.106283516
117	0xbee3f097	-0.44519493
118	0xbe05944a	-0.13044849
119	0xbed62dd4	-0.4183184
120	0xbeb15827	-0.34637567
121	0xbef9161e	-0.48649687
122	0xbe7a4221	-0.24439289
123	0xbe0f7484	-0.14009291
124	0x3c60f7f6	0.0137309935
125	0xbe63df42	-0.22253135
126	0xbeb2eb53	-0.34945163
127	0xbe3064e3	-0.17225985

weight f4 [32, 128]
0	0xbcb480b4	-0.022034027
1	0xbca4dd57	-0.020125074
2	0x3ca0a980	0.019612074
3	0x3efc3137	0.49256298
4	0x3d947fa3	0.07250907
5	0x3c0dc794	0.00865354
6	0xbb2bd77c	-0.0026220968
7	0x3b9efd54	0.0048519764
8	0xbc191845	-0.009344165
9	0x3e88a891	0.26691106
10	0xbdad5bae	-0.08464752
11	0xbe3ed68a	-0.18636528
12	0x3dfe8af9	0.12428851
13	0xbcf360c2	-0.029709224
14	0x3d4e1513	0.050313067
15	0x3df0e62e	0.11762653
16	0xbc3566c6	-0.011071866
17	0xbd3197a1	-0.043357495
18	0xbcb728bf	-0.022358296
19	0xbb8d5d6a	-0.0043141143
20	0x3c92d39f	0.017923174
21	0xbd7d1224	-0.06178488
22	0x3e9ef655	0.3104731
23	0xbc80de49	-0.015730994
24	0xbc24dd95	-0.010062595
25	0xbddff8ac	-0.10936102
26	0x3d772f35	0.060347755
27	0xbcbc3bc3	-0.022977715
28	0xbce4efbf	-0.027946351
29	0x3c09b970	0.008406028
30	0xbecece34	-0.40391695
31	0x3ea716e1	0.32634643
32	0xbc4acc76	-0.012377849
33	0xbca5f0a2	-0.020256344
34	0xbbb4db74	-0.005519325
35	0xbcd80b09	-0.02637245
36	0xbe1e3e23	-0.15453391
37	0xba8fd8fb	-0.0010974699
38	0xbd0721b0	-0.03299111
39	0xbc54235c	-0.012947883
40	0x3c47c67e	0.01219332
41	0x3dfa3447	0.12217002
42	0x3d28ec8a	0.041241206
43	0x3e98987e	0.29803842
44	0xbcf8889d	-0.03033858
45	0x3bea8980	0.0071575046
46	0x3c7cf3d9	0.015438997
47	0xbc3b4039	-0.011428886
48	0x3f3a37ff	0.72741693
49	0x3ceac447	0.028658045
50	0x3d0aeed2	0.033919163
51	0x3cab6d7f	0.020926235
52	0x3c79722d	0.0152249755
53	0x3c5f7eb5	0.013641049
54	0xbc1c7f98	-0.009551905
55	0xbc088fab	-0.008335034
56	0xbea5a25f	-0.32350442
57	0x3c295d31	0.01033716
58	0xbd89e745	-0.06733564
59	0x3e41057b	0.18849747
60	0xbd3c64eb	-0.04599468
61	0x3d2fda9a	0.042933084
62	0x3cdf7924	0.027279444
63	0x3c113ffe	0.008865355
64	0xbcb02af0	-0.02150485
65	0x3d4a20cc	0.049347684
66	0xbd40c90d	-0.047066737
67	0xbc905c96	-0.017622273
68	0xbda4cde1	-0.08047081
69	0xbb51b5dc	-0.0031999266
70	0xbc97c3ae	-0.018525925
71	0x3d8b2699	0.06794471
72	0x3d1885d5	0.037237007
73	0x3cb7de2d	0.022444809
74	0x3cd0b058	0.025474712
75	0xbdef5991	-0.11687005
76	0x3ef9aa45	0.48762718
77	0x3e28accb	0.16472165
78	0xbe12f899	-0.14352645
79	0xbd3cce6e	-0.046095304
80	0x3eef089d	0.4668626
81	0xbc1dbfa1	-0.009628207
82	0xbd17e024	-0.03707899
83	0x3c75b6e4	0.014997218
84	0x3e0a872c	0.13528126
85	0x3d24b18f	0.040208396
86	0xbc60d8a7	-0.013723529
87	0x3a1f6a7c	0.0006081236
88	0x3ed909aa	0.42390186
89	0xbcb74cd5	-0.022375504
90	0xbd2f3437	-0.042774405
91	0xbd412ccb	-0.04716186
92	0xbcf54743	-0.029941207
93	0x3bb65bc8	0.0055651404
94	0xbba691a1	-0.0050832783
95	0xba248ee3	-0.00062773953
96	0x3ca45f1f	0.020064889
97	0x3e7df4c1	0.24800397
98	0xbc4985ee	-0.012299998
99	0xbc1fce19	-0.009753727
100	0xbca80002	-0.020507816
101	0xbce12085	-0.027481327
102	0x3f138087	0.5761799
103	0x3e93b81f	0.2885141
104	0xbd87ccd0	-0.06630862
105	0xbc2b4bf0	-0.010455117
106	0xbe2093fa	-0.15681449
107	0x3bf78cb8	0.007554617
108	0x3cde2760	0.027118385
109	0xbd0f88ad	-0.035042454
110	0x3d7956da	0.060873844
111	0xbcd24bdd	-0.02567094
112	0x3f212c69	0.6295839
113	0x3c804afb	0.015660753
114	0x3cc5354c	0.024073265
115	0xbb0acaeb	-0.0021178077
116	0xbd8489c3	-0.064715885
117	0xbb403273	-0.0029326945
118	0x3b0ff987	0.0021968798
119	0xbd0d0e64	-0.034437552
120	0xbe811ab8	-0.25215697
121	0xbc835a26	-0.016034197
122	0x3b9b771f	0.004744425
123	0xbc7a7263	-0.015286061
124	0x3c327402	0.010891916
125	0xbcbacdde	-0.022803243
126	0xbc8a26e5	-0.01686425
127	0x3e1cae75	0.15300925
128	0xbed47ae8	-0.4150002
129	0xbd2a4fda	-0.04158006
130	0xbe718827	-0.23587094
131	0xbdcfb435	-0.10141794
132	0x3db77b52	0.08959068
133	0xbf06565f	-0.5247554
134	0x3d840006	0.06445317
135	0x3e38f563	0.18062358
136	0x3ec25f57	0.37963364
137	0xbdaf0db7	-0.08547538
138	0xbe0bff25	-0.13671549
139	0x3e43378e	0.19064161
140	0x3e23d7a7	0.16000234
141	0xbdf99dae	-0.12188278
142	0x3e781c78	0.2422961
143	0x3e831b58	0.256068
144	0xbe8e2d5d	-0.27768984
145	0xbd546e2a	-0.051862873
146	0x3dfa31c9	0.12216527
147	0x3da55891	0.08073533
148	0x3e14cce0	0.14531279
149	0x3e8309e8	0.25593495
150	0x3bd399f1	0.00645756
151	0x3d1b6e7e	0.03794717
152	0xbda05e1d	-0.07830451
153	0xbdd6790d	-0.10472307
154	0xbed4bcdc	-0.41550338
155	0x3e142202	0.14466098
156	0xbdff1f28	-0.124571145
157	0x3e4e685c	0.20156997
158	0x3cab1dfc	0.020888321
159	0xbe882f15	-0.2659842
160	0xbeea5437	-0.45767376
161	0x3daf536b	0.085608326
162	0x3d9de93c	0.077105016
163	0x3d5bc18e	0.053651385
164	0xbd96488e	-0.073380575
165	0x3e8527c7	0.2600691
166	0x3e905e5c	0.2819699
167	0x3f0e5336	0.5559572
168	0xbe3fc27d	-0.18726535
169	0xbe5a46fe	-0.21316144
170	0xbd238d47	-0.039929654
171	0xbdb3c433	-0.087776564
172	0x3e5c5638	0.21517265
173	0xbd9a68af	-0.07539498
174	0xbbac1347	-0.0052513215
175	0xbbe666d1	-0.0070312996
176	0xbdaa2d6c	-0.08309445
177	0xbe46c84c	-0.19412345
178	0x3cba5e05	0.02274991
179	0xbdc16af1	-0.094442256
180	0x3bd28c6f	0.0064254324
181	0xbebdf83e	-0.37103456
182	0xbe6d24cb	-0.23158567
183	0xbeab1bfe	-0.33419794
184	0xbdf0fa68	-0.11766511
185	0x3e136e07	0.14397441
186	0xbcb1bf7e	-0.021697756
187	0xbeaa55d4	-0.33268607
188	0x3d8f2133	0.06988754
189	0x3dbfdb3e	0.09367989
190	0x3b56f1c7	0.003279792
191	0xbec0e306	-0.37673205
192	0xbe31916c	-0.1734063
193	0x3e8c6638	0.27421737
194	0x3e44c3d1	0.19215323
195	0xbeb54616	-0.35405034
196	0xbf18975d	-0.5960596
197	0x3e0d931d	0.1382565
198	0x3e88a71c	0.26689994
199	0x3f079429	0.5296045
200	0x3dffb0a1	0.12484861
201	0xbe1ff419	-0.1562046
202	0x3e3368b2	0.17520407
203	0x3d0bb209	0.034105334
204	0xba2a9d5a	-0.00065084326
205	0xbeb34219	-0.35011366
206	0x3c5ecc7c	0.013598558
207	0xbe09dd33	-0.13463287
208	0xbcedf150	-0.02904573
209	0xbd4cfc7a	-0.050045468
210	0xbf10cfd4	-0.5656712
211	0xbe2bc297	-0.16773449
212	0xbca80f54	-0.020515122
213	0xbdfb5fd1	-0.12274135
214	0x3e6b2e4b	0.22966878
215	0x3d9d7ded	0.07690034
216	0x3e04e252	0.1297696
217	0x3cfe2f18	0.031028315
218	0x3e5057e2	0.20346025
219	0x3df29bf8	0.11846155
220	0x3ce54bb8	0.027990207
221	0xbec343a7	-0.38137552
222	0x3f428c43	0.7599527
223	0xbf08ed83	-0.53487414
224	0xbe70fe59	-0.23534526
225	0x3d980c44	0.074242145
226	0x3dc36737	0.09541171
227	0xbd66f8ea	-0.056389727
228	0xbefb8e6d	-0.491321
229	0x3edce6f8	0.43144965
230	0xbe1d33d7	-0.15351807
231	0x3e0398a8	0.12851202
232	0x3e15b028	0.1461798
233	0xbe556f69	-0.20843281
234	0x3ea79f35	0.32738653
235	0xbe80608d	-0.25073662
236	0x3e32fb3c	0.17478651
237	0xbdffffde	-0.12499975
238	0xbdc808f3	-0.09767332
239	0x3e9b6a59	0.30354574
240	0x3c2df40a	0.0106172655
241	0xbee91c5e	-0.45529455
242	0x3eb1610c	0.34644353
243	0xbe0b162e	-0.1358268
244	0xbe00546e	-0.12532207
245	0x3eb40a98	0.35164332
246	0xbe0c7249	-0.13715471
247	0xbce07109	-0.02739765
248	0x3be46c5d	0.0069709257
249	0x3f1c27a4	0.60997987
250	0xbe0b3322	-0.13593724
251	0xbf8ea408	-1.1143808
252	0xbec7f838	-0.39056563
253	0xbdb6ab4b	-0.0891939
254	0xbc6393ba	-0.013890201
255	0x3d8b2b46	0.06795363

bias f4 [32]
0	0x3c056265	0.008141135
1	0x3d27ee9b	0.040999036
2	0xbc22c892	-0.009935515
3	0xbc37e120	-0.011223108
4	0x3c8d516c	0.017250739
5	0xbaadfafd	-0.0013273653
6	0xb640e159	-2.87414e-06
7	0xbc05e002	-0.008171083
8	0x3ac716a3	0.0015189241
9	0x3a1040da	0.00055028277
10	0xbcd02511	-0.0254083
11	0x3d315961	0.04329813
12	0xbbb702eb	-0.0055850646
13	0xbad4fe1e	-0.0016250049
14	0x3d25335c	0.040332183
15	0x3ac5dbc5	0.0015095404
16	0xbd67e3ec	-0.056613848
17	0x3d1ad8c7	0.03780439
18	0xbc25cda3	-0.010119828
19	0x3b3f6b45	0.0029208225
20	0xbba5be70	-0.0050581023
21	0xbd5c3a38	-0.05376646
22	0x3c029b7f	0.0079716435
23	0x3d215d42	0.03939558
24	0x3d507e70	0.05090183
25	0xbcf74a98	-0.030186936
26	0x3cb20984	0.021733053
27	0xbcaf09d6	-0.021366995
28	0xbc6e1dc7	-0.014533467
29	0xb95dd5fc	-0.00021155918
30	0x3d1699a8	0.03676763
31	0xbbeb0b80	-0.0071730018

weight f4 [32]
0	0x3f255f22	0.64598286
1	0x3f39e6fb	0.72618073
2	0x3f9a80fb	1.2070612
3	0x3f52518a	0.8215567
4	0x3f2431ee	0.64138687
5	0x3fa61f42	1.2978289
6	0x3f5e865f	0.86923784
7	0x3f30bbd7	0.6903662
8	0x3f9179b0	1.1365261
9	0x3f4e1da6	0.8051399
10	0x3f764426	0.96197736
11	0x3f8abbbd	1.0838543
12	0x3f8865d1	1.0656072
13	0x3f3a0bcd	0.72674257
14	0x3ee03cfb	0.43796524
15	0x3fab5e9e	1.338825
16	0x3ec9f1dd	0.3944234
17	0x3ee1177a	0.43963224
18	0x3fa7c4da	1.3106949
19	0x3f1fbd95	0.62398654
20	0x3ef36d14	0.47544158
21	0x3eea47e0	0.4575796
22	0x3f32d980	0.6986313
23	0x3ec56b16	0.38558263
24	0x3f0a14e8	0.5393815
25	0x3fadf369	1.3589908
26	0x3f0953f8	0.5364375
27	0x3fbb8eda	1.465297
28	0x3f29a6b7	0.6627001
29	0x3fad9258	1.3560286
30	0x3f8e01c6	1.1094291
31	0x3a02ec55	0.00049943227

bias f4 [32]
0	0x3f75c669	0.96005875
1	0x3c6b266c	0.014352422
2	0xbe01c03a	-0.12670985
3	0xbeec99d7	-0.4621112
4	0xbde7fca2	-0.11327483
5	0x3e571a9d	0.21006246
6	0x3e904585	0.2817804
7	0xbc23fcf6	-0.010009041
8	0xbc980d54	-0.018561043
9	0x3e7cb5bd	0.24678703
10	0x3d791d35	0.06081887
11	0x3e0a081b	0.13479654
12	0xbeb25fa4	-0.34838593
13	0xbe0b7148	-0.13617432
14	0xbda61d3b	-0.08111044
15	0x3f64058a	0.8907095
16	0xbd819a07	-0.063282065
17	0xbd1e47d4	-0.03864272
18	0xbe0dc9da	-0.13846532
19	0x3dbf3563	0.093363546
20	0xbf072f56	-0.52806604
21	0x3d033faf	0.032043155
22	0xbd311d37	-0.043240752
23	0xbde53aef	-0.11192881
24	0xbd62e8d2	-0.055397816
25	0xbe10ab0c	-0.14127749
26	0xbd83ca5d	-0.06435082
27	0x3f05e888	0.5230794
28	0xbe1435b4	-0.14473611
29	0xbf210155	-0.6289266
30	0xbe32480f	-0.174103
31	0x3a848ed5	0.0010113368

weight f4 [32]
0	0x3f863dc1	1.0487596
1	0x3fce7bc4	1.613152
2	0x3f93f086	1.1557777
3	0x3f8c3921	1.0954934
4	0x3f679dc9	0.90475136
5	0x3f92521e	1.143131
6	0x3fa093bb	1.2545084
7	0x3fb1aae7	1.388028
8	0x3f89f5af	1.0778102
9	0x3f9b9771	1.2155591
10	0x3ff51bbd	1.914909
11	0x3fb549c8	1.4163141
12	0x3f8d6227	1.1045579
13	0x3f8a3171	1.0796338
14	0x3f53390a	0.8250891
15	0x3faaa8db	1.3332781
16	0x3fae980e	1.3640153
17	0x3f765325	0.9622062
18	0x3f917e6e	1.1366708
19	0x3f8bcc89	1.0921794
20	0x3f5b2ca3	0.85614985
21	0x3f847318	1.0347624
22	0x3fd760df	1.6826438
23	0x3f808266	1.0039794
24	0x3f8f97ee	1.121824
25	0x3fae27cd	1.3605896
26	0x3f998ff5	1.1997057
27	0x3fbb8279	1.4649192
28	0x3f5821fb	0.8442685
29	0x3fa0ceac	1.2563071
30	0x3fead94a	1.8347561
31	0x3f30e66b	0.6910159

bias f4 [32]
0	0x3f0ce915	0.55043155
1	0xbd821a5b	-0.06352683
2	0x3d806323	0.06268909
3	0xbea7b13d	-0.3275241
4	0xbd869227	-0.06570845
5	0x3cfcdfeb	0.030868491
6	0x3e4bb193	0.19891958
7	0xbd9e78cc	-0.07737884
8	0xbe1af191	-0.15131213
9	0x3c875e70	0.016524523
10	0xbe575d5f	-0.21031712
11	0x3d56c6f2	0.052435823
12	0x3d16f92a	0.036858715
13	0xbdda2b3f	-0.1065278
14	0xbd841d73	-0.064509295
15	0x3f258968	0.6466279
16	0xbd130e58	-0.03590235
17	0xbc8f4260	-0.017487705
18	0xbcbb94a1	-0.02289802
19	0xbe11d21f	-0.14240311
20	0xbe1151b7	-0.14191328
21	0xbe195d2a	-0.14976946
22	0xbdd4fa9b	-0.10399362
23	0x3c9c68be	0.019092914
24	0xbc8b8ffb	-0.017036429
25	0x3da051dd	0.07828114
26	0x3c61df3b	0.013786132
27	0x3e5c1220	0.21491289
28	0xbdcbb16c	-0.0994595
29	0xbf18ce72	-0.5969001
30	0x3dd6f3d4	0.10495725
31	0xbd705bc4	-0.058681265

in_proj_weight f4 [96, 32]
0	0xbe2c8830	-0.16848826
1	0x3ed58cc4	0.41708958
2	0xbdf293eb	-0.11844619
3	0x3e823d05	0.2543718
4	0x3e16ee63	0.14739375
5	0x3e5e6a7d	0.2172031
6	0xbe05d7e8	-0.13070643
7	0xbe6b16fa	-0.22957984
8	0xbe32850e	-0.17433569
9	0x3ec48d67	0.3838913
10	0xbe39aebe	-0.18133065
11	0xbe9be9fa	-0.30451947
12	0x3eaff449	0.34366062
13	0xbac6a93b	-0.0015156636
14	0x3e13d354	0.14436084
15	0x3e300e62	0.17192987
16	0x3ecb317b	0.39686188
17	0xbf0f04c2	-0.55866635
18	0x3c72381b	0.014783884
19	0x3dac2d16	0.08407037
20	0x3d695a14	0.05697067
21	0x3e3e5e1c	0.18590587
22	0xbd8744a9	-0.06604893
23	0x3edd8bde	0.43270773
24	0x3f174670	0.59091854
25	0x3dad44be	0.08460377
26	0x3e7b82b3	0.24561577
27	0xbe239d02	-0.15977862
28	0xbe263d95	-0.16234429
29	0xbe0d496e	-0.13797542
30	0xbf69633c	-0.91167045
31	0x3e228f62	0.15875009
32	0xbe431c53	-0.19053774
33	0xbe50a7ba	-0.20376483
34	0x3e99f4d7	0.3006961
35	0xbe403e1e	-0.18773696
36	0xbd29bb7b	-0.04143856
37	0x3e9ac84b	0.30230936
38	0x3eab2171	0.3342395
39	0x3f7485c1	0.9551659
40	0x3d931340	0.07181406
41	0xba58f60f	-0.00082764117
42	0xbf2b48ea	-0.66908133
43	0xbebff4bc	-0.37491405
44	0xbd9bf573	-0.07615175
45	0xbe85750f	-0.2606587
46	0x3d53a62f	0.051672157
47	0x3e90418c	0.28175008
48	0x3db1ebda	0.08687563
49	0x3efd1814	0.49432433
50	0xbe424022	-0.18969777
51	0xbe355827	-0.17709409
52	0xbe4e28a5	-0.20132692
53	0x3ec4723d	0.38368407
54	0xbee09bf8	-0.43868995
55	0x3d9b0a34	0.075703055
56	0x3e87b266	0.26503295
57	0xbead4d51	-0.3384805
58	0x3f55b330	0.83476543
59	0x3dc5c49c	0.09656641
60	0x3e4fc356	0.20289358
61	0xbecc1cdf	-0.39865777
62	0xbf2a6a99	-0.66568905
63	0x3ebc3c86	0.36764926
64	0xbe934c80	-0.28769302
65	0xbeb127e8	-0.3460076
66	0xbe1c84bb	-0.15285008
67	0x3db3e952	0.08784737
68	0xbdb9b2b0	-0.09067285
69	0x3e652457	0.22377144
70	0x3d39b388	0.04533723
71	0xbe6baf5b	-0.23016112
72	0xbea69319	-0.32534102
73	0xbe24a3ba	-0.16078082
74	0x3f087e7c	0.53318
75	0x3ef2aeae	0.47398895
76	0xbe135ab8	-0.14390075
77	0xbda34663	-0.079724096
78	0xbe93d7db	-0.28875622
79	0x3e1fde78	0.15612209
80	0xbe8dc4a6	-0.27689093
81	0xbd5ee3ee	-0.05441659
82	0xbd937ebd	-0.07201908
83	0xbe6b4bbf	-0.22978114
84	0x3e1e40f7	0.1545447
85	0x3daf10a9	0.085480995
86	0x3aab40b9	0.0013065554
87	0x3e952ce5	0.29135814
88	0xbe75cdd6	-0.24004301
89	0x3d4daca0	0.050213456
90	0x3e42c784	0.19021422
91	0xbe555671	-0.20833756
92	0xbb2ddf0b	-0.002653065
93	0xbe894066	-0.26806945
94	0x3f884fd4	1.0649362
95	0x3e765f15	0.24059708
96	0x3dd0f824	0.10203579
97	0xbf20a7ec	-0.6275623
98	0xbdc9daba	-0.09856172
99	0xbe32ad19	-0.17448844
100	0xbdfe9e56	-0.12432544
101	0xbedf9e9b	-0.43675694
102	0x3e1d8720	0.15383577
103	0x3eea6175	0.4577748
104	0x3dee40a7	0.11633425
105	0xbe890ee5	-0.26769176
106	0xbf62b6e3	-0.88560313
107	0xbeec8bb8	-0.46200347
108	0xbe52a88c	-0.20572108
109	0x3f338439	0.7012363
110	0xbdfd8868	-0.12379533
111	0xbeca8a5b	-0.39558682
112	0x3cb15c59	0.02165048
113	0x3eb5307c	0.35388553
114	0x3eabdb6c	0.33565843
115	0x3efb8980	0.49128342
116	0x3e85a978	0.26105857
117	0x3ee50a10	0.4473424
118	0xbdf73f67	-0.1207264
119	0xbde855c4	-0.113444835
120	0x3e124e60	0.1428771
121	0xbe402dd4	-0.18767482
122	0x3d3ee451	0.04660446
123	0x3e62c393	0.22144918
124	0x3e554a27	0.20829068
125	0x3ece493d	0.4029025
126	0xbf120af3	-0.5704796
127	0x3e89b69a	0.26897126
128	0x3e0bd121	0.13653995
129	0xbed893a2	-0.42300135
130	0x3dc760cf	0.09735262
131	0xbe47f4cd	-0.19526978
132	0x3e27413e	0.16333482
133	0xbd83838c	-0.06421575
134	0xbe59b0c3	-0.21258835
135	0xbeba0577	-0.36332294
136	0x3989c726	0.00026279053
137	0xbe92155d	-0.28531924
138	0x3ebb7d96	0.36619252
139	0x3ede747a	0.4344824
140	0x3db4497f	0.08803081
141	0xbc9324b4	-0.017961837
142	0x3cb2f334	0.021844484
143	0xbd3598b3	-0.04433508
144	0xbe8fdf4e	-0.28100055
145	0xbd9d728d	-0.076878645
146	0x3d62c9f3	0.055368375
147	0xbe508d36	-0.20366368
148	0xbd216e75	-0.03941198
149	0xbea674c6	-0.32510966
150	0x3de22d01	0.1104374
151	0xbdea0ea2	-0.11428572
152	0xbee90350	-0.4551034
153	0x3dd99617	0.106243305
154	0xbe8f2d3e	-0.27964205
155	0x3bef541f	0.007303729
156	0xbe4df93c	-0.20114607
157	0x3e5e7d4a	0.21727481
158	0x3f633942	0.88759243
159	0xbe2a7faf	-0.1665027
160	0xbe2c9de4	-0.16857105
161	0xbf3b50e0	-0.7317028
162	0x3db7b44f	0.08969938
163	0xbcb9f323	-0.022698944
164	0xbeac1095	-0.336064
165	0x3e26a9d2	0.16275719
166	0x3de79d86	0.11309342
167	0x3ea128c8	0.31476426
168	0xbb2ec475	-0.002666739
169	0x3d9ed30a	0.07755096
170	0x3e0a1ce4	0.13487583
171	0xbdde8203	-0.108646415
172	0x3e6c02f3	0.23048
173	0xbe1906f9	-0.14944066
174	0xbee710d3	-0.45130023
175	0x3d8ff1f6	0.07028572
176	0xbf06df19	-0.5268417
177	0x3db231a3	0.08700874
178	0x3e8d3018	0.27575755
179	0xbdb52877	-0.08845609
180	0x3cfc0cab	0.03076776
181	0x3e26cab7	0.16288267
182	0xbf1674ae	-0.5877179
183	0xbca3f68d	-0.020015026
184	0xbe8f89ba	-0.28034765
185	0x3e59de93	0.21276312
186	0xbd43e02e	-0.047821216
187	0x3d31027b	0.043215256
188	0xbde57fe0	-0.11206031
189	0xbe2605da	-0.1621317
190	0x3fa22bad	1.2669579
191	0x3dfd35e1	0.12363792
192	0xbe9281fa	-0.2861479
193	0x3e251ac8	0.16123497
194	0x3e1a8bef	0.15092443
195	0x3e8873d0	0.26650858
196	0xbda3c9a6	-0.07997446
197	0xbd1d9ab3	-0.03847761
198	0xbde68a24	-0.11256817
199	0xbebc6224	-0.36793625
200	0x3e1787db	0.14797918
201	0x3ef6d973	0.48212776
202	0x3f4589ef	0.77163595
203	0xbda9607a	-0.082703546
204	0x3ccf58c7	0.025310887
205	0xbe9cb7ac	-0.3060888
206	0x3e242323	0.16029029
207	0x3e1f0d18	0.15532339
208	0xbeffc348	-0.49953675
209	0xbeb9065c	-0.36137664
210	0x3c55eb70	0.013056621
211	0xbea73709	-0.32659176
212	0xbd3aafef	-0.04557794
213	0xbede3df7	-0.4340665
214	0x3da721ce	0.081607446
215	0xbe024398	-0.12721097
216	0xbe4a8e5e	-0.19780871
217	0xbc0e770a	-0.008695373
218	0xbeda0ca8	-0.4258778
219	0x3da2a13e	0.07940911
220	0xbd0a4365	-0.03375568
221	0xbbf9821a	-0.0076143863
222	0x3fa4e454	1.288218
223	0xbe3f6f3b	-0.18694775
224	0x3dd4068d	0.10352812
225	0xbe032913	-0.12808637
226	0xbe463286	-0.1935521
227	0x3e354ccd	0.17705078
228	0x3b13a243	0.0022527135
229	0xbe7f9aa1	-0.2496133
230	0xbf0b6c45	-0.5446208
231	0x3f7e458c	0.9932487
232	0x3e24af7b	0.16082565
233	0x3e2e89fe	0.17044827
234	0xbefb311a	-0.490609
235	0xbf2fc0f7	-0.68653816
236	0xbcbe9993	-0.02326659
237	0xbb899320	-0.004198447
238	0xbea9ffad	-0.33202878
239	0xbc3ff993	-0.011717218
240	0xbd8c6e6e	-0.06857
241	0xbde0351f	-0.10947632
242	0xbd4c7f43	-0.049926054
243	0xbf0507e6	-0.5196518
244	0x3e85dc1a	0.26144487
245	0xbf024982	-0.50893414
246	0xbf19afd3	-0.6003391
247	0xbf1802de	-0.59379375
248	0xbdc04f2c	-0.09390101
249	0xbe56bac7	-0.20969687
250	0xbf02ea51	-0.5113879
251	0x3f00d622	0.5032674
252	0xbde78b62	-0.11305882
253	0xbd464563	-0.048406016
254	0x3f84bbe8	1.0369844
255	0x3e2c5cf0	0.16832328
